model/state_dict/model.pt (torch, 248092 bytes, 10 tensors)

cnn.0.weight f4 [5, 5, 3, 3]
000000 da 73 00 be 5f 58 67 3d b7 9a 61 bc d4 61 01 3d
       -0.12544194 0.05648076 -0.013769797 0.031587437
000010 25 76 59 bd 16 1d 94 3c 89 09 cb bb 81 6b 44 3c
       -0.053091187 0.018080276 -0.006196205 0.011988522
000020 22 e6 93 3c 5e 75 74 3d 52 24 b8 bc 95 30 24 3d
       0.018054072 0.059682243 -0.022478256 0.040085394
000030 48 c6 08 3d 89 4b 1e bd a7 a7 b3 3b be 7d e2 3d
       0.03339222 -0.038646255 0.005482632 0.1105914
000040 60 64 c1 3d 5a 81 c5 bd 2a 80 d7 bd 3d 4e ec 3d
       0.09442973 -0.096438125 -0.10522492 0.1153836
000050 c2 b1 64 bc 9f 36 fc 3c f4 50 c0 3d 2f 85 44 3d
       -0.013958396 0.030787764 0.093904406 0.047978576
000060 a0 fb 9f bc 4a 47 2d bd ce c2 f4 3d 0b 15 3f 3f
       -0.019529164 -0.042304315 0.119512185 0.74641484
000070 17 57 98 be 0a b6 84 bb e4 a8 ec bd 2e 75 87 be
       -0.29753944 -0.004050021 -0.11555651 -0.26456589
000080 55 c9 53 be ed f5 3c 3e 42 c6 98 be 70 f9 b3 3e
       -0.20682271 0.18453188 -0.2983876 0.35151243
000090 56 fb f0 be aa df 29 bd ee db 93 3c e3 9e f1 3c
       -0.47066754 -0.04147307 0.018049207 0.029494708
0000a0 2b c8 f4 3d 18 ad 93 3e aa b5 f1 bc a8 fe 64 be
       0.119522415 0.28842998 -0.02950557 -0.22362769
0000b0 02 83 9a be b5 fd ab 3d bd a0 ef 3d 37 4d 13 3e
       -0.30178076 0.08398 0.1170058 0.14384924
0000c0 a8 4c b2 bc 18 82 7a bc 19 3c 1f bc dc 00 0a bd
       -0.021765068 -0.015289806 -0.009718918 -0.033692226
0000d0 e2 f7 b5 3c c8 fb 45 be d5 00 26 be 72 ee 40 be
       0.022212926 -0.19334328 -0.16211255 -0.1884096
0000e0 fb fd cd bd 3c 34 b0 bd 55 35 b2 3d d6 7d 5d bd
       -0.100582086 -0.08603713 0.087015785 -0.054075085
0000f0 46 cd 83 be 19 77 4a 3d 5b 92 8e bc 56 fc f0 bc
       -0.2574255 0.049429987 -0.017403772 -0.029417198
000100 24 8a 1f be 97 8d 09 bc 2d 5b 1d be db 3e 2c be
       -0.1558004 -0.008395574 -0.15366812 -0.16820852
000110 b3 23 42 3b bc 89 83 be 1b 04 b1 3d b0 a9 94 bd
       0.002962333 -0.2569102 0.08643361 -0.07258928
000120 a2 6b d8 bd 96 b0 87 bd 50 da 94 bd fd 7a 4a 3e
       -0.10567404 -0.06625478 -0.07268202 0.19773479
000130 4a c3 0b 3e b4 5a 91 bc d5 a0 64 3c c0 ab a6 bd
       0.13648716 -0.017743446 0.013954361 -0.081382275
000140 91 0d 8e bd 9c 37 26 3d 68 9f 3e be d0 a4 a3 3c
       -0.06936181 0.040580377 -0.18615496 0.01997605
000150 4f f6 0c be 9e 56 ab bc 04 14 90 3d 3a 91 3e be
       -0.13765834 -0.020915326 0.07035068 -0.18610087
000160 47 31 1b be f0 bb 71 be 5b ba d6 3b 40 a8 4d 3d
       -0.15155517 -0.23606849 0.006552977 0.050209284
000170 9a 3b d5 bb 8a 96 1f 3c 38 eb c4 bc 6a a6 e5 3c
       -0.006507349 0.009740481 -0.024037942 0.028033454
000180 3d 45 95 bc 43 9b a1 3d 7a ee 41 bd 3d b4 fd 3c
       -0.018221492 0.07890942 -0.04734657 0.030969733
000190 0a 58 b6 bd 33 ca 13 bd fd ff 76 3d d5 17 84 bb
       -0.08903511 -0.036081504 0.060302723 -0.0040311613
0001a0 91 0b 66 3c 72 c2 a6 bd 8e 6e 82 3b 06 5a a0 bd
       0.014040844 -0.08142556 0.0039804643 -0.078296706
0001b0 df e4 3b 3d f4 4b c9 3d 2d f4 9a 3d 83 fd 9c 3c
       0.045872565 0.0982894 0.07566104 0.019163853
0001c0 a6 a1 88 3d ab 31 43 3d 19 d4 22 3e 97 16 48 bb
       0.06671457 0.04765479 0.15901221 -0.0030531043
0001d0 b8 12 f9 3d 5d f7 a5 be 7a 72 81 be 06 a3 20 be
       0.121617734 -0.32415286 -0.2528265 -0.15687189
0001e0 3e 72 e6 3e 62 43 c0 3e 25 5e a0 3e 84 cf 4f be
       0.45009035 0.3755141 0.31321827 -0.20294005
0001f0 8c e1 7a bc 7f 54 80 3e 51 4f 58 be 87 3e 08 be
       -0.015312564 0.25064465 -0.21124007 -0.13305102
000200 b0 3d 91 3d 08 2d 90 be e9 af d2 be 23 b5 d4 be
       0.07091844 -0.28159356 -0.41149834 -0.41544446
000210 1a f2 ee 3d 1a b1 ea 3e a8 2e 05 bf 3d fb 04 be
       0.11667271 0.45838243 -0.52024317 -0.12986465
000220 21 f6 8c 3d cd bf 53 3d e4 08 10 3d b7 9b 08 bd
       0.06882883 0.051696587 0.03516473 -0.033351626
000230 c1 28 11 bd 9f 66 24 bd 2d 9a 8d 3d 83 69 17 3c
       -0.035439257 -0.04013693 0.06914172 0.009241465
000240 22 5e 3b 3c 6a c2 db bb c0 76 4e bb 71 62 d5 bd
       0.011436017 -0.0067065256 -0.0031503886 -0.10419167
000250 f6 66 1a be 2f 7a 04 be a1 91 e0 bc 81 8c 12 3d
       -0.15078339 -0.12937234 -0.027413191 0.035778526
000260 2e 1f 8c bc 71 da 8e 3b 17 d1 04 be 90 d2 e8 3c
       -0.017104711 0.0043595363 -0.12970386 0.028420717
000270 9e 16 a9 3c d7 91 17 3d d1 af e9 3c 1f db 24 3d
       0.020640668 0.037004318 0.028526219 0.040248033
000280 92 7d 46 3b e0 40 df bc a7 fd 81 bb 6f 31 27 3f
       0.0030287248 -0.027252614 -0.0039670053 0.65309805
000290 1e fe 11 be 3d ac cf 3e d5 bc 6c 3e 73 18 88 bd
       -0.14257094 0.40561095 0.23118909 -0.06645288
0002a0 d5 fb aa 3e 68 b3 f3 3e 7a 6e 33 3d ce 46 31 bd
       0.33395258 0.47597814 0.04380653 -0.043280415
0002b0 d4 bc 42 bf 56 9d 12 3e 90 7e d7 be 85 af a6 be
       -0.7606938 0.14317831 -0.42088747 -0.32555786
0002c0 5d 8a 72 3c b8 9d bc be b5 bd 1f bf 9e 47 8f 3e
       0.014803496 -0.3683908 -0.62398845 0.27984327
0002d0 50 98 10 bd 5f 52 74 3d df 40 08 3d 1b 2f e4 bd
       -0.035301507 0.059648868 0.03326499 -0.11141797
0002e0 64 1e d0 3d b9 9b 01 3e f7 2c 35 3d 17 b0 37 3d
       0.101620466 0.1265706 0.044232335 0.044845667
0002f0 47 fe ad 3d 1b 2a 86 bc 1c d0 c5 bd 2b 59 ce bc
       0.08495765 -0.0163775 -0.09658834 -0.025189003
000300 7e e3 30 bd 6c f4 6b bd 20 4d 96 bb 9b 4a 00 3c
       -0.043185703 -0.057606146 -0.0045868307 0.007830287
000310 ed 25 86 3d 88 e3 c3 bd ae 56 ba bd 1e 77 48 3d
       0.065502025 -0.095648825 -0.09098564 0.048941724
000320 66 2f f6 bc 56 1e c3 bd f7 72 b9 bd 64 6d 8d 3c
       -0.030051898 -0.095272705 -0.09055131 0.017264076
000330 5a 69 26 3d 45 37 65 bd 96 5b 8b bd 9b 3a 76 bd
       0.040627815 -0.055960912 -0.06804578 -0.060114484
000340 1d 8c 8b 3e 3c ab 6e be e6 60 5e be 98 32 39 be
       0.27255335 -0.23307508 -0.21716651 -0.18085706
000350 b7 32 c1 3e 77 80 04 be 1e 1f b7 be 7f 5c 82 be
       0.37734005 -0.1293963 -0.35765928 -0.25461194
000360 be 85 1a 3e 31 94 b1 be dc 02 d6 be c3 35 3b be
       0.15090081 -0.34683374 -0.41799057 -0.18282227
000370 8f e3 3b be e3 24 1e bf 6b 82 0b 3e ed 39 e5 bd
       -0.18348525 -0.61775035 0.1362397 -0.11192689
000380 e2 8a 6f be
       -0.23392823

cnn.0.bias f4 [5]
000000 d3 6e 21 3e ab ea b6 be c4 4c f5 bb bf 75 1e bd
       0.15764932 -0.35725912 -0.007485958 -0.03868651
000010 4d fa 24 be
       -0.16111107

cnn.2.weight f4 [5, 5, 3, 3]
000000 7a 24 a2 be b1 26 d1 3e 4f 8f 29 be 90 a1 51 bc
       -0.31668454 0.40849832 -0.16558574 -0.012794867
000010 99 21 22 be 22 41 cb bc 92 8d a1 3d 48 2a 83 3e
       -0.15833129 -0.024811331 0.078883305 0.25618196
000020 7f ed 98 bd d4 7d ba 3d 90 25 e1 3c 6b 2c 83 3b
       -0.07467174 0.09106031 0.027483732 0.004003098
000030 e5 0f e6 3d 65 54 a7 3d e3 a1 98 3d da 01 69 be
       0.112335004 0.08170394 0.074527524 -0.22754613
000040 b9 91 c8 bd 78 2a 12 be 7b ca 96 be 17 07 fb 3c
       -0.097934194 -0.14274013 -0.29451355 0.03064303
000050 ca 31 57 3d c0 ed 75 3e a4 51 82 3e ed 50 1c 3e
       0.052537717 0.24016476 0.25452912 0.15265246
000060 51 0e dc bd c0 a8 da be 4a 59 19 be 6a 3d fb 3e
       -0.10744918 -0.4270687 -0.14975467 0.49070293
000070 81 68 27 3e 4c 1e a6 3e 86 e6 8b 3d 2b 8e 00 3e
       0.16348459 0.3244499 0.06831078 0.12554233
000080 b5 6a 5f 3c a7 b4 ae 3e 52 45 c4 be d5 b1 ae 3e
       0.013636281 0.34122202 -0.38334137 0.3412005
000090 bd 58 22 3d 0b 75 84 be 2d 93 f6 bd 56 24 37 be
       0.03963541 -0.25870547 -0.1203979 -0.17884955
0000a0 c2 24 19 3e 58 69 9b bd c7 05 9c 3d f9 b2 b3 3c
       0.14955428 -0.07588452 0.076182894 0.021935927
0000b0 9a 64 04 3e 66 85 18 be 21 70 56 3d 26 98 89 be
       0.12929001 -0.14894637 0.05235303 -0.26873893
0000c0 86 96 34 be 2e 7d 7a be 39 ab 24 be 4f 5b c6 bd
       -0.17635545 -0.24461815 -0.16080941 -0.096853845
0000d0 4c 61 88 bc 94 b3 50 be 4c c9 73 3d 31 50 e8 bc
       -0.016647957 -0.20381004 0.059518144 -0.02835855
0000e0 d8 1b ad bd 25 2f 23 bd 34 9b 5a be be 29 31 3e
       -0.084525764 -0.039839882 -0.21348268 0.1730108
0000f0 2f 2f f9 3c 0c 57 87 bc 80 a6 51 3e 7c b2 9b bb
       0.030418007 -0.016521 0.20473671 -0.0047515016
000100 2f 8d 29 3e c8 27 f2 be 71 ba 81 be ed 5f 59 3e
       0.16557764 -0.47295976 -0.25337556 0.21227999
000110 bf de 35 3e 00 d7 12 be a8 22 3b 3e 9c 73 1f be
       0.17760752 -0.14339828 0.18274939 -0.15571445
000120 5d 59 a7 be 7d 86 36 bf 03 6c d7 3e 82 c6 71 be
       -0.32685366 -0.7129896 0.42074594 -0.23610881
000130 f2 cc 80 be 6b bc b8 3a 4e 58 5d be 30 a0 64 be
       -0.2515636 0.0014094239 -0.21615717 -0.22326732
000140 5c fd c6 3e c2 3b 24 be 13 d3 7d be f4 45 e7 3d
       0.38865173 -0.16038421 -0.2478755 0.112926394
000150 52 89 6f bd 03 a4 8a 3e 2a e3 4f be db c9 b7 bd
       -0.05848057 0.27078256 -0.203015 -0.08974048
000160 72 97 8b be 3c af 1a bd e7 4d 95 be 5d b9 d3 3e
       -0.2726398 -0.037764773 -0.29160997 0.41352358
000170 b5 b8 87 3e fa 0a e6 3d b5 75 8f bd 22 10 ae bd
       0.26508108 0.11232562 -0.07004873 -0.08499171
000180 42 7a 0b 3e f9 08 d8 bd 81 31 94 bd 7c 46 a3 3c
       0.13620856 -0.105485864 -0.072360046 0.01993107
000190 ec a6 04 be f6 1a 10 be 9d 0f 1a 3e 95 9e c8 bd
       -0.129543 -0.14072785 0.15045018 -0.09795872
0001a0 bd c9 38 bd 8e 87 8f bd c2 a1 d2 bd ec 48 4f 3d
       -0.045114268 -0.07008277 -0.10284759 0.050606653
0001b0 e7 ed 86 be ba 8d 04 bf e6 58 82 bd dc 04 39 bd
       -0.2635338 -0.5177876 -0.06364612 -0.04517065
0001c0 0f 21 48 be e6 a8 02 bc 40 9e 61 3d aa 44 99 bd
       -0.19543861 -0.007974839 0.05508256 -0.074838
0001d0 d6 ef 79 bb 0a 98 12 3f c8 c9 a7 3e 67 6f 6c be
       -0.0038137338 0.57263243 0.32771134 -0.23089372
0001e0 c9 3e a3 3b 99 18 74 be cf b7 3f be 43 ad ce be
       0.00498185 -0.23837508 -0.18722461 -0.40366563
0001f0 ba 75 4a 3e 25 ae 9a 3d d9 da e6 3c ec 8d a9 3d
       0.19771472 0.07552747 0.028180527 0.082790226
000200 f6 0d d7 bc 22 fd 22 bd d5 c7 e4 3c ba fc a7 3c
       -0.026251774 -0.039792188 0.027927319 0.020506252
000210 6b 28 f3 bd 07 9d ac 3c 57 27 9a bd ab 2a ce bc
       -0.118729435 0.02107097 -0.07527035 -0.02516683
000220 bd c9 23 3d 39 61 6c bd cd 0d 03 bd cd 23 90 be
       0.039987314 -0.057709906 -0.031995583 -0.28152314
000230 ed e0 20 be ab 19 aa be a5 8f c4 be 8f 4f de 3d
       -0.15710802 -0.33222708 -0.38390842 0.10855018
000240 ef d3 00 bd 44 71 15 3e 15 31 32 3e 60 c3 3a be
       -0.031452116 0.14593989 0.17401536 -0.18238592
000250 7b 71 58 bd dc 1b 49 bd 25 40 5d be f9 2d 51 bd
       -0.0528426 -0.049098834 -0.216065 -0.051069234
000260 01 c5 4d 3e e8 03 62 3d ec 0a ef be 0b c4 0c be
       0.20094682 0.055179507 -0.4668802 -0.1374666
000270 c3 7a 76 3e 53 92 72 3d 15 65 82 3d 7d e7 e8 3d
       0.24070267 0.059221577 0.06366936 0.11372278
000280 7c d6 10 bd c4 d9 69 3e eb 2c e8 bd b3 96 47 3e
       -0.0353608 0.22836977 -0.113366924 0.19491081
000290 5e aa be bc 8b 05 38 bf 87 ca 3f 3e d0 3a 92 3e
       -0.023274597 -0.7188346 0.18729602 0.28560495
0002a0 8d 7e e5 be c3 39 a2 3e 7c 5f 42 3e b4 e0 f7 bd
       -0.44823113 0.31684694 0.18981737 -0.121034056
0002b0 a1 e6 0c bc cb 73 b7 3d 33 ca a9 bc 8f 89 f1 be
       -0.008599908 0.08957633 -0.020726299 -0.4717526
0002c0 8a f4 b1 bd 77 6f 33 3e a3 cb 22 3c d2 f4 33 be
       -0.0868922 0.17522989 0.009936246 -0.1757386
0002d0 48 3d 11 be 74 58 17 3e 92 70 5b 3d 01 c3 43 be
       -0.14183533 0.14779836 0.053574152 -0.19117357
0002e0 57 5e 0b be 0b 10 d9 bc b4 cd 5b be b0 39 cc bd
       -0.13610207 -0.026496908 -0.21465188 -0.099719405
0002f0 4f 82 20 3e 5b 8c ee 3d 97 73 10 bd ca 24 45 be
       0.15674709 0.116478644 -0.035266485 -0.19252315
000300 7b 9d 19 be 5b 7a bb 3d ad b0 5b 3d 4c 31 90 bd
       -0.1500148 0.09154197 0.053635288 -0.07040653
000310 2b b4 9f 3d 29 b1 e7 bd 70 d7 0a be 5f 9b 4d be
       0.07798036 -0.113130875 -0.13558745 -0.200788
000320 88 fc 69 3c a0 85 f9 bd 23 59 1d 3c 72 60 f5 3c
       0.0142814 -0.1218369 0.009603771 0.029953215
000330 f8 7b f3 bb df b6 20 bb 6c bc 24 3e 64 b5 2a 3e
       -0.0074305497 -0.0024523062 0.16087502 0.16670758
000340 18 d1 66 be 5f 1d 57 3c 4d 12 1f be db 5a 5d be
       -0.225407 0.013129561 -0.15534325 -0.2161669
000350 b8 55 78 be e2 d5 3a be 49 37 8b bd 5d d5 cd be
       -0.24251449 -0.18245652 -0.06797654 -0.40201846
000360 18 b9 f6 3d 0c 5e fe bc 3d a8 10 be 7a 63 bb 3d
       0.120470226 -0.031050704 -0.14126678 0.09149833
000370 67 77 cf bd 10 f9 dd bc 32 b0 f6 bd 07 d2 a9 3d
       -0.10130196 -0.027096301 -0.12045325 0.08292013
000380 be 00 0f be
       -0.13965127

cnn.2.bias f4 [5]
000000 98 08 b0 bd 19 41 ab 3c b8 3e 87 bd cf 77 fe bb
       -0.08595389 0.020905064 -0.066037595 -0.007765747
000010 5c fb 0e bd
       -0.034907684

network.0.weight f4 [120, 405]
000000 5e 9e fd 3c ea e1 66 3d e9 f5 84 bd ce 21 04 3d
       0.030959304 0.056367792 -0.06492216 0.0322588
000010 93 e1 b2 3b 95 23 08 be c8 8a ae bd 6c dc 29 bd
       0.0054590194 -0.13294823 -0.08522564 -0.041469976
000020 93 95 d3 ba 90 0e 28 bc 11 f5 d4 3b 87 82 bf bd
       -0.0016142599 -0.010257378 0.0064989408 -0.09351068
000030 0a df 99 3d c4 27 4f bd 65 97 7f 3d e7 e9 19 be
       0.075132445 -0.050575033 0.06240024 -0.15030633
000040 36 33 c9 bd da aa d6 bd 4f f2 f7 bd 00 45 46 bc
       -0.09824221 -0.10481806 -0.121067636 -0.012101412
000050 5b 4f 3d 3c 6c 6f 3e bc 25 04 2c be 7c b8 05 be
       0.011554564 -0.011623245 -0.16798456 -0.13058656
000060 36 9b 7f bd 00 6d 90 3d 5d 08 50 bd af 61 90 bd
       -0.06240388 0.0705204 -0.050789226 -0.07049882
000070 d0 4f 1a be 5b 06 c7 bb 44 9c 12 bc 62 6f 87 bd
       -0.15069509 -0.0060737557 -0.008948389 -0.066130415
000080 26 50 87 bc 21 23 1d bd aa 34 f9 bd c4 52 fe bb
       -0.01651771 -0.03836358 -0.12168248 -0.0077613313
000090 68 9c 00 be 92 04 42 be b8 99 8f bd 8a 3d 2a be
       -0.12559664 -0.18947056 -0.070117414 -0.16625038
0000a0 31 e9 51 3c 37 2b ac bb 8d 55 6c bd 2e 0f 63 3c
       0.012811945 -0.005254175 -0.057698775 0.0138586
0000b0 a2 92 a2 bd 89 ec ca bd 60 57 c2 bd ea b3 cf 3b
       -0.07938124 -0.09908397 -0.09489322 0.006338586
0000c0 8b 73 17 bc fa 50 d6 bd a0 e7 bf bd 68 87 91 bd
       -0.009243856 -0.10464664 -0.09370351 -0.07105905
0000d0 82 df 29 bd 22 b3 9e bd 8c d7 1a bd 46 f7 b2 bd
       -0.04147292 -0.077490106 -0.037803218 -0.0873857
0000e0 23 e0 18 bc 2f ab b6 bd e5 1e ef bd 14 bc 12 be
       -0.009330782 -0.089193694 -0.116758145 -0.14329559
0000f0 f3 04 c3 bd b1 40 f3 bd 1c f7 76 bd 29 96 c2 3c
       -0.09522428 -0.11877573 -0.060294256 0.023753243
000100 de a8 59 bd 10 6f 9e bd e2 dd 48 bd 97 69 c2 bd
       -0.05313956 -0.07736027 -0.04903973 -0.09492796
000110 71 ef 76 bd 68 48 48 3d df b7 d0 bd 89 d4 69 bc
       -0.060286943 0.048897177 -0.10191321 -0.014271864
000120 3a a2 dd bd 13 9a ea bd cc 1f 03 be 3e b4 d1 3d
       -0.10821958 -0.114551686 -0.12805098 0.102394566
000130 66 3a f0 bd a1 c3 f4 bd e7 e8 aa bd d5 fe cc bd
       -0.117298886 -0.11951376 -0.08345204 -0.10009543
000140 17 73 7d 3d cc 1d 98 bc 4f f2 6b 3d 1f 48 7c bd
       0.061877336 -0.018568896 0.05760413 -0.061592218
000150 a9 c5 b7 3b 92 d2 9a 3b 46 2e eb bc 1d c3 91 ba
       0.0056082797 0.004724809 -0.028708588 -0.001112077
000160 c9 69 1a bb 02 be 3e 3b a8 c1 5d 3d d0 c7 41 bc
       -0.0023561588 0.0029104953 0.054139763 -0.011827424
000170 8d 35 98 bc 41 91 23 3d 58 bb 9b bd df 5f 16 bd
       -0.018580223 0.039933447 -0.07604092 -0.036712524
000180 0b ce 20 bd 2c eb a5 bb c4 fb 70 bd 6f 2b 95 bb
       -0.039258998 -0.005063435 -0.058833852 -0.004552297
000190 a4 d5 41 3b 10 54 87 3c 78 07 ac bd 88 57 42 bd
       0.0029576803 0.016519576 -0.08399862 -0.047446758
0001a0 de 51 23 3d c6 38 01 bd 11 c2 71 3d 97 3e 0d bd
       0.039872997 -0.031548284 0.059022967 -0.03448352
0001b0 86 79 c4 bd b7 f7 07 bd e0 90 3d 3c 3f 46 35 3d
       -0.09593491 -0.033195224 0.011570185 0.044256445
0001c0 ff ed d7 bb c4 17 70 3d 91 45 53 bc 79 67 5b 3d
       -0.0065896506 0.058616415 -0.012895004 0.053565476
0001d0 52 58 3e bd 7c 42 3a 3b bb 66 01 bd 4e de 8c bc
       -0.046470948 0.0028420975 -0.031592112 -0.017195847
0001e0 11 dd 65 bc 16 c1 61 bc de 1a 62 bd 67 e9 4e bd
       -0.014029757 -0.013778945 -0.055201404 -0.05051556
0001f0 95 e3 9d 3d e4 c0 66 3d 61 5d c0 3c 3a 60 6e bd
       0.077094235 0.0563363 0.023482027 -0.058197238
000200 84 fe 22 3d dc 84 f5 3c e3 21 20 bd 86 05 a5 3c
       0.039793506 0.029970579 -0.039094817 0.020144235
000210 7b e5 d9 3c e9 c3 7d bd ed 25 f9 3a d7 2f bd 3b
       0.026598683 -0.061954413 0.0019008495 0.005773525
000220 6c 17 57 bc 98 4d b3 bd 15 47 2d 3d 2e 14 1e bd
       -0.013128143 -0.08755034 0.042304117 -0.038593464
000230 fd ed 58 bb f1 2d 84 3c 5f c7 5a bd a8 6b bc 3c
       -0.0033100836 0.016135188 -0.05341279 0.023000553
000240 c6 85 b4 bd 07 6d 01 bd b4 5d d1 3b f1 40 06 bd
       -0.08814578 -0.031598117 0.006389344 -0.032776777
000250 a6 5a 29 be 0f e4 94 bd f1 e1 25 bd 7b 40 b3 bd
       -0.16538486 -0.07270061 -0.040498678 -0.08752533
000260 cf bc b8 3c b1 63 3a 3b 85 39 38 bd d2 f8 b6 3c
       0.022550968 0.0028440768 -0.04497673 0.022335444
000270 87 64 61 3d 2b 4c c3 bd 12 27 a1 3d c1 75 ff bc
       0.05502751 -0.09536012 0.0786878 -0.03118408
000280 a5 27 0c bc 3c 42 41 bd 74 0a 5e bd 73 e1 41 be
       -0.008554374 -0.047182307 -0.054209188 -0.18933658
000290 65 16 03 bd 34 b1 1d 3d c1 ab 5b 3d 97 35 05 be
       -0.03200378 0.038499072 0.053630594 -0.13008724
0002a0 38 3f 1b 3d e4 3e 0d 3c 2d fa 16 bd 21 27 3d bd
       0.037902087 0.008620951 -0.03685968 -0.046179894
0002b0 50 40 84 3c dd ba 43 bd b4 62 1a be 76 3c 57 bc
       0.016143948 -0.04778563 -0.15076715 -0.013136974
0002c0 f3 b6 e9 3d 7f 08 ab bd 3b aa 4d bd cc b0 08 bd
       0.11411848 -0.0835123 -0.050211173 -0.03337173
0002d0 36 71 f6 bc 0d 52 7d 3b f9 b1 12 bd 4b 96 8c 3c
       -0.03008328 0.0038653642 -0.03581426 0.017161509
0002e0 da e4 93 be 44 b8 13 be 47 12 49 be 44 55 10 3d
       -0.28885537 -0.1442576 -0.19635879 0.035237566
0002f0 c0 0a a7 3c 84 09 0a be 5b 3e a5 bc 66 be 0d bd
       0.020390868 -0.13480192 -0.020171335 -0.034605406
000300 b7 aa bb bd 7c 05 95 bd 2c 80 21 be 3a cf f9 bc
       -0.09163421 -0.07276437 -0.1577155 -0.030494321
000310 c4 47 15 be 65 d5 b0 bd 4a 09 27 be b3 b5 6e bd
       -0.14578158 -0.08634452 -0.16312137 -0.05827875
000320 60 a5 71 3c 6f 59 1d bd a2 45 15 be cd 37 eb bd
       0.014748901 -0.03841537 -0.14577344 -0.114852525
000330 8b 5c 6c 3a 7e 17 cd bd 6f 4f 55 bd bd 67 d0 bd
       0.00090164755 -0.100142464 -0.052077707 -0.101760365
000340 c8 22 27 bd 49 e0 d6 bc 14 89 4c bd 2b f1 9f bd
       -0.040804654 -0.026229994 -0.049935415 -0.07809671
000350 d1 88 69 bc 89 1c a8 bd 19 39 3e 3c cf 54 8e bd
       -0.014253811 -0.08208568 0.011610293 -0.0694977
000360 4e 4e 15 be 6a 20 e2 bd a6 c0 79 bd f8 12 e3 bd
       -0.14580652 -0.11041339 -0.06097474 -0.110876024
000370 07 37 3c bd d0 f4 44 3b bf 74 a4 bd df 9b 81 bd
       -0.045950916 0.0030053146 -0.0803008 -0.06328558
000380 27 2e 08 be be e5 10 bc ec a1 63 bd 41 74 ee bd
       -0.13298856 -0.008843837 -0.055574343 -0.116432674
000390 44 84 d0 bd c7 b0 0d be db 37 01 3c 1d cb e9 bc
       -0.10181478 -0.13836966 0.007886852 -0.028539235
0003a0 b0 76 d7 bd 53 76 16 bb bb d8 a6 bd ba 6f 04 be
       -0.10520685 -0.002295871 -0.08146807 -0.12933245
0003b0 fe b9 66 bd 8d 7f 2c bd c3 1a 05 be 24 2e ac bd
       -0.05632972 -0.04211383 -0.1299849 -0.08407238
0003c0 f7 3d d6 bd 6a 26 00 bd 4b f9 4f bc 7c 89 d2 bc
       -0.104610376 -0.031286635 -0.012693713 -0.025700323
0003d0 be c8 33 bd e8 a0 26 bc 7c 57 14 be 41 9a 56 bd
       -0.043892615 -0.010170199 -0.14486498 -0.0523932
0003e0 23 01 9e bc 63 34 01 bd be 09 c9 bc fd d9 3f bd
       -0.019287651 -0.0315441 -0.024540778 -0.04683875
0003f0 53 4b cb bc 22 bc a1 bc 72 4d ec bd 2e 63 aa bd
       -0.02481619 -0.019743029 -0.11538209 -0.08319698

network.0.bias f4 [120]
000000 fe f3 12 be ac 41 eb bc 81 ea 7f bb 4f 3b c6 bd
       -0.14350888 -0.028717838 -0.0039049687 -0.09679281
000010 8c a2 b1 bc 87 f4 c2 bd e9 0c 8d bd db d0 5c bd
       -0.021683954 -0.09519296 -0.06887228 -0.053910118
000020 e8 d5 dc bd f0 c4 ec bd c9 02 c8 bd 0f 62 20 be
       -0.10782987 -0.11561 -0.09766156 -0.15662406
000030 22 3d 9e bd 8c 59 16 3d 83 20 b3 bd 0a 79 84 3c
       -0.07726504 0.036706492 -0.087464355 0.016170997
000040 9f 7d 82 bd 97 4e 96 bd 57 ba 3e bb 98 d7 a2 bd
       -0.063716166 -0.073392086 -0.0029102766 -0.079512775
000050 7f cb f8 bd f0 72 ab bd 01 74 71 bd c3 d0 90 3c
       -0.12148189 -0.08371532 -0.05894852 0.01767767
000060 31 31 15 3c f1 51 19 be a6 21 93 bd 64 2a 07 3c
       0.009105966 -0.14972664 -0.07184152 0.008249853
000070 b4 9a d1 bd 8d c4 0f be 9b 12 71 bc 37 c7 c3 bd
       -0.102345854 -0.14039822 -0.014713909 -0.095594816
000080 3c 79 98 bc ed d8 f7 3a 5d 85 13 be 48 dc 5a bd
       -0.018612497 0.0018909253 -0.14406343 -0.053432733
000090 06 8b 1b be cc 5f ae bc 6d 10 1f bc c6 1c 31 3e
       -0.15189752 -0.021285914 -0.009708506 0.17296132
0000a0 37 ca 4a bd 3f f8 04 be e6 03 35 be fc 7d ca bc
       -0.049509253 -0.12985323 -0.17677268 -0.024718277
0000b0 e7 0f 0d bd d7 47 0b bd 7e 1e ee bd d2 3b f5 bb
       -0.034438994 -0.03400406 -0.1162691 -0.007483938
0000c0 ee 4d 26 be 8d 72 d4 3a 19 d7 4e be f5 f6 88 bd
       -0.16240665 0.0016208455 -0.2019924 -0.06687728
0000d0 9b 8d 8b bc 60 74 ad bb df af f3 bd 87 6a a2 bc
       -0.017035296 -0.005293414 -0.11898779 -0.019826187
0000e0 b7 58 7f bd 35 0d fe bd ce 48 42 bd a9 1c 51 bd
       -0.062340464 -0.12404863 -0.047432713 -0.051052723
0000f0 99 de 20 bd 76 3c f5 bc 1a 04 0c be 68 df f7 3d
       -0.039274786 -0.029936057 -0.1367344 0.12103158
000100 13 a3 6f bd ea 3c db ba a9 ed 34 bc a7 83 a0 bd
       -0.05850513 -0.0016726528 -0.011042991 -0.07837611
000110 4e 21 7a 3c 75 f1 4c be 8f 2b 8a bd 10 1c a3 bd
       0.0152667295 -0.20013984 -0.067465894 -0.07964337
000120 41 84 2e be 51 c4 91 3d 4e a6 2c bd 5a 2b 0e be
       -0.17042638 0.071175225 -0.042150788 -0.13883725
000130 d7 a4 5e bb 82 d8 73 bd 36 f5 95 bd cf 2d 2f bc
       -0.0033972764 -0.05953265 -0.07322161 -0.010692074
000140 93 13 7c bd 0c 86 62 bd 4a 5a c2 bb c1 77 6b bd
       -0.061542105 -0.05530362 -0.0059311735 -0.057487253
000150 d2 02 a1 bd b7 a4 43 3d bd 55 a4 bd 3b 8c a1 3b
       -0.07861866 0.047764506 -0.08024166 0.004930047
000160 9d ae 8c bd 05 7f 07 be ae 6a 09 3e dc f3 e0 bd
       -0.06869242 -0.13232048 0.13419601 -0.109840125
000170 fb 88 3c 3e 90 07 52 bc 8e 2f a4 bd 4f 4c a0 bd
       0.18411629 -0.012819186 -0.08016883 -0.07827055
000180 ab 73 c4 bd 0e d8 13 bc b6 ad 79 bd 43 57 cf bd
       -0.095923744 -0.009023679 -0.06095668 -0.10124066
000190 99 bd 3e 3d 2d c2 bf bd 22 c8 a7 bd b9 d5 a6 bd
       0.046567533 -0.09363208 -0.08192469 -0.08146233
0001a0 9f 63 ca bc 8d 41 bb bd f5 a4 aa be 27 90 ae bd
       -0.024705706 -0.09143362 -0.33328977 -0.08523589
0001b0 bc eb 6a bd ed 15 0a bd 08 e9 5a bb 49 f2 9a bc
       -0.05735372 -0.033712316 -0.0033403058 -0.018914359
0001c0 18 dc ee 3c d4 94 16 3d 36 97 da bd e2 cb 55 bd
       0.029157683 0.036763027 -0.106733724 -0.05219639
0001d0 35 f7 b4 bb 86 3e a8 3b f5 ff e3 bd 10 6d 8c bd
       -0.0055226334 0.0051344065 -0.11132804 -0.068567395

network.2.weight f4 [84, 120]
000000 e0 4a 13 3d fc d7 86 3c 10 d7 12 3e e9 6a 3e bd
       0.03596008 0.016460411 0.14339852 -0.046488676
000010 44 27 1e 3e 6e bb 99 bd b6 9a ec 3c 6d d7 97 3c
       0.15444666 -0.075064525 0.028882366 0.01853534
000020 19 41 7c bd a4 66 8d 3d e5 4e 55 3c 2a 6a e7 bc
       -0.06158552 0.06904343 0.013019298 -0.028248865
000030 40 16 fb 3c 8f f8 8c 3e f4 9d d9 3c 4c 37 af bc
       0.030650258 0.27533385 0.026564576 -0.021388672
000040 49 84 cb 3c e7 62 69 3d d5 c8 b9 3d 97 ca 35 3d
       0.024843352 0.056979086 0.09071509 0.044382658
000050 70 ee 3f bd 05 27 a0 bc 4f f2 a1 ba 01 8f c2 3e
       -0.04685825 -0.019549856 -0.0012355539 0.37999728
000060 a6 c0 16 3e dc 89 d0 3b 35 36 ce 3d c8 53 4e 3d
       0.14721927 0.0063640904 0.10068933 0.05037287
000070 46 a5 d5 bb 92 a6 ec 3b 62 fb c9 3d ba d4 3a be
       -0.0065199463 0.007222005 0.098624006 -0.18245211
000080 c8 c7 e6 3d d0 82 a0 3e 5f 92 8f 3d 32 5f 2e 3d
       0.11268574 0.31349802 0.0701034 0.042571254
000090 0c db a3 bc 24 0a b0 bc 97 56 27 3e 01 53 a8 bd
       -0.02000191 -0.02148921 0.16341625 -0.08218957
0000a0 6b 72 29 bc 6b ee fd 3b 6d eb 87 bd 91 e1 26 3e
       -0.010342221 0.007749369 -0.06636701 0.16296984
0000b0 a0 8b b4 bd e3 76 8d 3e 9c 38 46 bd d8 52 75 3e
       -0.08815694 0.27629766 -0.04839383 0.23957384
0000c0 12 43 0b 3c ab 9e 94 3e 21 13 a8 bc 77 77 5a bd
       0.0084998775 0.29027304 -0.020516934 -0.053336587
0000d0 74 66 b7 3d fa 14 c5 3c d3 ef 24 bd 1c 09 94 3e
       0.08955088 0.024057854 -0.040267777 0.289132
0000e0 af f7 7e 3d 04 72 04 3e d2 d7 10 3d 73 e4 67 bd
       0.06224793 0.12934119 0.035362072 -0.05661435
0000f0 ef 76 7f bc d3 41 3f 3e 0a 48 ae bd 6f 0f c3 3d
       -0.015592321 0.18677454 -0.08509834 0.09524428
000100 c5 d3 09 bd b5 9b 3e 3e 82 18 52 3e 94 31 41 3a
       -0.033649225 0.18614085 0.20517161 0.00073697534
000110 c5 7b 92 bb 1c 9f ee b9 00 8a 86 bd b8 c5 5c bc
       -0.004470321 -0.00045513443 -0.0656929 -0.013474874
000120 c9 c4 1a 3d b1 95 6a 3e a4 92 a0 3d 7c 92 8a 3d
       0.037785325 0.22908665 0.078404695 0.06766221
000130 c9 14 c4 3b 29 6c 23 3e 16 b5 e0 3c c2 03 4f 3e
       0.005983923 0.15959229 0.027430099 0.20216277
000140 15 e4 8b bd 39 0f 8d 3c c1 7d b7 3d 17 c7 7a bd
       -0.068306126 0.017219173 0.089595325 -0.061225023
000150 d8 c2 40 bd e7 40 b8 bd a5 2d 44 bc 5d a9 9b 3e
       -0.047060817 -0.08996754 -0.011973773 0.3040265
000160 aa b4 57 3d 89 72 3b be 19 8b dd ba 15 27 5a 3d
       0.05266253 -0.1830541 -0.0016902416 0.053259928
000170 40 87 78 3d c2 1b c9 3e 3e 21 10 3d 67 34 79 bc
       0.06067586 0.3927899 0.035187952 -0.015210248
000180 8e 79 67 bd d4 d2 99 3d 80 55 02 3d 18 1b 54 3d
       -0.056512408 0.075109154 0.03181982 0.05178365
000190 1f 2e d6 3d a7 79 28 bd 26 8d ce bd c9 9b 16 3d
       0.10458016 -0.04113164 -0.10085516 0.036769662
0001a0 fd 51 cf 3d 70 46 b4 bd b0 0a 02 bd 2a ff 84 bc
       0.1012306 -0.088024974 -0.031748474 -0.016234953
0001b0 62 37 0f bd b7 b8 f2 3c c1 10 ac 3e 93 d1 7f bd
       -0.034964927 0.029629095 0.33606532 -0.062455725
0001c0 81 9c 3c 3e 9a e7 46 3d bf c4 3f 3d de 99 f4 bc
       0.18419077 0.048560716 0.04681849 -0.029858526
0001d0 f5 67 7e 3d 76 bd d1 3e 43 24 c1 bd 27 5d 46 3d
       0.06211086 0.4096486 -0.094307445 0.04842868
0001e0 03 0a 9a bc 7e fd 8d be 1e 9c 16 3d 68 3f b0 3d
       -0.018803602 -0.27732462 0.03676998 0.08605844
0001f0 3c 2c 80 be 97 11 26 3d 96 81 a3 bd 28 f1 e3 bd
       -0.25033748 0.04054412 -0.07983701 -0.11129981
000200 ec 6f ed 3c 51 44 82 bd df 1b aa 3c 90 50 50 bd
       0.028984033 -0.063606866 0.020765243 -0.05085808
000210 df 8e e5 3c 8a cd 1a 3d 29 0e 7a 3c 12 8c 08 3e
       0.028022228 0.037793674 0.015262165 0.13334683
000220 42 8a c3 bc b1 05 5d 3c 7c dd 40 bd 78 11 7a 3c
       -0.023869637 0.0134901265 -0.047086224 0.015262954
000230 ab 6e 86 bd 4e 26 d6 3c d4 e9 06 3d 94 37 11 be
       -0.06564077 0.026141312 0.03293784 -0.14181358
000240 ea 66 17 be e8 a6 91 3d 59 11 91 bd cd c5 19 be
       -0.14785352 0.07111913 -0.07083387 -0.15016861
000250 b2 96 27 be eb 4e e1 bc 7b 94 9f bd 1a 13 56 be
       -0.1636608 -0.027503451 -0.07791992 -0.20905724
000260 90 33 c2 bd 85 50 e4 bd e6 4d d8 bd d7 8f 43 bb
       -0.09482491 -0.111481704 -0.10561733 -0.0029840374
000270 47 f6 c7 3c fc 96 76 bc 45 38 e2 bd c6 5a ce 3d
       0.024409426 -0.015050646 -0.11045889 0.100759074
000280 9f 5a 28 bd e7 df 85 bd 40 61 a9 3d 28 01 77 be
       -0.041102048 -0.065368466 0.08270502 -0.24121535
000290 7b 85 b4 bd e4 b4 97 be 91 49 3c bd db bf 04 be
       -0.08814522 -0.29630196 -0.045968596 -0.12963812
0002a0 9b 8e 30 bc 54 40 91 be 5e fc 68 be fa 2c 55 3d
       -0.010776187 -0.2836939 -0.2275252 0.052044846
0002b0 64 e5 ad bc 57 e6 ca bd 41 a0 e1 3c ca ac 52 3e
       -0.021227546 -0.09907215 0.027542235 0.20573726
0002c0 9c 57 0a bd ae bf c1 3a 08 e1 6a bd a3 d0 06 3c
       -0.033774957 0.0014781856 -0.057343513 0.008228454
0002d0 d2 c4 9b bd 25 49 52 be f2 b6 d7 3d e3 59 6c bb
       -0.076059 -0.20535715 0.10532941 -0.003606432
0002e0 42 f7 41 bd 3c c6 01 3e 4c 50 fd 3d 44 53 82 3c
       -0.047354944 0.12673277 0.12368831 0.015908845
0002f0 a4 4a 41 3d 0a a3 0e be a8 42 9d bd 01 d2 af b9
       0.047190323 -0.13929382 -0.07678729 -0.00033535066
000300 30 e5 e5 3b 02 08 82 3d ba ff 9e bc 53 cc bb 3a
       0.0070158467 0.063491836 -0.01940905 0.0014327861
000310 46 6b 3b bd 77 9e 87 bc 6d af a8 bd e0 10 09 be
       -0.0457566 -0.016555054 -0.08236585 -0.13385344
000320 ce 19 b5 bd 36 50 a6 3d 4d 11 54 be 17 10 42 3d
       -0.088428125 0.08120768 -0.20709725 0.047378626
000330 cd 51 ca bc 9d e4 ab 3c ad 63 98 bc e5 95 55 be
       -0.024697209 0.020983035 -0.018602217 -0.20857961
000340 6c a6 26 be a5 00 99 bd 86 06 5b 3d 38 36 80 3d
       -0.16274422 -0.07470826 0.053473018 0.062603414
000350 b0 17 b3 3d d2 1d 01 be 0f 1c 99 3c 4a 86 31 bd
       0.087447524 -0.12609032 0.018690137 -0.04334096
000360 6e df d2 3d 3a e1 63 3e 04 fa b6 3d ba 27 1e 3d
       0.10296522 0.22253886 0.089344054 0.038612105
000370 44 d1 02 3e a5 8a 4c bc ff bd 3d bd d3 4d 23 3d
       0.12775141 -0.012484227 -0.046323773 0.03986914
000380 eb 64 58 3d 8a e7 92 bd 7e 3c 07 bd 9e 85 38 bc
       0.052830618 -0.07173069 -0.033016674 -0.011262326
000390 a4 33 64 3d e2 05 a1 3d 9d 9b 51 be 73 e4 a2 3d
       0.05571331 0.0786245 -0.20469518 0.079537295
0003a0 ed ea 9c 3d 52 ca 97 bd d4 82 c4 bd 6e 6c 80 bc
       0.07661996 -0.074116364 -0.09595266 -0.015676703
0003b0 11 47 9b be 9b 66 36 be c1 15 ea 3b 96 a4 99 3d
       -0.30327657 -0.17812578 0.0071437065 0.075020954
0003c0 0a da b6 3d 7c 0f aa 39 0a ec b5 3c be a9 1d 3d
       0.089283064 0.00032436464 0.022207279 0.038491957
0003d0 14 52 d9 bb 28 e2 a2 bd 49 79 5e bc d9 15 52 3d
       -0.006632099 -0.07953292 -0.013578721 0.051290367
0003e0 3c 97 9b bd 82 75 3e bd d6 88 25 bd dd 7f 94 3d
       -0.07597205 -0.046498783 -0.0404137 0.072509505
0003f0 fa 31 52 3d a2 49 ad bc 6a 79 91 bd b4 58 2d 3b
       0.051317193 -0.021153275 -0.07103236 0.0026450576

network.2.bias f4 [84]
000000 8b 61 78 3e 64 b7 03 3d fc fa bb bd a0 01 47 3d
       0.2425596 0.032157317 -0.09178731 0.048585534
000010 e2 a5 7e bd 64 bc 63 3d 95 62 c6 3a bc 8f 6a 3d
       -0.062169917 0.055599585 0.0015135581 0.057265982
000020 ff f4 d9 3d 7a 79 38 3d 83 5c 02 be 75 03 ea bd
       0.106424324 0.045037724 -0.12730603 -0.114264406
000030 5c a0 c8 bd 2c 85 8d 3c a0 ff 74 3d 59 27 ac bd
       -0.09796211 0.017275415 0.059814095 -0.084059425
000040 53 1a ca bc 3e fe d0 bd 05 3a 9f bd a8 08 da 3d
       -0.024670755 -0.10204743 -0.07774738 0.10646182
000050 7d 1b 33 bd f5 5c 02 3c e4 24 ea bc ee 4c ce bd
       -0.043727387 0.007956733 -0.028582044 -0.10073267
000060 b7 6e 0f be be 14 eb 3d 2a 6c b2 3d cd fa 77 3d
       -0.14007078 0.11478566 0.08712037 0.060541917
000070 de c5 d3 3d eb 46 32 3d 0a a2 93 bd e3 f5 01 bc
       0.103404745 0.043524664 -0.07208641 -0.007932159
000080 9a c8 01 be 89 b2 f5 bd 5e 95 ae 3d 87 0d 0c be
       -0.1267418 -0.119969435 0.08524583 -0.13677035
000090 a4 91 44 3e ab a4 fd b9 3b af 69 3d 13 8d e1 3c
       0.19196182 -0.00048378608 0.05705188 0.02753309
0000a0 69 bd 23 3d aa a2 c9 3d 92 85 3a 3d f1 b3 bb 3d
       0.039975557 0.09845479 0.04553754 0.091651805
0000b0 88 f4 1c 3d 49 60 ac bd 54 e2 2a 3d 52 0a c5 bd
       0.03831914 -0.084168024 0.04171975 -0.09621109
0000c0 48 98 2e bd 8e 15 a0 3d 83 bb e1 3d 7d cc 11 3d
       -0.042625695 0.07816611 0.11022093 0.035595406
0000d0 5f a7 a9 3d b7 b1 9e bc 15 d4 03 be 25 df f9 3d
       0.08283877 -0.01937185 -0.12873872 0.122007646
0000e0 16 9b ac 3d ea 08 e1 bd c7 0a 18 3d 59 e7 bd bd
       0.08428018 -0.10988028 0.037119653 -0.09272642
0000f0 52 e2 09 bc 08 8c a9 bd d9 81 58 bd 24 fa 56 bd
       -0.008415775 -0.08278662 -0.052858207 -0.052484646
000100 0f 7f cc 3d 3b 2c f1 3b 7f 9b 39 bb d4 d2 9b 3d
       0.09985172 0.007360009 -0.0028321443 0.07608572
000110 d1 ba f9 b7 c2 1a 98 3d b3 8e 5e 3d ec 64 07 be
       -2.9770106e-05 0.07426979 0.054335307 -0.13222092
000120 75 93 fe bd e8 bd 01 be ec 4f b6 3d ef d1 9a 3d
       -0.12430469 -0.126701 0.08901963 0.07559573
000130 39 f5 a0 bc bc a6 a7 3c 4d 16 c3 3d 16 c5 d0 3d
       -0.019648181 0.020465247 0.09525738 0.10193841
000140 b6 2f 5d 3d 53 fd c0 bd 10 80 08 3d aa 41 af 3d
       0.05400058 -0.09423318 0.033325255 0.08557446

network.4.weight f4 [21, 84]
000000 7a 38 be 3d f9 ba 81 3d fa 8a 91 3d 63 a8 8c be
       0.09288116 0.0633449 0.07106586 -0.2747222
000010 15 88 8f bd b7 87 7d 3d 25 9f 1e be 6a 8f 87 bd
       -0.070083775 0.061897006 -0.15490396 -0.06619151
000020 84 a4 60 3e ec d7 c5 3d 87 ab cf 3c 30 de 44 bc
       0.21937758 0.096603245 0.025350345 -0.012015864
000030 3c 6b 7a b8 47 59 79 bd 8f 46 8a 3c 09 17 06 bd
       -5.9704515e-05 -0.060876157 0.016879348 -0.03273681
000040 d5 62 bc 3c bf 28 1a 3d 82 dd 9d bd 46 71 f3 3c
       0.022996346 0.037636515 -0.07708265 0.029717099
000050 38 8d 87 bb ca fb 5c be f3 c2 ff bc 27 ed 9c bd
       -0.0041367076 -0.21580425 -0.031220889 -0.07662421
000060 5d f0 db 3c e5 e6 d8 3c ea 67 94 3d 9c 97 99 3d
       0.026848013 0.026477287 0.072463825 0.0749962
000070 4b bc 8f 3e ad 88 91 bd a8 ef 95 b9 32 95 cf 3d
       0.28073344 -0.07106147 -0.00028598052 0.101358786
000080 3d c6 0c 3e 29 af 88 3d 8e e2 f5 3d d0 39 0d bd
       0.13747497 0.06674034 0.120061025 -0.034478962
000090 85 eb 5b 3e ca 19 79 3e ed a0 ad bd de be 2e 3e
       0.21476562 0.24326244 -0.0847796 0.17064998
0000a0 09 5b 64 3d e9 51 61 ba 56 71 68 3d c9 77 41 be
       0.05575088 -0.00085952744 0.05674871 -0.1889335
0000b0 95 70 ea 3b bf bc 85 bd 28 d5 17 3d 89 a3 80 3c
       0.007154534 -0.06530141 0.037068516 0.01570298
0000c0 95 70 96 3c a3 3e 4e be 0d 4b 48 3e 1a db ba be
       0.01836423 -0.20141082 0.1955988 -0.36495286
0000d0 5e 7b 7f 3d f5 69 d4 3c 0f 2f b5 bd 7a 8a 92 be
       0.06237351 0.02592943 -0.08846866 -0.28621274
0000e0 8a 1e 52 bc 4e bf 2d 3c e6 5e 5e 3c 29 5f b1 bc
       -0.012824664 0.010604693 0.01357243 -0.021651821
0000f0 4c 93 65 be c4 00 a4 3c 75 27 84 3d d3 7e 79 3d
       -0.2241947 0.020019896 0.06452838 0.060911965
000100 4a d9 f6 3d b3 ec 65 3d 94 f6 16 be 70 e2 86 3c
       0.12053163 0.056133937 -0.147425 0.016465396
000110 22 7e 24 bd 49 12 7b bd 6c f2 70 3d 3b 65 a1 3d
       -0.040159352 -0.061296735 0.05882494 0.07880636
000120 09 7b 76 bc 0d c5 b3 3d 7a 00 f8 bd df a1 ca 3d
       -0.015043982 0.08777819 -0.12109466 0.09894156
000130 c4 50 03 bd b1 15 d1 3d b3 30 96 3d 0c 9e b7 be
       -0.032059446 0.102092154 0.073335074 -0.35862768
000140 9c 68 1f be a2 76 27 3d b9 8b bb bc d2 82 a3 bd
       -0.15567249 0.04088462 -0.022893773 -0.07983936
000150 c3 33 77 3d 95 4a 6f 3d 55 57 cf bd a9 00 31 be
       0.0603521 0.058420736 -0.10124079 -0.17285408
000160 54 36 9d bd c6 73 47 3d 47 bd 09 3d 40 0c 8a bd
       -0.07676378 0.048694395 0.033627775 -0.06740618
000170 9b 32 0b 3e 5e 9b ae 3d 2c 32 d3 bd 06 82 53 bc
       0.13593523 0.08525728 -0.10312304 -0.012909418
000180 b9 e7 45 bc 38 33 0f 3d cd 51 03 3e bd a5 8e bc
       -0.012079173 0.034960955 0.12824173 -0.017413015
000190 0d cb 45 bd 84 29 eb bc 0f bd 77 bc 62 af 7e 3d
       -0.048289347 -0.02870632 -0.015120759 0.062178977
0001a0 76 52 92 bd 12 22 bd bd 22 30 da 3c 92 11 f3 bc
       -0.071446344 -0.09235014 0.02663428 -0.029671464
0001b0 ed 47 95 3d 5b b1 bc 3d d1 f0 9e 3d 6d 89 29 3e
       0.072891094 0.09213515 0.07760776 0.1655633
0001c0 96 98 e0 bb 48 28 54 bd 8b 49 50 3b c3 2a ec 3d
       -0.006854127 -0.051796228 0.0031782116 0.11531594
0001d0 1e 9b 43 bd d3 9a 8d bd f8 3c 07 3d 91 19 46 3c
       -0.047755353 -0.06914296 0.03301713 0.012091056
0001e0 83 b2 3b 3e f9 f1 81 3b 64 80 af bd b6 c2 20 3d
       0.18329816 0.003965613 -0.085694104 0.03924819
0001f0 3f 54 8d bc e2 e4 4d 3d 52 71 61 3d d8 41 63 bd
       -0.017252086 0.050267108 0.05503971 -0.055482715
000200 f3 55 b4 3a 83 9f 9f 3d df f0 0c 3e d6 d3 1d bd
       0.0013758525 0.07794096 0.1376376 -0.0385321
000210 9b 39 95 3d a5 dd c4 bd 21 1b be 3c 4c d3 66 be
       0.07286378 -0.09612588 0.023206295 -0.22541541
000220 62 48 7d 3d 1e 72 92 bd 2a 6f 8a 3c 31 fa a4 be
       0.061836608 -0.071506724 0.01689871 -0.3222213
000230 45 b4 e8 3d ef 18 24 bd 47 83 e1 bd 7a bc d6 3c
       0.11362509 -0.04006284 -0.11011367 0.02621292
000240 55 9b 2a be c0 4d 89 3d b4 17 92 3c 86 6a 83 bd
       -0.16660817 0.06704283 0.017833568 -0.06416802
000250 8c 10 8e bd 40 16 ed bd 58 56 a6 bd 5f a0 18 bd
       -0.0693675 -0.115765095 -0.081219375 -0.037262317
000260 5a 27 68 3d b7 c3 2b bc 03 84 d4 3d 5b d7 02 3d
       0.056678154 -0.010483674 0.10376742 0.03194366
000270 bf 82 f3 3c f4 d7 aa 3d 60 9f 60 3d 68 90 0a 3e
       0.02972543 0.08341971 0.05483949 0.13531649
000280 c3 98 85 bd 0c e9 cf 3d 04 d9 86 3d 79 96 34 be
       -0.065232776 0.10151872 0.06584361 -0.17635526
000290 e9 a3 07 be b5 ad 32 3d a2 84 be 3d 12 87 86 bd
       -0.1324612 0.04362269 0.093026415 -0.06568731
0002a0 dd 84 33 3d 16 29 8b 3d 51 bc 95 3d 4f 99 d1 bd
       0.04382788 0.06794946 0.07311309 -0.102343194
0002b0 59 e1 2b bd 5b 35 74 3d 7e fd c7 3d 03 e2 d0 3c
       -0.041962955 0.059621196 0.09765147 0.025498396
0002c0 39 63 2e 3e 76 f0 4a 3d 8b 69 09 3c 88 44 b5 bd
       0.17030038 0.049545728 0.00838698 -0.08850962
0002d0 7e b1 59 bd cb db e5 bc f2 0d 1a 3d 55 b1 dc bd
       -0.053147785 -0.028058907 0.037610956 -0.10776011
0002e0 f6 ff bc bb 9e a7 ec bb 5b ce b5 3c d7 1a bb bc
       -0.0057678176 -0.00722213 0.022193125 -0.022839947
0002f0 76 99 02 be 25 5a 8a bd ff 56 1c 3c f1 23 c7 3d
       -0.12753853 -0.06755475 0.009542226 0.09723652
000300 03 28 ad bd 65 56 2e 3e 34 41 8b 3d dc ca ae 3d
       -0.08454897 0.17025144 0.06799546 0.08534786
000310 58 f6 8f 3d 70 1c 27 bd 03 e2 4b bb eb f9 ac 3d
       0.07029408 -0.040798604 -0.0031110055 0.084461056
000320 8e 72 c7 bc a3 69 8e 3c a2 e4 59 3c 56 db 90 3d
       -0.024346616 0.017384356 0.013299139 0.07073085
000330 51 60 dc 3d 44 ef e2 3d fc 4d 48 bd cf 29 8a bd
       0.107605584 0.110807925 -0.048902497 -0.067462556
000340 be ac 33 3d a2 bc 8f bd cc e9 f8 3c 39 d0 8b bd
       0.04386591 -0.07018401 0.03038492 -0.06826825
000350 d1 cc fe bd 5c c9 03 3a 12 60 f1 3b f0 98 4f bd
       -0.124414094 0.00050272583 0.007366189 -0.050682962
000360 1d b6 08 3d 89 82 76 bc 19 c9 91 bd b0 de 21 be
       0.0333768 -0.01504577 -0.071184345 -0.15807605
000370 cf bc 72 3d 02 44 5f bd ab 37 11 3d 04 f5 36 be
       0.059262093 -0.054508217 0.03545348 -0.17866904
000380 4f a2 c2 3d 1e 2b 5f 3d 0d 57 50 bd af ae ca 3d
       0.09503614 0.05448448 -0.050864268 0.098965995
000390 b2 6e cf bc 2c fd 06 bb b8 db 26 3d b2 aa 86 3d
       -0.025321338 -0.002059768 0.040736884 0.06575526
0003a0 c9 dc 2b 3d c5 f0 8c bd a2 9c b7 bd ea 9b 5d bd
       0.041958604 -0.06881861 -0.08965422 -0.05410377
0003b0 17 36 42 3d e2 30 b1 bd 43 fe 7f 3d 2d 98 8f bd
       0.047414865 -0.08651902 0.062498342 -0.07011447
0003c0 97 28 c1 bd d2 57 07 3d b0 2b b0 bc cc 0f 22 39
       -0.0943157 0.033042736 -0.021505207 0.00015455409
0003d0 cc bf 09 bd ad 76 a3 3d 95 56 c0 3d 65 c9 4c be
       -0.033630177 0.0798162 0.09391514 -0.19998701
0003e0 21 c3 9b bd 34 a6 84 3d c6 02 89 3c 18 8e 02 3e
       -0.07605577 0.06477013 0.016724955 0.12749517
0003f0 6d f3 d9 3d 00 2c 5f 3d c5 57 27 3d 29 4c 0f bd
       0.10642133 0.05448532 0.040855188 -0.03498474

network.4.bias f4 [21]
000000 7a 3f 34 3e ec e2 e9 3d 2e 6e e4 3d 73 38 c2 3d
       0.1760234 0.11420235 0.111538276 0.09483423
000010 0e 18 fd 3d fb f7 0f 3e 0b 87 10 3e 36 ea d4 3d
       0.12358104 0.14059441 0.14114015 0.10396235
000020 aa 30 10 3e f2 76 0f 3e cd 69 1f 3e 32 cb f3 3d
       0.14081064 0.14010218 0.15567704 0.11903991
000030 20 32 57 3e 8d 94 5d 3d 9e c7 25 3d 25 fa d5 3d
       0.21015215 0.054096747 0.040473573 0.10448102
000040 5f 3c 0e 3e 39 bc 42 3d ce a1 80 3d ca 47 e8 3d
       0.13890217 0.047542784 0.06280862 0.11341818
000050 e4 50 05 3d
       0.032547846
