model/state_dict/model3.pt (torch, 248234 bytes, 10 tensors)

cnn.0.weight f4 [5, 5, 3, 3]
00000000: 2742 8b3d 276f 0d3e c15e 923d 2e47 1c3e
00000010: ef33 133d 03ec 383e 5e45 4b3d 94b3 ee3d
00000020: 6064 3b3d 115a 92bc 3dec 283e 3078 d03d
00000030: 20cc 1e3d e7bb d43d 78df 023d 891e b43d
00000040: cba8 7a3c 935a 023e bc48 a53d f2e2 11bd
00000050: ceaa 203a 7d36 c63d 17a1 143e 3d1b 8f3d
00000060: 6663 ee3b b56b e63d 531b 2cbc d7d8 67be
00000070: a4d8 133f ec95 4bbe 82f9 ed3e d1ef b5be
00000080: 26c4 d2bd 0dec 24be 7793 99bd 00ed 9ebd
00000090: 74ee 883d 377d 0ebf d308 773c dfb5 0fbf
000000a0: c494 28bf ad43 983d 8c8b a03d 7e8b bdbd
000000b0: ede0 f53c 9559 30bb b988 51be 3916 aabb
000000c0: 255b efbd f2ea af3d ed0c 8ebd 2daf d13d
000000d0: d594 32be 43fd b2bd 5488 32bd 28bc 4cbe
000000e0: 9ddb e3bc 84d1 913c 7b21 8abe 5f12 97be
000000f0: a78c a13d 94a1 89bd d137 1bbd 8d74 93bd
00000100: 52ad a2bc ce0e 20bd 6c13 95bd 12b4 09be
00000110: df36 f9bd 6c45 e8b9 7808 033e e85b ddbc
00000120: ae10 83bc 32e0 a13e a3bd 0a3f 147c 75bd
00000130: 90d6 95bd e586 883e 72e5 82bd 911a 853e
00000140: 41c2 223c 2d17 ac3c 206d b4be 6bc5 a7bf
00000150: 48f5 0a3d a734 0a3e 8595 a2be 702b d23d
00000160: 96fd 78be 7114 82bd 595e 253c 5b4b fb3c
00000170: b26b c3bd 544f 41bd 5d39 3d3d 06ae 56bd
00000180: 6c39 6cbd c9af 64bd e6f4 583c 149e dc3b
00000190: 20dc 2c3e c631 043e 246a 07bb dc00 1abe
000001a0: 8784 1dbd 45d1 163e f8fb 693e 014e 0c3e
000001b0: 5ae6 e9bd ed78 03bf 01f5 08be 6dd4 9fbd
000001c0: 477d 9d3d 6dba f8bc 0066 82be 7942 b9be
000001d0: 7007 77be 48c1 ae3e 4f31 453f b92c 683e
000001e0: ab41 ddbc 6062 85be 3258 2ebe e7b1 23be
000001f0: 468a e0bd 61de 0bbe 9267 95be 0eeb e1be
00000200: d823 36be 067b b73d 0a3b e63e cefc 593e
00000210: 3138 5a3e 1ed1 473e 9f31 d23d 5420 d9bb
00000220: a752 bcbd 98e5 a5bc 7fbf 68be 70d4 80bd
00000230: f805 0cbd 6ac5 84be e986 263d 8e38 883d
00000240: 0a9a b1bd 24a5 a1be 3ea5 49bd c5f8 26be
00000250: 954d 89be 96c6 4ebd 9eb0 e03d a3c2 8a3c
00000260: 34f2 98bd a797 13bc fd11 8fbe 4048 093d
00000270: b7a6 df3c 4e56 35be 7573 80bd ec16 04bd
00000280: ab32 f0bc e296 203e 8dd1 083f 7a2c a7bd
00000290: ac6b cebd 491e febd d143 2f3e 6c4b c03e
000002a0: cb85 8d3e d7f2 d23d 44f0 833d efe7 86bf
000002b0: 75ab 8e3d df3c e4bc 9041 033e a777 0cbe
000002c0: 7da5 1cbf d4f9 84be cde3 9abd fc6d 9dbd
000002d0: bfa9 dbbd 1c48 a9bd f23d 823a 1971 da3b
000002e0: f661 66bd 8884 d7bd 2be5 5c3c d989 f6bc
000002f0: 2f72 06be 4b4b 3bbd 7cea 3fbe a564 3cbe
00000300: ea7d bebd 0400 763d 2159 813a e5aa 813c
00000310: 19f4 53be d8eb 6fbe 0b11 ee3d 31dd 8fbd
00000320: b932 033d 47a7 293e 75df 6fbe 0a55 a7bd
00000330: 7e3a f93c f0d8 ac3d a22d 0e3e 5e67 a33d
00000340: fbad 62bc 77f4 babd f302 1fbd d629 173f
00000350: df96 f23e 90bc a83d 8bf8 5a3e 2075 963e
00000360: 9ff6 403c 7374 dc3e 3533 4c3e 3ebb 0ebd
00000370: 188a 06bf 0ce9 43bf 1c31 f2bc c70c 4abe
00000380: c61e 65be
0.06799727 0.13811933 0.07146979 0.15261528 0.0359382 0.18058781 0.0496267 0.116553456
0.045750022 -0.017865213 0.16496368 0.10179174 0.038768888 0.10387402 0.031951398 0.087948866
0.015299032 0.12729864 0.080705136 -0.035616823 0.00061289675 0.096783616 0.14514576 0.06987617
0.007275033 0.11251012 -0.0105045615 -0.22641312 0.5775244 -0.1988141 0.46479422 -0.35534528
-0.102913186 -0.16105671 -0.0749883 -0.07760048 0.06686106 -0.5565981 0.015077787 -0.5613689
-0.65852 0.07434783 0.078391165 -0.09255122 0.03001448 -0.0026908864 -0.20462312 -0.0051906374
-0.11687306 0.08589734 -0.06936059 0.1023849 -0.17439587 -0.08739712 -0.043587044 -0.19993651
-0.02781468 0.0178001 -0.2697867 -0.29506204 0.078881554 -0.06720272 -0.037895028 -0.07199965
-0.019858036 -0.03907662 -0.07279095 -0.13447598 -0.12168669 -0.00044302212 0.127962 -0.027021363
-0.015999164 0.3161636 0.5419561 -0.059932783 -0.07316315 0.26665416 -0.063914195 0.2599683
0.009934009 0.021007145 -0.35239506 -1.3107122 0.033925325 0.13496648 -0.317547 0.10262191
-0.24315485 -0.06351555 0.010093295 0.03067558 -0.095420256 -0.047194794 0.046197284 -0.052412055
-0.05767195 -0.055831704 0.013241982 0.0067327116 0.16880846 0.12909612 -0.002066263 -0.1503939
-0.038456466 0.14728267 0.22850025 0.13701631 -0.11420889 -0.51356393 -0.13374712 -0.07804189
0.076899104 -0.030362332 -0.25468445 -0.36183527 -0.24123931 0.34131837 0.77028364 0.2267331
-0.027008852 -0.26051617 -0.17025831 -0.15985833 -0.109638736 -0.1365905 -0.2918058 -0.44124645
-0.17787111 0.08959012 0.44966918 0.21287844 0.21310498 0.19513366 0.10263371 -0.0066261683
-0.09195452 -0.02025108 -0.227293 -0.06290519 -0.03418538 -0.25931865 0.040656004 0.06651412
-0.08671959 -0.31571305 -0.049229853 -0.16305836 -0.26817003 -0.050482355 0.10971187 0.016938513
-0.074680716 -0.009008325 -0.2794341 0.03351617 0.027301176 -0.17708704 -0.06272022 -0.032248423
-0.029321035 0.15682557 0.5344475 -0.0816278 -0.100791305 -0.1240812 0.17115714 0.37557542
0.27641138 0.10300224 0.064423114 -1.053953 0.069662966 -0.027861057 0.12817979 -0.13717519
-0.61190015 -0.25971854 -0.07562981 -0.076869935 -0.10725736 -0.08265707 0.0009936674 0.0066663143
-0.056245767 -0.10523325 0.013482372 -0.030095028 -0.13129495 -0.0457261 -0.18741792 -0.18397768
-0.0930136 0.06005861 0.0009868481 0.01582856 -0.20698585 -0.23429811 0.116243444 -0.07024611
0.032030795 0.16567717 -0.23425086 -0.08170517 0.030423399 0.08439815 0.13884595 0.079787
-0.0138354255 -0.09128659 -0.038821172 0.5904821 0.4738073 0.082390904 0.21383874 0.29386234
0.011777549 0.43057594 0.19941409 -0.034846537 -0.52554464 -0.76527476 -0.029564433 -0.19731437
-0.2237502

cnn.0.bias f4 [5]
00000000: 9c28 0b3e 098c f9bd c4f2 663e 1929 f4bd
00000010: a250 05bd
0.1358971 -0.12184913 0.22553545 -0.11921901 -0.0325476

cnn.2.weight f4 [5, 5, 3, 3]
00000000: 7c91 2abe 0363 a53d dd1f 97be 47ce 39be
00000010: 4f1d 16be 40af d43d f215 b7be d8ef 953d
00000020: 9c64 21be 4edf c23c a220 d03d 2bcf 0ebe
00000030: b510 ce3a 59bd 86be 9807 25be 301e d73d
00000040: c98b 423c 43bb 15be b264 16be b29d ba3d
00000050: 6af8 29be 69ec c1bd 47bd bebe 89a6 6ebe
00000060: 317c 30be 29e6 54be cf78 123c 5e19 1dbe
00000070: 553f 82be 5f0a 0c3e 0817 973a 07db d9bd
00000080: 9cf1 85be 83cd 1fbe 949d 31be 2a2a 0a3d
00000090: 5ed0 9e3c ec68 4fbe 322c 67bd dc40 b1bc
000000a0: 4485 7ebd b023 c8bd 91f6 5fbe 9211 a6bc
000000b0: daab e53c cfca a9bd 10b7 6cbe de64 b3bc
000000c0: ac2c 70be 1908 15be ee38 30be ccdb 18be
000000d0: f7ee 09be a85b db3d b383 a8be ff91 66be
000000e0: 2791 21be 24d7 c4be 73f3 673e c3ac 43bc
000000f0: 1ba9 193e 62a1 4cbd 4845 afbd b097 83bc
00000100: 5d72 e53b d4a2 5ebd 85ff 41be 5cfb 08be
00000110: 33ad 81be 7d3d 56be 068b 06bf 6a46 f13d
00000120: 11c9 a53d 9cfe d5be 56dc 77bd edc5 debd
00000130: adb2 69be ed81 193e 2a22 aa3e 7d7d aa3d
00000140: 944e 06be fda8 a23c 78c5 00be faf9 9ebe
00000150: 1558 a7bb afd8 463d d9c4 0bbe f4f7 a33e
00000160: bf82 6f3e 1489 44be 8b2a 10bf 36f2 18bf
00000170: f034 94bd 62fe 49bf 34d4 263e e8ca 97be
00000180: 7735 dc3d aace 0bbe 939d 38be 7677 553e
00000190: ed5a bfbe f8ba 2c3c 6776 963e 6f62 1cbd
000001a0: b72e 58be b231 503d 51ee b0bd ed7c 1cbd
000001b0: f2e8 8fbe 2719 14bf cb7a cb3d ce0b 0dbc
000001c0: 2190 c53d 91f7 253e e797 b83d 819c 963b
000001d0: 22e9 84be 262c 953e c513 4a3d 929e b1bd
000001e0: afc4 76bd 1481 19be 4ace 833e 3f1c afbd
000001f0: 8a2b 9a3e 720c 533d 6290 b43e dbd8 ab3d
00000200: 4e5f 7ebd 0f28 173e 9dd2 2bbf d880 e83d
00000210: 6a23 67be c82e 533e 13c3 a73d ad22 78be
00000220: e241 d13d 03f8 b3bd 14aa 44be a0be b9bd
00000230: 9660 34be 6fc9 4cbd 5260 2dbe fc01 49bd
00000240: b9f4 ba3e 5bcf 07be 576f 663d 41f8 56be
00000250: 8d01 7f3d 4a36 f53d aea0 15bd 913d 473c
00000260: 0749 003e e170 8d3e b78f a03e 5b10 3a3e
00000270: d899 c4bd 1a54 08be b2f7 2fbe ff44 b63d
00000280: 1037 593d 85fb 42bd e8dc 8fbe 4a3d 5b3e
00000290: 8ae0 673e fa62 c53c bebc f7bd 2d33 85bd
000002a0: 829f 00be 241c 063e aa03 df3c 938d 00be
000002b0: 752c 26bf 3fdf 083e a912 a03e ca90 963d
000002c0: daa4 a03d 1961 58bd 08eb ddbb a5ba 7c3d
000002d0: 0b70 01bd 942f 49bf 036b 6d3e 7834 e4bd
000002e0: b9e6 ba3e 875e 51be 889b 2f3d f989 6a3c
000002f0: 3266 a03d e0c6 853e f496 cebd 2551 24be
00000300: 5469 d43e 2a1a a33e 8b62 f13c 0e31 83bd
00000310: d1ec 3e3e 7a86 243d 993e a1be a529 eebe
00000320: c4de 19be 140b f8bb e2f8 ec3e 6d56 2b3e
00000330: 07cd b2bd 2cc9 b7bd cfb3 1e3d d8b2 4e3e
00000340: 92f3 2f3e 2fc7 e2be fc6e 25bd 213a 26be
00000350: baf4 f63e 51a4 423d 15e1 833e 9b72 b4bc
00000360: 5989 923e ed28 c43e bd32 f43c ff9c 15bd
00000370: fd7b 463d d362 613a 9ff9 dfbd 9aef 72bd
00000380: 93c7 b0bd
-0.1665706 0.080755256 -0.29516497 -0.18145095 -0.14659618 0.10384989 -0.3575893 0.07321137
-0.15761036 0.02378812 0.10162474 -0.13946216 0.0015721532 -0.26316336 -0.16116178 0.10503805
0.011874148 -0.14622216 -0.1468685 0.09112109 -0.16598669 -0.0946892 -0.37253782 -0.23305716
-0.17234875 -0.20790924 0.008939936 -0.15341708 -0.25438944 0.13675831 0.001152725 -0.10637479
-0.26160896 -0.1560574 -0.17345268 0.033731617 0.019386467 -0.20254868 -0.056438632 -0.021637373
-0.06213881 -0.09772432 -0.21871401 -0.02027205 0.028036047 -0.08290636 -0.23116708 -0.021898683
-0.23454541 -0.1455387 -0.17209217 -0.14927596 -0.13470064 0.107108414 -0.3291298 -0.2251663
-0.15778027 -0.3844539 0.22651462 -0.011943045 0.15005915 -0.049958594 -0.08558136 -0.016063541
0.0070021586 -0.054354504 -0.18945129 -0.13377136 -0.25327453 -0.20921893 -0.5255588 0.117810085
0.08094991 -0.41795814 -0.060512863 -0.10877595 -0.22822066 0.14990969 0.3322919 0.08324716
-0.13115913 0.01985597 -0.12575328 -0.31050092 -0.0051069357 0.04854649 -0.1364931 0.3202511
0.2338972 -0.19192916 -0.56314915 -0.59744585 -0.072366595 -0.7890378 0.16291887 -0.29646993
0.10752385 -0.13653055 -0.1802886 0.20846352 -0.37374058 0.010542624 0.2938721 -0.03817981
-0.2111157 0.050828643 -0.08639205 -0.038205076 -0.2810741 -0.5785088 0.0993553 -0.0086087715
0.09646631 0.1620772 0.09013348 0.0045962934 -0.25959116 0.29135245 0.04933526 -0.08672823
-0.060246166 -0.14990646 0.25743324 -0.085503094 0.30111343 0.05152554 0.35266405 0.08390971
-0.06210261 0.14761375 -0.67118245 0.113527 -0.22572103 0.20623314 0.08191504 -0.24231978
0.10217644 -0.08787539 -0.19205505 -0.09069562 -0.1761497 -0.04999679 -0.16931275 -0.049074158
0.36514834 -0.13262694 0.056258526 -0.20993139 0.06225734 0.119732454 -0.03653019 0.012160675
0.12527858 0.27625182 0.31359646 0.18170302 -0.09599656 -0.13313332 -0.17184332 0.08899879
0.053031027 -0.04760315 -0.28098226 0.21410099 0.22644249 0.024095047 -0.120965466 -0.06503902
-0.12560847 0.13096672 0.027223427 -0.12554006 -0.64911586 0.13366412 0.31264237 0.07351835
0.07843943 -0.052826975 -0.0067724027 0.061701436 -0.031600993 -0.78588223 0.23185353 -0.1114282
0.36504152 -0.20446216 0.042872936 0.014315122 0.07831992 0.26128292 -0.10087386 -0.16046579
0.4148661 0.318559 0.029465934 -0.06405841 0.18645026 0.04016731 -0.3149307 -0.46516147
-0.15026385 -0.00756968 0.46283633 0.16732188 -0.08730512 -0.08973917 0.038745698 0.20185411
0.17182758 -0.4429259 -0.040389046 -0.16233112 0.48233587 0.047519986 0.2575766 -0.022027304
0.28620413 0.38312474 0.02980935 -0.036526676 0.04845809 0.0008597795 -0.10936283 -0.059310533
-0.08631816

cnn.2.bias f4 [5]
00000000: 075f bebd 6539 e7bb 6d80 9ebd 8746 bebc
00000010: baf0 73bd
-0.09295469 -0.0070564025 -0.07739339 -0.02322699 -0.059555747

network.0.weight f4 [120, 405]
00000000: f230 403c 4791 abbd c96b 79bd 5a17 7fbc
00000010: 7ff1 dfbd 71dd 96bd 7cbe 56bd 3ee4 143d
00000020: 83a8 6ebc 91be 47bc 4bd7 afbd 6b42 973c
00000030: 829a acbc 1bcb 4dbb f8de aebd 26bb a3bd
00000040: fba9 b73d a404 58bd ced8 87bd 6b88 fbbd
00000050: 79cf dcbd cb0d 67bd eaa9 d1bd ab31 693d
00000060: 97d9 c33d a465 0bbd 31d1 41bb ea33 273d
00000070: 0ae6 b4bd 425f fa3c 1cb4 97bd 7f4c a2bd
00000080: 02bf 953d 04de 773d 7827 b93b 59b7 75bd
00000090: c779 86bd 57a1 5abd 74dd d5bc 4cc1 c23d
000000a0: caaa 86bd f36e 64bd aad3 97bd 0582 853c
000000b0: 9bee f0bc 8669 e9bc dbaf 01bd eabd e3bc
000000c0: 669d d3bd c2b6 59be 2855 46bd a4fc 083e
000000d0: 24d2 183e 04b3 42bd 69b3 27be 7781 0c3e
000000e0: 43af 783d 0bf5 463d 4de5 f4bd f215 bbbd
000000f0: 6e9e c6bd fbde 46bd ff31 413d 456d 1dbd
00000100: dba0 24bc abba c7bd 21e1 25bc eb92 14be
00000110: fab0 41bd fb32 f53b 400a c83c a354 d7bb
00000120: 8be0 223d 7776 bc3c 4be6 343d 322f 36be
00000130: 07c1 d13c b016 89bd 379f 52bd 1de8 27bd
00000140: 900b 3cbc a4b4 8dbd 1087 783d 935f 9cbd
00000150: e7ca 77bd 181e 99bb 8ebf a33d 2b28 01bd
00000160: 925d f03d 981b 1b3e ca77 e8bc ce03 e53c
00000170: 2de1 8fbd d823 57bd 5856 d3bd f311 213d
00000180: d032 34be 4a55 b33d f99a 2e3e 7804 833c
00000190: 1b49 1abe a9c3 cdbd c46e 97bc 1082 873e
000001a0: 6e86 f3bd dfd6 1a3e ebd9 a1bc 8cce 593d
000001b0: e2a0 1c3e 8cba ab3d 9747 0dbe d4fb 9d3e
000001c0: 7fbf b73d 1570 0bbd e665 3abd 2c9a f3bc
000001d0: 5fd4 413d 0188 66bd 8eeb 203d 5936 ee3d
000001e0: e431 7d3d 8493 19be 2395 c53d 8b25 71bd
000001f0: e477 27be c454 96bd 91d5 903d 5487 2b3e
00000200: 3699 743b 86af 933d 724b ff3d 3ec1 cc3c
00000210: 661d 65bd a94d 2ebe 71f3 d93d e545 a53c
00000220: 2b96 f3bd 40ab 3abe c50b 99bd 692d 4bbe
00000230: d062 523c 29f2 02bd 39cb 04bd 995d 45bc
00000240: 823d 3b3d fd51 04bb 5fd1 b63d 90dd 373d
00000250: 0f15 9f3d 3652 4c3e 4982 803d 365e 20be
00000260: f0f0 44bc 6209 eb3d 93b5 30be 932d 933d
00000270: 48d1 bbbd a67b 6abe 26bb 0cbc f9b3 ca3d
00000280: 6d4d 693d 4566 61bd 1efb 1c3b da13 a4bd
00000290: ade2 2ebd fc63 7c3a b059 1e3e 3d63 5abe
000002a0: 79c8 413d fdd5 e4bd ecb6 0cbe b667 51be
000002b0: a731 df3d e24b 35be c365 fdbd 9c23 69bd
000002c0: 4c4f 863e 671d f5bd e797 223d 5c80 fa3d
000002d0: 1748 e93d 9a19 c63c 7151 c3bc 1749 4d3c
000002e0: 4746 7cbe 52d4 90be 0ea7 cdbd 447e 80bd
000002f0: 809a ea3d 8069 013e b7f7 bdbd 56aa 0e3e
00000300: 9d23 1bbe 1ab3 4e3d 0c0f f9ba 0285 f23a
00000310: 6e5f 20be 32d0 863d 3715 7bbe ef32 83be
00000320: 5d47 eabd 088b 74be 377f 7b3e fc13 a1bd
00000330: 1713 fb3d 81b0 5e3e 1ebc 35be 7296 8abb
00000340: 9a30 7d3e ba9a 66be dfbe c13e c0d7 683e
00000350: 0bde 09be 1376 e8bd bf8a ef3d 9178 a63b
00000360: a6df 873e aaec 29bd 8662 3e3d 05b1 39bd
00000370: 86db 3e3e 459e f4bc 1b66 eb3d 90f8 8f3d
00000380: e0c2 2c3e 1368 00be 581f 083e 16b8 663b
00000390: 4f94 7ebe f2d0 65bd 1a9c 19bc 5a86 de3d
000003a0: 7164 27be 5b2a db3d 4c1e 433e a86f d83d
000003b0: e862 0f3d f9ed c63d 1d7a 3cbe 2ba8 a1bd
000003c0: d199 853e 8583 533e 4ff8 5abd ff36 14bd
000003d0: 17d5 2cbc 4998 96be abf7 bebc de50 9cbd
000003e0: 84f7 913e 4b89 503d d89a a6bc cd97 50bc
000003f0: 4941 96bc e99a 0abe 6215 80be 33ba f93c
0.0117304195 -0.08377319 -0.060893808 -0.015569532 -0.109347336 -0.07366455 -0.052427754 0.03635048
-0.0145665435 -0.012191431 -0.08585986 0.018464288 -0.021069769 -0.0031401578 -0.08538622 -0.0799468
0.08967968 -0.0527388 -0.06633149 -0.12281879 -0.1078176 -0.05640964 -0.10237487 0.056932133
0.09562986 -0.03403248 -0.002957415 0.040820993 -0.08832939 0.030563 -0.074074 -0.07924747
0.073118225 0.060514465 0.005650457 -0.059989307 -0.06566196 -0.053376522 -0.026106574 0.09509525
-0.06575544 -0.055769872 -0.074134186 0.01629735 -0.029410651 -0.0284927 -0.03166185 -0.027800519
-0.10332756 -0.21261123 -0.048421055 0.13377625 0.14923912 -0.047534004 -0.16377033 0.13721262
0.060714018 0.048573535 -0.11957798 -0.09135045 -0.09698187 -0.048552494 0.04716682 -0.038434286
-0.010048117 -0.09752401 -0.010124476 -0.1450917 -0.04728792 0.007482884 0.02441895 -0.006571369
0.039764922 0.023005707 0.044164937 -0.17791441 0.025604738 -0.066937804 -0.05142137 -0.040992845
-0.011477366 -0.0691922 0.06067568 -0.07635417 -0.060496237 -0.004672777 0.079955205 -0.031532448
0.11736597 0.15147245 -0.028377432 0.027955916 -0.07025371 -0.052524418 -0.10319203 0.03932376
-0.17597508 0.08756502 0.17051305 0.015993342 -0.1506695 -0.10047085 -0.018485434 0.26466417
-0.11890875 0.1512103 -0.019757232 0.053175494 0.15295747 0.0838519 -0.1379684 0.30856192
0.08972072 -0.034042437 -0.045507334 -0.0297366 0.047321673 -0.056282047 0.039287142 0.1163146
0.061815158 -0.14997679 0.09647586 -0.058873694 -0.16354328 -0.073403865 0.070719846 0.16750842
0.0037322766 0.07211213 0.12465562 0.024994489 -0.05593624 -0.17021812 0.10642136 0.02017493
-0.11893877 -0.18229389 -0.07472948 -0.19841541 0.012840942 -0.031969223 -0.03242037 -0.012046241
0.045712955 -0.002019047 0.08926653 0.044889033 0.077676885 0.19953236 0.0627485 -0.15660939
-0.012020335 0.11476399 -0.17256765 0.07186427 -0.091707766 -0.2289873 -0.008589542 0.09897608
0.056958605 -0.055029172 0.0023953388 -0.08011599 -0.042696644 0.0009627936 0.154639 -0.21326919
0.047310326 -0.111736275 -0.13741654 -0.20449719 0.10898142 -0.17704728 -0.12372925 -0.056918725
0.26232374 -0.11968499 0.039695647 0.12231514 0.11390703 0.02418213 -0.023842545 0.012529633
-0.24636184 -0.28286988 -0.10041629 -0.06274083 0.1145525 0.12637901 -0.092757635 0.13932166
-0.15150304 0.050463773 -0.0019001677 0.0018502774 -0.15661404 0.06582679 -0.24519812 -0.25624797
-0.11439393 -0.23881161 0.24560247 -0.0786514 0.122595005 0.21747018 -0.17747542 -0.0042293603
0.24725571 -0.22519961 0.37840936 0.22738552 -0.13463609 -0.11350646 0.116963856 0.0050802906
0.26537818 -0.041485466 0.046480678 -0.045334835 0.18638429 -0.029860625 0.114940844 0.070298314
0.16871214 -0.12539701 0.13293207 0.0035204939 -0.24861263 -0.05610747 -0.009375596 0.10865469
-0.16346909 0.10701438 0.19054526 0.10568172 0.035006434 0.097133584 -0.18405958 -0.078934036
0.26093915 0.2065564 -0.05345946 -0.03618526 -0.010548851 -0.2941306 -0.023311457 -0.07632612
0.28509152 0.050912183 -0.020337507 -0.012731505 -0.018341677 -0.13535656 -0.25016314 0.030484295

network.0.bias f4 [120]
00000000: 1dea 823d 148b 3b3d a54a 53be 6b12 33be
00000010: 9924 dc3d 8da2 20be e860 f5bd 7f2d 7cbd
00000020: 7eeb 59bc 7d8c 013e 09d1 77bd e703 8b3d
00000030: 706d cfbd 77d4 68be 2d51 9bbd d5b4 e8bd
00000040: d55d 80be 33c8 81be dae4 cabd 3ca0 fcbd
00000050: aa88 82be fb56 0d3d c55b ae3d 3188 37be
00000060: df82 893d c7d3 54bd 92bf 3bbe b0f0 41be
00000070: b468 1c3e b250 0c3e 98e1 2ebe d441 61be
00000080: d9de 8fbb 0141 fdbd 71ad d4bd 5fc2 4dbe
00000090: d7f7 3fbe 28f4 eebd 2785 3abe a0e9 13be
000000a0: c3ba 51be acc1 54be 615f 16be 4a24 50be
000000b0: fac2 36bc 20e3 36be 5880 60bd b9d6 c6bd
000000c0: 7f6a 883b acf4 213e 3a06 86be 9427 6ebe
000000d0: 85a4 d0bc 7bd1 57be 04cf d0bd 722f 99be
000000e0: 2d20 dfbd 02d3 14be 0301 75be de36 12bd
000000f0: 1c9c 9bbc ec14 fb3b 81f1 afbd be94 4b3b
00000100: 3453 b8bd 868d cbbd f425 c8bd 61a5 1bbe
00000110: 8b6d 7ebd 5602 42bc 99a1 033c 0cef 9ebd
00000120: 98c3 843d 2d0f 7abd 46c4 c53c 1a1e febc
00000130: bb55 48bc afa3 df3d 1035 893d 1443 0bbe
00000140: f3a8 21be 4c6c 0ebe c637 12be 833d 32bd
00000150: b7c1 e93d 886d ac3d 189a b53c 2949 9dbe
00000160: b5b0 d03b 71c4 8cb8 326f 36be bff4 62be
00000170: 4572 9cbc 09e9 59be 5cec 953e 9321 ff3a
00000180: 544b e8bb b6f6 40be 0697 19be fbc2 453d
00000190: 5e46 6abe 95c9 83be 5b6b b03d 9b3d 97be
000001a0: b1f5 1abe c9c5 1ebe a32e 8bbd 49e5 5cbe
000001b0: 3408 5b3d f6c3 f7bd 779f aebd 74b1 c1bd
000001c0: c37d 5fbe 01fc c1bd ca74 bfbc bff4 ecbd
000001d0: cb54 71be 3ec6 7ebe dc03 5b3d 4bab c3be
0.0639231 0.045786932 -0.20633943 -0.17487495 0.10749168 -0.15687008 -0.11981374 -0.061566826
-0.013300775 0.12651248 -0.060502086 0.06787854 -0.101282954 -0.22737299 -0.075838424 -0.11362616
-0.25071588 -0.25348052 -0.09906931 -0.1233525 -0.2549489 0.03450678 0.085135974 -0.17923047
0.06714415 -0.05195978 -0.18334797 -0.18939471 0.15274316 0.13702658 -0.17078245 -0.21997768
-0.004390579 -0.12365914 -0.10384644 -0.20093678 -0.18746887 -0.11667663 -0.18214856 -0.1444459
-0.204814 -0.20777005 -0.14684822 -0.20326343 -0.0111548845 -0.17860079 -0.0548099 -0.09708924
0.004163086 0.15815991 -0.26176625 -0.23257285 -0.025469074 -0.21076004 -0.10195735 -0.2991901
-0.10894809 -0.14533618 -0.23926167 -0.035696857 -0.018995337 0.007662406 -0.08590985 0.0031064
-0.09000245 -0.09939103 -0.09772864 -0.15199806 -0.062116187 -0.011841377 0.008034133 -0.07760438
0.06482619 -0.06104963 0.024141442 -0.031020213 -0.012227471 0.10919892 0.06699574 -0.13599807
-0.15787105 -0.139085 -0.14279088 -0.043515693 0.11413901 0.08419329 0.022168204 -0.3071988
0.0063687214 -6.71231e-05 -0.17815855 -0.22163676 -0.019097457 -0.21280302 0.2928189 0.0019464962
-0.007089058 -0.18844113 -0.14999017 0.04828165 -0.22878405 -0.25739732 0.086142264 -0.2953919
-0.15132786 -0.15505137 -0.067960046 -0.2157184 0.05347462 -0.120979235 -0.08526509 -0.094576746
-0.21825318 -0.09471894 -0.023371119 -0.11570119 -0.23567502 -0.24880311 0.053470477 -0.38216624

network.2.weight f4 [84, 120]
00000000: 33cd e2be e214 55be 5281 56bd 6e8f 8abd
00000010: d60b 09be 4764 eb3c 7079 16bd 02fb 86bc
00000020: 9511 3a3e f141 8d3c 56b0 d1bc 1800 92be
00000030: f852 59bd 1218 75be 12b5 f2be c24f 4bbd
00000040: a277 c5bc 0c82 ba3d 0ef5 21bd 347c 563d
00000050: 5a86 91bb 089e 69be e705 dbbd ebd7 833d
00000060: 1227 d8be f321 863c 72e6 febd 94ca f9bd
00000070: 5519 5dbc 7b5d 5abe bed0 24be 06ed 8cbe
00000080: 8d73 eabc 3d6b 8abe 4213 9fbe 2cf0 61bd
00000090: 21fd 5fbd 15f5 bdbe e628 0abf c94b a1bb
000000a0: 6665 37bd 6d94 4dbd ed0a 55bd 10c2 fdbe
000000b0: f26a 603e d6fd 123d cede b9be 4e3b 51bd
000000c0: 68c0 23bd 6895 1d3d 061b a5bd 6361 913d
000000d0: 39f7 fe3d 7e1a aebd d036 f2bc 95ab 82be
000000e0: 980c 603b 977d c4bd b988 3fbe 2732 71be
000000f0: 904a 63be 201d 563d 1382 41be 68c9 a0be
00000100: d709 11bd 57a4 d2be 870f a3bd 1f36 723e
00000110: ecb3 adbe 7d7c 063e c76b 723e 36f4 a3bc
00000120: 44e1 18be db5a 1dbe 26bf 11bd 79ef 9dbd
00000130: e8bf 34be 0109 40be 5004 d13d b28c 89bd
00000140: 2135 573d 6308 40bd ac04 973d fd88 c0be
00000150: 45a5 f0bc 40bc 86be 5cee dabd 92a6 68bd
00000160: d6ec 3bbe 6ba7 a73b a806 8dbc 22d5 30bc
00000170: 2569 2cbe 9b8d 963d ed39 223d d468 a7be
00000180: 299c 23be 8c92 083d ba27 88bd 55d6 89be
00000190: 816d aebd 490d dfbc 12c0 52be 8353 e9bd
000001a0: fb03 3fbb a869 47be 906c 0cbe da85 87bd
000001b0: 235a 433d b22f 9cbe 65b6 4fbe da84 ddbd
000001c0: c111 38be 6ec8 e03d 6bf6 c2bd 6c6b a7be
000001d0: 5702 11bd d1b2 273e d6ce 69be 2aa1 093e
000001e0: 6660 c93d 0e66 80bc b2d2 2ebb 7a9e cc3d
000001f0: dfb7 ae3c 6946 9ebd 72cb 44bc 0848 893c
00000200: 07f8 04be 0c48 503e 5ddd 38bd fca1 3d3d
00000210: 784b c8bc 4358 b83d f7bc a4bd 55bb 44bd
00000220: 05b7 25bd df24 8abd 4547 e7bc d238 9b3d
00000230: 9301 35be 6a37 9cbe 2740 6c3e d995 e13c
00000240: 4fc5 4dbd 5498 2fbe 728a 103e c65b 64be
00000250: cae5 443d 13d7 dc3d 4140 a6bd 7bb8 43bd
00000260: d431 04be 0ce6 b33d 5878 0ebe 5801 a13d
00000270: b3f9 7dbd 2065 103e 76cd 053e f81c bbbd
00000280: f5df 0dbe 4382 3ebd 9b6b 0bbd 9add e8bc
00000290: 852d eabd 4df5 b53d 47f8 87bb c926 82bb
000002a0: a3c4 ebbd 7ac5 9d3e 5e09 3e3b 0bb4 bcbe
000002b0: 58c6 f63d 8425 1cbe 7898 b6bd b663 50be
000002c0: 5858 953d eeda 48bc b121 15be 3a6b f2be
000002d0: 718e a33d 5ec7 053d bf56 313b 9187 0a3e
000002e0: 6b67 923b 05d9 8f3d 44a5 a03d 4ce3 61bd
000002f0: c134 2c3e 68ca cb3c 6305 b8be 6d52 8d3d
00000300: 4392 223e 559a 77bd 55ab 45be cdba 833e
00000310: 0abf 93be 067b 0ebd 3148 66be 4b69 4a3c
00000320: 4249 863e 055f 94bd 6f2e 273d 1ffe f33c
00000330: 2131 babe f98d 97bd 11ec 25bd 0ada d33b
00000340: d5cd 2d3c 8f71 afbe c5ca efbd c1f8 31be
00000350: 2c28 c73d f8ad 9dbe 6719 debd 1df0 b6bd
00000360: 235d 50be 1549 9b3d 227f 8ebd 61ce 87be
00000370: a6c6 8fbb b4cb fd3d 4192 fdbd 31a9 0dbe
00000380: 0048 2f3c 0989 7b3d ff05 f23d ddba 883c
00000390: 0115 4e3e db7a c9bd dcac 3bbe e8e9 e8bd
000003a0: 2587 ce3d 295d 50be 1d08 87be 4b51 25be
000003b0: b2cd 60be d2ef 1e3e 3f29 ecbd e6f6 063e
000003c0: 6d4b 563d 90dd 3ebd 3928 4a3e c63f 39be
000003d0: 9c8d ef3d a7e4 0e3d 8b0b 943d 94d3 f9bc
000003e0: 1f81 85bd 7dda 31be 0ebf 0cbc aa51 dfbc
000003f0: 606f d9bc 7945 c5ba 06a2 ae3d d9d7 1b3d
-0.4429718 -0.20808747 -0.052369423 -0.06765638 -0.13383421 0.02873434 -0.036736906 -0.016477112
0.1817077 0.017243357 -0.025596779 -0.28515697 -0.05305764 -0.23934963 -0.4740377 -0.04963661
-0.024104897 0.09106836 -0.039540343 0.052364543 -0.004441065 -0.2281419 -0.10694485 0.064376675
-0.42217308 0.01637361 -0.12446298 -0.12196842 -0.013494809 -0.21324722 -0.16095254 -0.27524585
-0.028619552 -0.2703494 -0.3106938 -0.055160686 -0.054684762 -0.37101045 -0.53968656 -0.0049223644
-0.044774435 -0.050190378 -0.052012373 -0.4956212 0.21915796 0.035886608 -0.363028 -0.051081948
-0.039978415 0.038472563 -0.08061795 0.07098653 0.12449498 -0.08501147 -0.029567152 -0.25521532
0.0034187194 -0.09594267 -0.187045 -0.23554288 -0.22196412 0.05227387 -0.18897276 -0.3140366
-0.035409775 -0.41141006 -0.07961946 0.23653458 -0.33926332 0.13133426 0.23673926 -0.02001391
-0.14929682 -0.1536669 -0.035582684 -0.077116914 -0.17651331 -0.18753435 0.10205901 -0.067162886
0.052540902 -0.046883 0.07373938 -0.37604514 -0.029375682 -0.26315498 -0.10689995 -0.05679948
-0.18352064 0.0051163933 -0.017215088 -0.010793002 -0.16836984 0.07351228 0.039606024 -0.32697165
-0.15977539 0.033342883 -0.06648202 -0.26921335 -0.0851698 -0.027228015 -0.20581082 -0.11392882
-0.002914666 -0.19473898 -0.13713288 -0.06617327 0.047693383 -0.3050514 -0.20284422 -0.10816355
-0.17975523 0.10975729 -0.09519657 -0.32699144 -0.035402622 0.16376807 -0.22832808 0.13440385
0.0983284 -0.015673663 -0.0026675877 0.099911645 0.021327911 -0.077282734 -0.012011396 0.01675798
-0.1298524 0.20339984 -0.045132983 0.04629706 -0.024450049 0.090012096 -0.08043855 -0.048030216
-0.040457744 -0.06745314 -0.028232226 0.07579197 -0.17676382 -0.30511028 0.23071347 0.027537273
-0.050236996 -0.17147952 0.14115313 -0.22300634 0.048070706 0.1078321 -0.08117724 -0.047783356
-0.12909633 0.08784112 -0.13913095 0.078615844 -0.06200571 0.14101076 0.13066658 -0.09136385
-0.13854964 -0.046510946 -0.034038167 -0.02842598 -0.114344634 0.08884678 -0.00414947 -0.0039719087
-0.11512115 0.30814725 0.0028997282 -0.36856112 0.1204955 -0.15248686 -0.089158 -0.20350537
0.07292241 -0.012259228 -0.14563634 -0.47347432 0.07986153 0.032660834 0.0027059761 0.13528277
0.004467895 0.07023815 0.07844022 -0.055148408 0.16816999 0.024876788 -0.3594161 0.06900487
0.15876107 -0.060449917 -0.19303639 0.25728455 -0.2885669 -0.034785293 -0.22488476 0.012354205
0.26227766 -0.07244686 0.040815767 0.02978426 -0.36365607 -0.07400126 -0.040508334 0.0064652013
0.010608156 -0.34266326 -0.11708597 -0.17380048 0.09724459 -0.3079679 -0.10844689 -0.08932517
-0.20348029 0.07582299 -0.069578424 -0.26524642 -0.0043876944 0.12392369 -0.12381411 -0.13834073
0.0106983185 0.061409984 0.1181755 0.016690666 0.201252 -0.09837886 -0.1832766 -0.11372739
0.100843705 -0.20348038 -0.26373377 -0.16144292 -0.21953467 0.15521172 -0.115313046 0.13180122
0.052318025 -0.046598017 0.19741906 -0.18090734 0.11696932 0.03488603 0.07228764 -0.030496396
-0.065187685 -0.17368503 -0.008590473 -0.02726062 -0.026542366 -0.0015050612 0.08526997 0.038047645

network.2.bias f4 [84]
00000000: df8d 393e 2c49 82bc 380a 9dbe fd77 e1bd
00000010: e42d 863e 4e41 23bd 7063 61be 8d1a 8e3e
00000020: 0560 26be 0719 5bbc ef04 2bbe 125a 03be
00000030: 0263 673e 0d78 443e 7385 b8bd d98e 923b
00000040: d872 10be c68a b4bd 0fb9 383e ab60 6a3d
00000050: 2686 0ebe 701c 5d3c 2271 bfbd 671c 11be
00000060: e1f4 03be 3348 b8bd 33f5 2abe 1e5e f6bd
00000070: 5b11 f6bd c604 10be 6a0a ffbd 1a13 0cbe
00000080: a0ef 003d a9d4 503d 5d48 d0bd a20f 12be
00000090: 6930 6f3e 7b31 aa3d 1b36 dc3d e3d2 0d3e
000000a0: 019b 27be 88f2 07be 922e 1ebe 32c3 073e
000000b0: cc05 c1bd 6061 163e 71ec a63d 63f8 c73d
000000c0: 60f3 26be 8da9 533c d9cf 7dbe 2c2c eb3d
000000d0: a2fe 50ba 525e 813d 184e 803e 5ad5 c83e
000000e0: 9f5b 11be 24ee 35bd 4d9b 9bbd 3626 413e
000000f0: 73d7 133e f337 b7bd 4c03 dabd 5633 17be
00000100: c0ae bd3d 1a2d 9e3e a394 0d3e a057 54be
00000110: 7587 f9bd 0d18 ca3d 9910 ee3d c58b cebd
00000120: 0a3f dfbd a1eb 32be 1de2 4d3e b8d0 5c3e
00000130: 2482 0cbe 98c5 d43d 5c2d 15be cecd 04be
00000140: 9b54 05bc b85f fcbd b870 823e 8754 d83c
0.18120526 -0.015904032 -0.3067186 -0.11009214 0.26206887 -0.0398572 -0.22010589 0.27754632
-0.16247566 -0.013372666 -0.16701101 -0.12827328 0.22596362 0.1918642 -0.090098284 0.004472595
-0.1410631 -0.088155314 0.18039344 0.057221096 -0.13918361 0.01349555 -0.0934775 -0.14170991
-0.12886383 -0.08998146 -0.16695099 -0.1202967 -0.12015029 -0.14064321 -0.12453158 -0.13679162
0.031478524 0.05098406 -0.10170052 -0.14263776 0.23358311 0.08310219 0.10752507 0.13849978
-0.16367723 -0.13276112 -0.15447453 0.13258055 -0.09424934 0.14685583 0.08150566 0.09764173
-0.16303778 0.012918842 -0.24786319 0.114830345 -0.00079725136 0.06316818 0.2505958 0.39225274
-0.14195107 -0.04441656 -0.07597981 0.18862233 0.14437656 -0.08946218 -0.1064516 -0.14765677
0.092618465 0.30893785 0.13826232 -0.20736551 -0.121840395 0.098678686 0.116242595 -0.10085253
-0.109006956 -0.17472698 0.20105787 0.21563995 -0.1372152 0.103892505 -0.14568084 -0.12969133
-0.008137847 -0.123229444 0.25476623 0.026407493

network.4.weight f4 [21, 84]
00000000: f2c1 d8bd 2228 a13b ce7c 8abd ee77 44be
00000010: b70e 873e 3061 1f3d c0ce dabe dde1 a53d
00000020: c447 0b3d 235b 193c 7e86 64be d049 3dbc
00000030: 5ea3 273e f62e 823d 6c44 babd 046b d9bd
00000040: dec3 853d f516 073b d39b bd3d a677 cdbb
00000050: d893 50bd c8c9 333d 3bbc 39bd f6e0 43bc
00000060: e3c3 533c 9c78 593c 1426 a8bd 1a59 533d
00000070: d429 a5bd c57f c53d dcbe 5f3d 9e74 2dbd
00000080: 3878 aabd 88eb 233d b3eb efbd 3982 e2bc
00000090: 77b0 10be 72e9 9bbd 65ba 363e b79a c93d
000000a0: 7751 b2ba 5878 b8bc cdb4 b0bd d573 59bc
000000b0: f6f9 bcbd 0e23 9a3c cb11 1b3e 7265 efbd
000000c0: e52b c4bd 23e0 243d 9fbe c9bd dbe7 373e
000000d0: 734d 5ebe 601c 43bd d711 0cbd b6b4 aa3d
000000e0: a3cd f03c 87e7 76be ffe6 f13c 1d13 11be
000000f0: ae5f c03d 46eb 9a3d ac90 b6bc addc aa3d
00000100: a839 573d b241 f93d 02b0 163e 9dd8 1ebe
00000110: e3d9 6f3c 1c1e b0bd 3567 8fbd 0e05 abba
00000120: ec86 27bd cc4f 183d 4fa1 173e e60d cf3c
00000130: 7d0c 46bd 688e 973c 34ab c7bc 4f83 b83c
00000140: d6d7 9f3d cf0b 373d 868e 1a3e fc96 383d
00000150: d4d6 11be 3f30 c7bd a792 86bd 7ae9 54be
00000160: ab1f 8d3e 0d51 193d b7fe f1be 2159 233e
00000170: dcdf 0bbc 0235 ecbc 3653 c4be 465e 433d
00000180: 2fe6 e8bd f1cd c0bd d83b 513c 3c4f 82bc
00000190: b1be 443d d2cd bb3d b40f a33d 9ed8 e4bd
000001a0: 96b5 dc3c 7712 65bd c8c2 0b3c 044a 7fbd
000001b0: 603e a13d 71f7 893d f28c 4cbd de86 123e
000001c0: 4eb2 e03d a2f1 8dbd 3435 c8bb 709f 26bd
000001d0: ac76 90bd 86e4 573e 4e79 ddbc 2ad3 1ebd
000001e0: d443 e3bd 6c32 efbb 4112 923c 5987 56bd
000001f0: bce6 0bbe dfe4 a8bd 9e40 383d c735 e7bd
00000200: d356 95bd db98 803c fce1 d4bc ddf1 71be
00000210: bdaf adbd d3b4 5bbe d82d afbc ebc9 5a3b
00000220: 8185 6abe cdc2 a83d 4453 16bc b60b 933d
00000230: 3995 393e 7d34 03be 3b1a cfbd 77f8 8abd
00000240: d422 813d 33f6 a1bd 7234 a13c 5954 873d
00000250: 0da9 05bd d2fc f43d 7464 963d 9319 c6bc
00000260: 966a 0abe 4633 553e 6542 b5bd 96c3 90bd
00000270: 74b9 873c 54b4 5abd 63ec 573c f01e c33d
00000280: 5313 47bc 229e a33c f41d 3ebd 1d19 013e
00000290: dcb0 03bd 4424 663c b65b 17bc 9d99 173d
000002a0: e78d 85be b3c7 aabe b361 b4bd 6391 20be
000002b0: 76a6 3b3e f7ae 2dbc c4d5 b1be 58fd 273e
000002c0: 4386 e7bd 6a22 e2bd 7cd6 c0bd 42fe 00bc
000002d0: c80b 363d 6170 30bd 29ed 7d3d 9a42 15be
000002e0: 2ce4 58bd 612a 113d 4c6a 533d 1b37 e2bb
000002f0: 6822 ac3c 4d46 133b 2d28 5bbd c2b4 e8bd
00000300: b87c c43d 6e84 6f3d 3be8 0ebd af06 da3d
00000310: 01ce c73b 2733 c13d 9d5f b5bb 98bb 8dbd
00000320: daa4 31be 1939 653d 8640 7e3d 9a49 ae3d
00000330: 8659 16bd f828 533b 2025 893d 3114 a83d
00000340: 3584 313d 9404 473c 390d a7bd 991e ad3c
00000350: 0e83 173e 83fe 713c 88be 0fbd 04e1 11be
00000360: a591 bebd 2c69 3ebe bd6b 74be c973 a23d
00000370: 5cec afbe 3ad7 a0bc 8425 88bc ab6d e53d
00000380: 5d80 ff3d c50d 50be de8a b5bd 26f0 7bbd
00000390: 2e2b 00bb 0713 9ebd b318 893d 0246 9e3d
000003a0: 56cd d73d 41d4 253d b992 de3d 770b 1b3d
000003b0: 2217 69bc 59f4 dc3d 8201 d8bd d584 9cbd
000003c0: 9bb6 533d 13cc a53d e77f 953d 3d0c bdbb
000003d0: d615 a1bb 305e 27bc c0b3 17bd 26f8 843d
000003e0: 9780 1a3e 1e71 a23d 8e15 203d bb66 54bd
000003f0: d5a8 1abe b190 9dbe feb2 49bd 67de d3be
-0.10583867 0.0049181143 -0.06762086 -0.19186375 0.26378414 0.038911045 -0.42735863 0.080997206
0.034003988 0.009360108 -0.2231693 -0.011553243 0.16370913 0.06356613 -0.09095082 -0.10616115
0.06531499 0.0020613049 0.09258237 -0.0062703667 -0.050922245 0.043893605 -0.045345526 -0.01195549
0.012925121 0.013273384 -0.08210388 0.051598646 -0.08064619 0.09643511 0.054625377 -0.042347543
-0.08323711 0.040019542 -0.11714878 -0.027649986 -0.14129816 -0.076128855 0.17844541 0.09843963
-0.0013604601 -0.022518322 -0.08628235 -0.013272245 -0.09227364 0.018815544 0.15143506 -0.11689271
-0.09578685 0.040252816 -0.09850811 0.1795954 -0.21709232 -0.047634482 -0.0341967 0.08335249
0.02939493 -0.24111758 0.029529093 -0.14167447 0.093932495 0.07564406 -0.022285782 0.08342872
0.05254522 0.121707335 0.14715579 -0.15512319 0.014639351 -0.08599493 -0.07002107 -0.0013047771
-0.040900156 0.037185475 0.14807628 0.025275182 -0.048351754 0.018500522 -0.024373628 0.02252355
0.07804839 0.044688996 0.15093431 0.045065865 -0.14242107 -0.09725999 -0.065709405 -0.20792189
0.27563223 0.03743081 -0.47264645 0.15951969 -0.008537259 -0.02883387 -0.38344735 0.047697328
-0.11372029 -0.0941428 0.0127706155 -0.015906923 0.04803342 0.091701165 0.079619795 -0.11174129
0.026942056 -0.055925813 0.008530326 -0.062326446 0.07873225 0.06736649 -0.049939103 0.1430926
0.10971509 -0.069308534 -0.006109858 -0.040679395 -0.07053885 0.21083269 -0.027035382 -0.0387756
-0.110969216 -0.007299712 0.01783097 -0.05237517 -0.13662237 -0.08246779 0.0449835 -0.11289554
-0.07291951 0.015697887 -0.025986664 -0.2362742 -0.08480785 -0.21455698 -0.021384165 0.0033384513
-0.2290249 0.0824028 -0.0091751255 0.07179968 0.1812333 -0.12812991 -0.10112425 -0.06785672
0.06305471 -0.07908287 0.019678328 0.06607885 -0.032631923 0.11962284 0.07343379 -0.024182117
-0.13517222 0.2082034 -0.088505544 -0.07068555 0.016567923 -0.05339463 0.013178918 0.09527385
-0.012150603 0.019972865 -0.046415284 0.12607236 -0.032151088 0.014046732 -0.009238174 0.03701173
-0.26084825 -0.33355483 -0.08807697 -0.1568046 0.18325219 -0.010600797 -0.34733403 0.16405237
-0.11304905 -0.1104172 -0.0941591 -0.00787312 0.04444483 -0.043075923 0.06199375 -0.14576188
-0.052951977 0.035440806 0.051615044 -0.0069035417 0.0210125 0.0022472322 -0.05350511 -0.11362602
0.09594101 0.058475904 -0.03488944 0.10645806 0.0060975556 0.09433585 -0.0055350796 -0.06920546
-0.17348042 0.055962656 0.062073253 0.08510132 -0.03670647 0.0032220464 0.06696534 0.08206976
0.043338973 0.012147088 -0.08156819 0.021132754 0.14796087 0.014770153 -0.035093814 -0.14245993
-0.09305123 -0.18594807 -0.23869224 0.079322405 -0.34360015 -0.019633878 -0.016619451 0.11202558
0.12475655 -0.20317753 -0.088643774 -0.06150832 -0.0019556987 -0.07718473 0.06694164 0.07728197
0.105372116 0.040485624 0.10867829 0.03785273 -0.014226707 0.10788793 -0.105471626 -0.07642523
0.051687818 0.08095565 0.07299786 -0.005769281 -0.004915933 -0.010215327 -0.037036657 0.06492643
0.15088116 0.07931732 0.039083056 -0.051855784 -0.15103467 -0.30774453 -0.049242966 -0.41380617

network.4.bias f4 [21]
00000000: 3478 473e 6a09 543e b0a3 6f3e 9941 6f3e
00000010: b057 193e 82cb 663e abbb 753e 2eea 3b3e
00000020: 458b 573e 761f 323e 9619 3d3e e89d 233e
00000030: e999 273e 3748 413e 23e6 4b3e ff57 6d3e
00000040: 8304 343e b2ef 5f3e 41e7 533e 0cd3 173e
00000050: e06d 713e
0.19479448 0.20706716 0.23402286 0.23364867 0.14974856 0.2253857 0.23997371 0.18351051
0.21049221 0.17394814 0.18466792 0.15978205 0.16367306 0.18875204 0.19912009 0.23178099
0.17579846 0.2186878 0.20693685 0.14826602 0.2357707
