model/state_dict/model2.pt (torch, 248106 bytes, 10 tensors)

cnn.0.weight f4 [5, 5, 3, 3]
-0.05756851 0.08411811 0.04206509 0.031849 0.010549494 0.0042317915 -0.04783696 0.0846694
-0.07435586 0.12818678 -0.054550108 0.06182057 -0.00077755284 -0.08987328 0.035463218 0.110645115
0.1257228 -0.061418444 -0.08864805 0.11687613 0.001790682 0.09346062 0.18927056 0.027029462
-0.07662172 -0.07572619 0.117662914 0.7965486 -0.35482162 -0.01198984 -0.12312692 -0.15716983
-0.17889841 0.12561853 -0.1660095 0.31528145 -0.72543883 -0.06258351 0.008962861 -0.010434393
0.09974532 0.14420187 -0.061977487 -0.15633206 -0.33182323 0.0673525 0.101051256 0.12741815
-0.020304883 -0.015289806 -0.009718918 -0.026467364 0.022212926 -0.19334328 -0.16211255 -0.1884096
-0.100582086 -0.08603713 0.0870408 -0.07200487 -0.2574255 0.011978296 -0.01741793 -0.029417198
-0.1558004 -0.008395574 -0.15366812 -0.16818358 -0.015237729 -0.2569102 0.05652295 -0.07260356
-0.10567404 -0.06625478 -0.07268202 0.17744672 0.104629084 -0.02956941 0.013954361 -0.081382275
-0.06936181 0.040580377 -0.18615496 0.01997605 -0.1424374 -0.060695305 0.040433098 -0.18610087
-0.15155517 -0.23606849 -0.037629806 0.099395536 0.0017208137 0.031734295 0.03767687 -0.046681408
-0.027644949 0.08101729 -0.05247291 -0.0464566 -0.12938738 -0.046529878 0.09170021 -0.07845072
0.032849483 -0.06785044 -0.089963935 -0.098066464 0.12539987 0.16896933 0.15853801 0.010918293
0.051874403 0.053299848 0.17132168 0.052346937 0.13004363 -0.29776675 -0.19107868 -0.27156967
0.41342244 0.4091274 0.35909748 -0.119081154 -0.09902831 0.37412488 0.115282215 0.11167568
0.06871011 -0.4215353 -0.36025035 -0.38083375 0.09119276 0.18464324 -0.4589121 -0.15397559
-2.3739785e-05 -0.05571972 0.008788635 -0.08276855 -0.04414299 -0.028196191 0.08553687 -0.045443274
-0.1251002 0.14644247 -0.11058703 -0.23523691 -0.24296299 -0.27772814 -0.071004674 -0.004498352
-0.0071792095 -0.03877525 -0.1840894 0.019678233 0.054250896 0.06548548 0.089365795 0.08344642
-0.07366533 -0.025615321 0.059912287 0.614545 -0.117322385 0.43327686 0.3708762 0.0013582627
0.38123488 0.49385947 -0.018054256 -0.029007794 -0.99169105 0.15175536 -0.3985925 -0.24091874
0.023614552 -0.35586366 -0.6042521 0.14370136 -0.008850078 0.00067579077 -0.038809836 -0.027164008
0.059163466 -0.039793428 0.12371772 0.0052594882 0.017524607 -0.056207016 -0.19673277 -0.05006455
-0.11733149 -0.0043309066 -0.111711115 -0.03565192 0.020808605 -0.1208972 -0.12186772 -0.0468296
-0.022400616 -0.1560694 -0.0010597089 -0.051024735 -0.0066503934 -0.09306283 -0.12747698 -0.005006495
0.33168098 -0.26044768 -0.3245947 -0.0760954 0.45150647 -0.172828 -0.26100904 -0.30371252
0.21256366 -0.38677377 -0.46812183 -0.29549363 -0.092027195 -0.7501233 0.124182805 -0.06936866
-0.27528518
00000000: f5cc 6bbd 1e46 ac3d 724c 2c3d 1974 023d
00000010: c9d7 2c3c d7aa 8a3b b0f0 43bd 2667 ad3d
00000020: e347 98bd 6543 033e ef6f 5fbd 9137 7d3d
00000030: b0d4 4bba 7b0f b8bd e141 113d e899 e23d
00000040: 7abd 003e e891 7bbd 1c8d b5bd c15c ef3d
00000050: 51b5 ea3a 4868 bf3d 24d0 413e e46c dd3c
00000060: d9eb 9cbd 5516 9bbd 41f9 f03d 9cea 4b3f
00000070: 2eab b5be 0971 44bc f729 fcbd 21f1 20be
00000080: 2531 37be 25a2 003e 65fe 29be 926c a13e
00000090: 5cb6 39bf c92b 80bd f7d8 123c 04f5 2abc
000000a0: 4647 cc3d a8a9 133e 1bdc 7dbd 8315 20be
000000b0: bce4 a9be 1cf0 893d f6f3 ce3d e779 023e
000000c0: 6d56 a6bc 1882 7abc 193c 1fbc 16d2 d8bc
000000d0: e2f7 b53c c8fb 45be d500 26be 72ee 40be
000000e0: fbfd cdbd 3c34 b0bd 7242 b23d 4a77 93bd
000000f0: 46cd 83be 9d40 443c 0cb0 8ebc 56fc f0bc
00000100: 248a 1fbe 978d 09bc 2d5b 1dbe 5138 2cbe
00000110: aba7 79bc bc89 83be 9c84 673d 2db1 94bd
00000120: a26b d8bd 96b0 87bd 50da 94bd 98b4 353e
00000130: c647 d63d 8c3b f2bc d5a0 643c c0ab a6bd
00000140: 910d 8ebd 9c37 263d 689f 3ebe d0a4 a33c
00000150: 1cdb 11be a49b 78bd 2d9d 253d 3a91 3ebe
00000160: 4731 1bbe f0bb 71be b621 1abd e38f cb3d
00000170: ed8c e13a d2fb 013d 1053 1a3d 0135 3fbd
00000180: a977 e2bc 65ec a53d d6ed 56bd 4749 3ebd
00000190: 207e 04be 1d96 3ebd 52cd bb3d c5aa a0bd
000001a0: 2e8d 063d 2cf5 8abd 033f b8bd 12d7 c8bd
000001b0: d368 003e 4c06 2d3e ca57 223e a4e2 323c
000001c0: 417a 543d f150 5a3d f36e 2f3e be69 563d
000001d0: 282a 053e e274 98be 21aa 43be 2e0b 8bbe
000001e0: 1bac d33e 2679 d13e a0db b73e d2e0 f3bd
000001f0: 5bcf cabd 4c8d bf3e 1519 ec3d 38b6 e43d
00000200: e3b7 8c3d 7ad3 d7be bc72 b8be a4fc c2be
00000210: 45c3 ba3d 1e13 3d3e 87f6 eabe c7ab 1dbe
00000220: cd24 c7b7 5c3a 64bd 35fe 0f3c 8f82 a9bd
00000230: 48cf 34bd b3fb e6bc f42d af3d ba22 3abd
00000240: 441a 00be 04f5 153e 747b e2bd f2e1 70be
00000250: 4acb 78be 6232 8ebe e66a 91bd e966 93bb
00000260: 933f ebbb ccd2 1ebd ef81 3cbe 3f34 a13c
00000270: 3036 5e3d 401d 863d 6a05 b73d f5e5 aa3d
00000280: d9dd 96bd 39d7 d1bc 9666 753d d252 1d3f
00000290: b846 f0bd 77d6 dd3e 7ce3 bd3e bc07 b23a
000002a0: 3831 c33e 26db fc3e 85e6 93bc c1a1 edbc
000002b0: 77df 7dbf c265 1b3e 5114 ccbe 67b3 76be
000002c0: 4e73 c13c c333 b6be 44b0 1abf 7326 133e
000002d0: ebff 10bc 8d27 313a 10f7 1ebd 0e87 debc
000002e0: 6455 723d 6ffe 22bd b75f fd3d c957 ac3b
000002f0: c48f 8f3c 5439 66bd 5174 49be 7c10 4dbd
00000300: 7e4b f0bd 47ea 8dbb ccc8 e4bd bf07 12bd
00000310: cf76 aa3c f498 f7bd c895 f9bd 65d0 3fbd
00000320: 7f81 b7bc a8d0 1fbe eee5 8aba 50ff 50bd
00000330: 8beb d9bb ba97 bebd 5389 02be 860d a4bb
00000340: 17d2 a93e 6659 85be 4731 a6be e8d7 9bbd
00000350: db2b e73e d3f9 30be faa2 85be 3580 9bbe
00000360: 4aaa 593e 3607 c6be aaad efbe f14a 97be
00000370: c178 bcbd 1508 40bf 8e53 fe3d 2811 8ebd
00000380: 2ef2 8cbe

cnn.0.bias f4 [5]
0.106787235 -0.3874405 0.12392989 -0.06561596 -0.13490514
00000000: 44b3 da3d 9a5e c6be f4ce fd3d a961 86bd
00000010: 9324 0abe

cnn.2.weight f4 [5, 5, 3, 3]
-0.29810527 0.32056737 -0.19433528 0.023268338 -0.1597976 -0.040874645 0.005420472 0.23286071
-0.06930558 0.090946645 0.019686148 -0.011981121 0.10157692 0.079519026 0.07404859 -0.22766449
-0.097934194 -0.14274013 -0.009553313 -0.023242977 0.10449074 0.22964254 0.23826392 0.11530247
0.03586564 -0.43103027 -0.039973054 0.5141551 0.078472756 0.24371946 0.012966807 0.102828585
0.053558026 0.25824544 -0.43342376 0.18299639 0.092579216 -0.2782059 -0.25828037 -0.13388541
0.29407933 -0.12458977 0.10966575 0.110812575 0.15756346 -0.1616272 0.035807557 -0.16202733
-0.2484572 -0.32842216 -0.2823595 -0.03981679 -0.108585685 -0.17719115 0.059518144 -0.02835855
-0.084525764 -0.039839882 -0.21348268 0.1730108 0.030418007 -0.016521 0.20473671 -0.022743464
0.16556548 -0.542848 -0.34645298 0.15850936 0.16049434 -0.2369771 0.11155994 -0.07493185
-0.33562818 -0.43115184 0.45735365 -0.07881811 -0.4848138 0.034486197 -0.0740462 -0.18325014
0.3957508 -0.058279887 -0.25455052 0.0029819005 -0.041447803 0.2875717 -0.21068671 -0.016782023
-0.30366242 0.010245919 -0.50161505 0.4871967 0.14169943 0.046664327 -0.12148383 0.012994557
0.1112002 -0.18986745 -0.023273323 0.019910723 -0.12953529 -0.14072785 0.14977826 -0.0975881
-0.044458985 -0.07008277 -0.09911307 0.050317343 -0.055820115 -0.3426837 0.0044884537 -0.004642402
-0.19410488 -0.11467352 -0.040259153 0.027378656 0.0135774845 0.5629641 0.35446915 -0.09632417
-0.066329174 -0.23602791 -0.16829152 -0.27449167 0.31715962 -0.030502424 0.07936787 0.028660817
-0.09757248 -0.016580768 -0.1340912 -0.0966349 -0.020246215 -0.10607484 -0.09844146 -0.12307694
0.06942597 -0.14982598 -0.029199827 -0.45140085 -0.12792924 -0.4461512 -0.42020077 0.091205366
-0.031452116 0.14593989 0.17401536 -0.18238592 -0.0528426 -0.044020034 -0.216065 -0.051069234
0.19897836 0.01623935 -0.5790888 -0.18779491 0.15745868 0.10827821 0.025721734 0.07984688
-0.043453377 0.25695455 0.13005812 0.290329 -0.04496537 -0.8804511 0.2358891 0.27980998
-0.5209878 0.33730054 0.15058768 -0.20129368 -0.24542607 0.34350854 0.12630065 -0.58378464
-0.07801121 0.25927475 0.064614564 -0.25909248 -0.14214861 0.0656899 -0.010973259 -0.24145459
-0.1931581 -0.09819612 -0.2803289 -0.15365681 0.068175584 0.116478644 -0.035266485 -0.19252315
-0.1500148 0.09154197 0.053635288 -0.07040653 0.07798036 -0.113130875 -0.17768615 -0.18792921
-0.018827267 -0.15952034 -0.03353766 -0.041373905 -0.050566867 -0.033748664 0.11372794 0.07784911
-0.2502146 -0.038901556 -0.16226451 -0.2467347 -0.2616541 -0.20631006 -0.12984255 -0.4047155
0.094256796 -0.031050704 -0.16293845 0.09149833 -0.10130196 -0.027096301 -0.120411314 0.06066127
-0.14280488
00000000: 41a1 98be 6821 a43e d4ff 46be 3e9d be3c
00000010: fba1 23be 2c6c 27bd 379e b13b 0a73 6e3e
00000020: 15f0 8dbd 3c42 ba3d d844 a13c 774c 44bc
00000030: 8f07 d03d dfda a23d caa6 973d e120 69be
00000040: b991 c8bd 782a 12be 8085 1cbc 0e68 bebc
00000050: 3eff d53d 6a27 6b3e 75fb 733e b423 ec3d
00000060: d9e7 123d 00b0 dcbe c9ba 23bd ab9f 033f
00000070: 53b6 a03d 9891 793e bb72 543c cb97 d23d
00000080: a95f 5b3d bf38 843e b8e9 ddbe 6863 3b3e
00000090: 2c9a bd3d 0171 8ebe 533d 84be 4219 09be
000000a0: 9191 963e ec28 ffbd 7098 e03d b4f1 e23d
000000b0: 5158 213e 9a81 25be f2aa 123d 7eea 25be
000000c0: 906b 7ebe f326 a8be 6d91 90be ee16 23bd
000000d0: 2c62 debd 9971 35be 4cc9 733d 3150 e8bc
000000e0: d81b adbd 252f 23bd 349b 5abe be29 313e
000000f0: 2f2f f93c 0c57 87bc 80a6 513e 8050 babc
00000100: ff89 293e 16f8 0abf 4962 b1be 4750 223e
00000110: a158 243e 20aa 72be 8a79 e43d df75 99bd
00000120: 75d7 abbe efbf dcbe 422a ea3e 646b a1bd
00000130: 8439 f8be 6641 0d3d 89a5 97bd eda5 3bbe
00000140: d99f ca3e e4b6 6ebd 7254 82be fd6b 433b
00000150: 2cc5 29bd 993c 933e 42be 57be 747a 89bc
00000160: a479 9bbe 80de 273c d869 00bf d971 f93e
00000170: a819 113e 1823 3f3d 84cc f8bd 1fe7 543c
00000180: eebc e33d 9d6c 42be b2a7 bebc d01b a33c
00000190: e6a4 04be f61a 10be 795f 193e 45dc c7bd
000001a0: a01a 36bd 8e87 8fbd cbfb cabd 8f19 4e3d
000001b0: a2a3 64bd 3d74 afbe e113 933b 4a1f 98bb
000001c0: 6ec3 46be f3d9 eabd c8e6 24bd 3449 e03c
000001d0: 1974 5e3c 6a1e 103f fb7c b53e 9b45 c5bd
000001e0: 97d7 87bd 4db1 71be 9d54 2cbe 2c8a 8cbe
000001f0: bf62 a23e 38e0 f9bc 9f8b a23d 17ca ea3c
00000200: 15d4 c7bd 64d4 87bc 344f 09be 85e8 c5bd
00000210: 64db a5bc c43d d9bd ad9b c9bd c30f fcbd
00000220: 342f 8e3d fb6b 19be 7a34 efbc 031e e7be
00000230: e2ff 02be ee6d e4be 8e24 d7be e1c9 ba3d
00000240: efd3 00bd 4471 153e 1531 323e 60c3 3abe
00000250: 7b71 58bd 5a4e 34bd 2540 5dbe f92d 51bd
00000260: fcc0 4b3e 6308 853c 2a3f 14bf 4f4d 40be
00000270: d93c 213e f7c0 dd3d 63b6 d23c c386 a33d
00000280: 2bfc 31bd 8c8f 833e f52d 053e 01a6 943e
00000290: 9c2d 38bd 3e65 61bf ea8c 713e 4143 8f3e
000002a0: 755f 05bf a8b2 ac3e a833 1a3e ee1f 4ebe
000002b0: f950 7bbe 5ae0 af3e f554 013e e972 15bf
000002c0: 57c4 9fbd a9bf 843e a454 843d c5a7 84be
000002d0: 688f 11be 6d88 863d 2fc9 33bc df3f 77be
000002e0: 3dcb 45be 0c1b c9bd 4587 8fbe 3658 1dbe
000002f0: a49f 8b3d 5b8c ee3d 9773 10bd ca24 45be
00000300: 7b9d 19be 5b7a bb3d adb0 5b3d 4c31 90bd
00000310: 2bb4 9f3d 29b1 e7bd 5cf3 35be 8470 40be
00000320: a43b 9abc 4d59 23be c95e 09bd af77 29bd
00000330: 341f 4fbd 0a3c 0abd 32ea e83d 5b6f 9f3d
00000340: 211c 80be 3d57 1fbd ab28 26be 05a8 7cbe
00000350: 87f7 85be f242 53be 72f5 04be df36 cfbe
00000360: b509 c13d 0c5e febc 56d9 26be 7a63 bb3d
00000370: 6777 cfbd 10f9 ddbc 359a f6bd f477 783d
00000380: 713b 12be

cnn.2.bias f4 [5]
-0.066865616 -0.037426982 0.00424056 -0.084630884 -0.11763325
00000000: d7f0 88bd 094d 19bd 65f4 8a3b f552 adbd
00000010: b4e9 f0bd

network.0.weight f4 [120, 405]
0.030959304 0.056367792 -0.06492216 0.0322588 0.0054590194 -0.13294823 -0.08522564 -0.041469976
-0.0016142599 -0.010257378 0.0064989408 -0.09351068 0.075132445 -0.050575033 0.06240024 -0.15030633
-0.09824221 -0.10481806 -0.121067636 -0.012101412 0.011554564 -0.011623245 -0.16798456 -0.13058656
-0.06240388 0.0705204 -0.050789226 -0.07049882 -0.15069509 -0.0060737557 -0.008948389 -0.066130415
-0.01651771 -0.03836358 -0.12168248 -0.0077613313 -0.12559664 -0.18947056 -0.070117414 -0.16625038
0.012811945 -0.005254175 -0.057698775 0.0138586 -0.07938124 -0.09908397 -0.09489322 0.006338586
-0.009243856 -0.10464664 -0.09370351 -0.07105905 -0.04147292 -0.077490106 -0.037803218 -0.0873857
-0.009330782 -0.089193694 -0.116758145 -0.14329559 -0.09522428 -0.11877573 -0.060294256 0.023753243
-0.05313956 -0.07736027 -0.04903973 -0.09492796 -0.060286943 0.048897177 -0.10191321 -0.014271864
-0.10821958 -0.114551686 -0.12805098 0.102394566 -0.117298886 -0.11951376 -0.08345204 -0.10009543
0.061877336 -0.018568896 0.05760413 -0.061592218 0.0056082797 0.004724809 -0.028708588 -0.001112077
-0.0023561588 0.0029104953 0.054139763 -0.011827424 -0.018580223 0.039933447 -0.07604092 -0.036712524
-0.039258998 -0.005063435 -0.058833852 -0.004552297 0.0029576803 0.016519576 -0.08399862 -0.047446758
0.039872997 -0.031548284 0.059022967 -0.03448352 -0.09593491 -0.033195224 0.011570185 0.044256445
-0.0065896506 0.058616415 -0.012895004 0.053565476 -0.046470948 0.0028420975 -0.031592112 -0.017195847
-0.014029757 -0.013778945 -0.055201404 -0.05051556 0.077094235 0.0563363 0.023482027 -0.058197238
0.039793506 0.029970579 -0.039094817 0.020144235 0.026598683 -0.061954413 0.0019008495 0.005773525
-0.013128143 -0.08755034 0.042304117 -0.038593464 -0.0033100836 0.016135188 -0.05341279 0.023000553
-0.08814578 -0.031598117 0.006389344 -0.032776777 -0.16538486 -0.07270061 -0.040498678 -0.08752533
0.022550968 0.0028440768 -0.04497673 0.022335444 0.05502751 -0.09536012 0.0786878 -0.03118408
-0.008554374 -0.047182307 -0.054209188 -0.18933658 -0.03200378 0.038499072 0.053630594 -0.13008724
0.037902087 0.008620951 -0.03685968 -0.046179894 0.016143948 -0.04778563 -0.15076715 -0.013136974
0.11411848 -0.0835123 -0.050211173 -0.03337173 -0.03008328 0.0038653642 -0.03581426 0.017161509
-0.28885537 -0.1442576 -0.19635879 0.035237566 0.020390868 -0.13480192 -0.020171335 -0.034605406
-0.09163421 -0.07276437 -0.1577155 -0.030494321 -0.14578158 -0.08634452 -0.16312137 -0.05827875
0.014748901 -0.03841537 -0.14577344 -0.114852525 0.00090164755 -0.100142464 -0.052077707 -0.101760365
-0.040804654 -0.026229994 -0.049935415 -0.07809671 -0.014253811 -0.08208568 0.011610293 -0.0694977
-0.14580652 -0.11041339 -0.06097474 -0.110876024 -0.045950916 0.0030053146 -0.0803008 -0.06328558
-0.13298856 -0.008843837 -0.055574343 -0.116432674 -0.10181478 -0.13836966 0.007886852 -0.028539235
-0.10520685 -0.002295871 -0.08146807 -0.12933245 -0.05632972 -0.04211383 -0.1299849 -0.08407238
-0.104610376 -0.031286635 -0.012693713 -0.025700323 -0.043892615 -0.010170199 -0.14486498 -0.0523932
-0.019287651 -0.0315441 -0.024540778 -0.04683875 -0.02481619 -0.019743029 -0.11538209 -0.08319698
00000000: 5e9e fd3c eae1 663d e9f5 84bd ce21 043d
00000010: 93e1 b23b 9523 08be c88a aebd 6cdc 29bd
00000020: 9395 d3ba 900e 28bc 11f5 d43b 8782 bfbd
00000030: 0adf 993d c427 4fbd 6597 7f3d e7e9 19be
00000040: 3633 c9bd daaa d6bd 4ff2 f7bd 0045 46bc
00000050: 5b4f 3d3c 6c6f 3ebc 2504 2cbe 7cb8 05be
00000060: 369b 7fbd 006d 903d 5d08 50bd af61 90bd
00000070: d04f 1abe 5b06 c7bb 449c 12bc 626f 87bd
00000080: 2650 87bc 2123 1dbd aa34 f9bd c452 febb
00000090: 689c 00be 9204 42be b899 8fbd 8a3d 2abe
000000a0: 31e9 513c 372b acbb 8d55 6cbd 2e0f 633c
000000b0: a292 a2bd 89ec cabd 6057 c2bd eab3 cf3b
000000c0: 8b73 17bc fa50 d6bd a0e7 bfbd 6887 91bd
000000d0: 82df 29bd 22b3 9ebd 8cd7 1abd 46f7 b2bd
000000e0: 23e0 18bc 2fab b6bd e51e efbd 14bc 12be
000000f0: f304 c3bd b140 f3bd 1cf7 76bd 2996 c23c
00000100: dea8 59bd 106f 9ebd e2dd 48bd 9769 c2bd
00000110: 71ef 76bd 6848 483d dfb7 d0bd 89d4 69bc
00000120: 3aa2 ddbd 139a eabd cc1f 03be 3eb4 d13d
00000130: 663a f0bd a1c3 f4bd e7e8 aabd d5fe ccbd
00000140: 1773 7d3d cc1d 98bc 4ff2 6b3d 1f48 7cbd
00000150: a9c5 b73b 92d2 9a3b 462e ebbc 1dc3 91ba
00000160: c969 1abb 02be 3e3b a8c1 5d3d d0c7 41bc
00000170: 8d35 98bc 4191 233d 58bb 9bbd df5f 16bd
00000180: 0bce 20bd 2ceb a5bb c4fb 70bd 6f2b 95bb
00000190: a4d5 413b 1054 873c 7807 acbd 8857 42bd
000001a0: de51 233d c638 01bd 11c2 713d 973e 0dbd
000001b0: 8679 c4bd b7f7 07bd e090 3d3c 3f46 353d
000001c0: ffed d7bb c417 703d 9145 53bc 7967 5b3d
000001d0: 5258 3ebd 7c42 3a3b bb66 01bd 4ede 8cbc
000001e0: 11dd 65bc 16c1 61bc de1a 62bd 67e9 4ebd
000001f0: 95e3 9d3d e4c0 663d 615d c03c 3a60 6ebd
00000200: 84fe 223d dc84 f53c e321 20bd 8605 a53c
00000210: 7be5 d93c e9c3 7dbd ed25 f93a d72f bd3b
00000220: 6c17 57bc 984d b3bd 1547 2d3d 2e14 1ebd
00000230: fded 58bb f12d 843c 5fc7 5abd a86b bc3c
00000240: c685 b4bd 076d 01bd b45d d13b f140 06bd
00000250: a65a 29be 0fe4 94bd f1e1 25bd 7b40 b3bd
00000260: cfbc b83c b163 3a3b 8539 38bd d2f8 b63c
00000270: 8764 613d 2b4c c3bd 1227 a13d c175 ffbc
00000280: a527 0cbc 3c42 41bd 740a 5ebd 73e1 41be
00000290: 6516 03bd 34b1 1d3d c1ab 5b3d 9735 05be
000002a0: 383f 1b3d e43e 0d3c 2dfa 16bd 2127 3dbd
000002b0: 5040 843c ddba 43bd b462 1abe 763c 57bc
000002c0: f3b6 e93d 7f08 abbd 3baa 4dbd ccb0 08bd
000002d0: 3671 f6bc 0d52 7d3b f9b1 12bd 4b96 8c3c
000002e0: dae4 93be 44b8 13be 4712 49be 4455 103d
000002f0: c00a a73c 8409 0abe 5b3e a5bc 66be 0dbd
00000300: b7aa bbbd 7c05 95bd 2c80 21be 3acf f9bc
00000310: c447 15be 65d5 b0bd 4a09 27be b3b5 6ebd
00000320: 60a5 713c 6f59 1dbd a245 15be cd37 ebbd
00000330: 8b5c 6c3a 7e17 cdbd 6f4f 55bd bd67 d0bd
00000340: c822 27bd 49e0 d6bc 1489 4cbd 2bf1 9fbd
00000350: d188 69bc 891c a8bd 1939 3e3c cf54 8ebd
00000360: 4e4e 15be 6a20 e2bd a6c0 79bd f812 e3bd
00000370: 0737 3cbd d0f4 443b bf74 a4bd df9b 81bd
00000380: 272e 08be bee5 10bc eca1 63bd 4174 eebd
00000390: 4484 d0bd c7b0 0dbe db37 013c 1dcb e9bc
000003a0: b076 d7bd 5376 16bb bbd8 a6bd ba6f 04be
000003b0: feb9 66bd 8d7f 2cbd c31a 05be 242e acbd
000003c0: f73d d6bd 6a26 00bd 4bf9 4fbc 7c89 d2bc
000003d0: bec8 33bd e8a0 26bc 7c57 14be 419a 56bd
000003e0: 2301 9ebc 6334 01bd be09 c9bc fdd9 3fbd
000003f0: 534b cbbc 22bc a1bc 724d ecbd 2e63 aabd

network.0.bias f4 [120]
-0.14350888 -0.005093462 0.0047074044 -0.09679281 0.000112453046 -0.047864024 -0.10038952 -0.053910118
-0.10782987 -0.24242234 -0.027406566 -0.15559293 -0.020850815 0.04114225 -0.087464355 0.023394378
-0.09541357 -0.10511249 -0.026318695 -0.079512775 -0.12148189 -0.109965436 -0.090660855 -0.038988993
0.035030484 -0.18563543 -0.07184152 0.030173875 -0.1597503 -0.15754396 -0.0020289593 -0.11266821
-0.10960332 0.06282781 -0.30213743 -0.057403676 -0.1836433 -0.021285914 -0.044380683 0.13953774
-0.049509253 -0.15689225 -0.17601816 -0.007855632 -0.034438994 -0.14968914 -0.15854673 -0.07333937
-0.16240665 -0.014751632 -0.3498988 -0.06687728 -0.0047768764 -0.043990895 -0.14630616 -0.009087101
-0.062340464 -0.12404863 -0.07893612 -0.051052723 -0.039274786 -0.063990556 -0.28642917 0.061898563
-0.09001351 -0.05599948 -0.018835776 -0.07837611 -0.1592338 -0.20236984 -0.067465894 -0.07964337
-0.1771864 0.052301366 -0.042150788 -0.13883725 -0.059891604 -0.004636059 -0.07322161 -0.024745721
-0.09329772 -0.19340704 -0.0037948529 -0.057487253 -0.07861866 0.064865336 -0.057575244 -0.011522818
0.019475719 -0.2596385 0.1494259 -0.141568 0.12249304 0.008779085 -0.08016883 -0.07827055
-0.249193 -0.06083857 -0.09159765 -0.10124066 0.04746224 -0.06456137 -0.15326355 -0.08146233
-0.11936453 -0.20080954 -0.3274334 -0.08523589 -0.037602264 -0.06502756 -0.09845695 -0.12231444
-0.09959123 -0.06975981 -0.103898846 -0.091765545 -0.039484605 0.017567644 -0.13730344 -0.10662112
00000000: fef3 12be 0ee7 a6bb 9240 9a3b 4f3b c6bd
00000010: c5d4 eb38 110d 44bd 0599 cdbd dbd0 5cbd
00000020: e8d5 dcbd 903d 78be bc83 e0bc c153 1fbe
00000030: 54cf aabc c784 283d 8320 b3bd 91a5 bf3c
00000040: 3168 c3bd 3845 d7bd 4e9a d7bc 98d7 a2bd
00000050: 7fcb f8bd 8f35 e1bd 66ac b9bd ecb2 1fbd
00000060: 207c 0f3d 3717 3ebe a621 93bd 342f f73c
00000070: 9595 23be 3453 21be 4af8 04bb 97be e6bd
00000080: b577 e0bd deab 803d c2b1 9abe 1e20 6bbd
00000090: fd0c 3cbe cc5f aebc 85c8 35bd fbe2 0e3e
000000a0: 37ca 4abd 5da8 20be 1b3e 34be e9b4 00bc
000000b0: e70f 0dbd 1c48 19be 135a 22be f432 96bd
000000c0: ee4d 26be d4b0 71bc ef25 b3be f5f6 88bd
000000d0: 5887 9cbb cc2f 34bd 48d1 15be 10e2 14bc
000000e0: b758 7fbd 350d febd 43a9 a1bd a91c 51bd
000000f0: 99de 20bd 7b0d 83bd d8a6 92be 5989 7d3d
00000100: 0159 b8bd b65f 65bd 7c4d 9abc a783 a0bd
00000110: 2f0e 23be 0a3a 4fbe 8f2b 8abd 101c a3bd
00000120: 5a70 35be f539 563d 4ea6 2cbd 5a2b 0ebe
00000130: e650 75bd 15ea 97bb 36f5 95bd 8ab7 cabc
00000140: e012 bfbd 7f0c 46be 11b3 78bb c177 6bbd
00000150: d202 a1bd 1ed8 843d 05d4 6bbd 34ca 3cbc
00000160: 8b8b 9f3c 56ef 84be 1a03 193e 34f7 10be
00000170: a2dd fa3d 27d6 0f3c 8e2f a4bd 4f4c a0bd
00000180: 732c 7fbe dd31 79bd 8c97 bbbd 4357 cfbd
00000190: c467 423d c038 84bd 1ff1 1cbe b9d5 a6bd
000001a0: 6475 f4bd 04a1 4dbe 5aa5 a7be 2790 aebd
000001b0: d504 1abd 2b2d 85bd cca3 c9bd fe7f fabd
000001c0: 7df6 cbbd 3bde 8ebd ebc8 d4bd 93ef bbbd
000001d0: 9cba 21bd 05ea 8f3c 4699 0cbe 2c5c dabd

network.2.weight f4 [84, 120]
0.03596008 0.11180316 0.23176384 -0.046488676 0.04791984 -0.3068308 0.010445832 0.01853534
-0.06158552 0.15435135 -0.01624973 -0.044704907 -0.07139602 0.24576038 0.026564576 -0.034917913
0.052882876 0.026334232 0.14547938 0.044382658 -0.04685825 0.019336555 -0.03207222 0.3345784
-0.031695962 0.03803641 0.10068933 -0.16301562 -0.088233955 -0.012145127 0.12074173 -0.17215002
0.028263703 0.24834655 0.0777384 0.12979771 0.011577909 -0.02148921 0.08758698 -0.24789885
-0.010342221 -0.023399595 0.04109615 0.048825886 -0.08815694 0.036680624 -0.028686378 0.074106924
0.0084998775 0.29918763 0.12626195 -0.053336587 -0.019220572 -0.19846292 -0.044085775 0.17881227
0.06224793 0.12934119 0.009708626 -0.05661435 -0.015592321 0.12694736 -0.037559967 -0.26198477
-0.0549959 0.11042053 0.22148988 0.00073697534 -0.25494176 0.2312661 -0.0656929 -0.013474874
0.010389639 0.12483653 0.078404695 0.06766221 0.03272319 0.24124822 0.027430099 0.05827314
-0.03694887 0.07710477 0.13713865 -0.061225023 -0.047060817 -0.18967287 -0.050531216 0.2318405
0.046848293 -0.086223535 -0.08552292 0.08034715 -0.020101428 0.4594852 0.035187952 -0.015210248
0.012626235 0.052219555 0.0029071523 0.05178365 0.01937035 -0.09835264 0.11064498 0.036769662
-0.05043201 0.114472285 0.04980647 -0.016234953 0.014805565 -0.0001678081 0.18254256 -0.1580026
0.0925572 0.015692243 0.06459821 -0.018200027 0.16177067 0.42305887 -0.08439876 0.07791362
-0.018803602 -0.32335272 0.07479661 0.08605844 -0.3686455 -0.04920012 -0.07983701 -0.11129981
0.028984033 -0.02155385 0.021855528 -0.08276863 -0.12045485 -0.062379204 0.015262165 0.19195896
-0.053615995 0.0134901265 -0.004978136 0.015262954 -0.06564077 0.026580477 0.03293784 -0.1878336
-0.38187334 0.07111913 -0.07083387 -0.17496572 -0.08063621 0.0042341864 -0.09897516 -0.32317907
-0.06691143 0.22281761 -0.03848331 -0.2929795 0.024409426 -0.015050646 -0.14238794 0.063621916
-0.041102048 -0.065368466 0.021140207 -0.3435891 -0.08814522 -0.35922858 -0.059859794 -0.020313283
-0.010776187 -0.023460839 -0.24982807 0.052044846 -0.05117369 -0.20065588 0.027542235 0.18146516
-0.033774957 0.0014781856 -0.028367713 0.008228454 -0.076059 -0.23518372 0.18205197 0.32241896
-0.047354944 0.16371456 0.1967675 0.015908845 -0.006337955 -0.06680271 -0.07678729 -0.00033535066
-0.0016834676 -0.011752097 -0.01940905 0.0014327861 0.15408131 0.061260145 -0.08236585 -0.030848257
-0.11967547 0.172758 -0.42053843 0.047378626 -0.024697209 -0.00725173 -0.044327557 -0.032262813
-0.19989052 0.028936896 0.36046004 0.03626705 0.074820235 -0.13657135 0.018690137 -0.04334096
0.21796085 0.24818654 0.1179032 0.038612105 0.24727127 0.12364285 0.087165184 0.03986914
0.07485884 -0.24068542 -0.15332204 -0.011262326 -0.045198407 0.10720648 -0.056498747 0.02762062
0.07809851 -0.17572887 0.13001882 -0.2099124 -0.2114708 -0.033789128 0.012173831 0.04643352
0.089283064 0.00032436464 0.0067569828 0.038491957 -0.006632099 -0.07953292 -0.013578721 0.051290367
-0.07597205 -0.046498783 -0.03856317 0.072509505 0.051317193 0.008774421 -0.07103236 -0.027520167
00000000: e04a 133d 0ef9 e43d 8053 6d3e e96a 3ebd
00000010: 9847 443d ed18 9dbe ff24 2b3c 6dd7 973c
00000020: 1941 7cbd 480e 1e3e 271e 85bc 7e1c 37bd
00000030: 1438 92bd 9ca8 7b3e f49d d93c 1606 0fbd
00000040: b79b 583d e3ba d73c 8cf8 143e 97ca 353d
00000050: 70ee 3fbd b267 9e3c 295e 03bd dc4d ab3e
00000060: a0d3 01bd 11cc 1b3d 3536 ce3d 91ed 26be
00000070: 01b4 b4bd 5bfc 46bc 7147 f73d 1848 30be
00000080: 4889 e73c 8f4e 7e3e 4f35 9f3d b1e9 043e
00000090: 45b1 3d3c 240a b0bc cd60 b33d 32d9 7dbe
000000a0: 6b72 29bc 82b0 bfbc 7054 283d a7fd 473d
000000b0: a08b b4bd 6c3e 163d b2ff eabc 5fc5 973d
000000c0: 1243 0b3c 1f2f 993e d04a 013e 7777 5abd
000000d0: 7674 9dbc dd39 4bbe 4993 34bd 901a 373e
000000e0: aff7 7e3d 0472 043e ee10 1f3c 73e4 67bd
000000f0: ef76 7fbc 7dfe 013e 7bd8 19bd de22 86be
00000100: 6143 61bd 2924 e23d 3ece 623e 9431 413a
00000110: ba87 82be 05d1 6c3e 008a 86bd b8c5 5cbc
00000120: 4e39 2a3c 4baa ff3d a492 a03d 7c92 8a3d
00000130: c008 063d c609 773e 16b5 e03c d1af 6e3d
00000140: b357 17bd 1be9 9d3d 136e 0c3e 17c7 7abd
00000150: d8c2 40bd 9b39 42be d2f9 4ebd 9967 6d3e
00000160: ffe3 3f3d f795 b0bd a426 afbd 0c8d a43d
00000170: c0ab a4bc a541 eb3e 3e21 103d 6734 79bc
00000180: 45de 4e3c 2ce4 553d ec85 3e3b 181b 543d
00000190: 91ae 9e3c 1c6d c9bd d699 e23d c99b 163d
000001a0: cc91 4ebd 7270 ea3d de01 4c3d 2aff 84bc
000001b0: 0a93 723c a5f5 2fb9 70ec 3a3e 6fcb 21be
000001c0: a18e bd3d 058d 803c 114c 843d 3918 95bc
000001d0: 36a7 253e 2c9b d83e 42d9 acbd 2d91 9f3d
000001e0: 030a 9abc 7d8e a5be f72e 993d 683f b03d
000001f0: 1abf bcbe 1186 49bd 9681 a3bd 28f1 e3bd
00000200: ec6f ed3c b391 b0bc 5d0a b33c 9982 a9bd
00000210: 08b1 f6bd 5681 7fbd 290e 7a3c e490 443e
00000220: 729c 5bbd b105 5d3c a21f a3bb 7811 7a3c
00000230: ab6e 86bd 4dbf d93c d4e9 063d 7457 40be
00000240: e784 c3be e8a6 913d 5911 91bd 372a 33be
00000250: 9924 a5bd eebe 8a3b 7db3 cabd ba77 a5be
00000260: dc08 89bd 4d2a 643e ada0 1dbd 6901 96be
00000270: 47f6 c73c fc96 76bc 25ce 11be 354c 823d
00000280: 9f5a 28bd e7df 85bd 3a2e ad3c e9ea afbe
00000290: 7b85 b4bd cfec b7be 8b2f 75bd 0b68 a6bc
000002a0: 9b8e 30bc f230 c0bc eed2 7fbe fa2c 553d
000002b0: 819b 51bd bc78 4dbe 41a0 e13c 01d2 393e
000002c0: 9c57 0abd aebf c13a 6863 e8bc a3d0 063c
000002d0: d2c4 9bbd 00d4 70be d56b 3a3e 1914 a53e
000002e0: 42f7 41bd caa4 273e 6b7d 493e 4453 823c
000002f0: 9fae cfbb dccf 88bd a842 9dbd 01d2 afb9
00000300: cda7 dcba de8b 40bc baff 9ebc 53cc bb3a
00000310: 7ec7 1d3e ebeb 7a3d 6daf a8bd 7cb5 fcbc
00000320: 6a18 f5bd 79e7 303e d050 d7be 1710 423d
00000330: cd51 cabc ec9f edbb d090 35bd 0326 04bd
00000340: 1ab0 4cbe 120d ed3c 388e b83e c28c 143d
00000350: 5a3b 993d 5cd9 0bbe 0f1c 993c 4a86 31bd
00000360: 2131 5f3e 9d24 7e3e 3c77 f13d ba27 1e3d
00000370: ae34 7d3e 7638 fd3d a983 b23d d34d 233d
00000380: 974f 993d 3d76 76be 7400 1dbe 9e85 38bc
00000390: f721 39bd 128f db3d 3b6b 67bd a344 e23c
000003a0: 1df2 9f3d 45f2 33be a723 053e 47f3 56be
000003b0: cd8b 58be 7866 0abd c074 473c 1331 3e3d
000003c0: 0ada b63d 7c0f aa39 ae69 dd3b bea9 1d3d
000003d0: 1452 d9bb 28e2 a2bd 4979 5ebc d915 523d
000003e0: 3c97 9bbd 8275 3ebd 6af4 1dbd dd7f 943d
000003f0: fa31 523d 97c2 0f3c 6a79 91bd f971 e1bc

network.2.bias f4 [84]
0.3773757 0.01872423 -0.10610123 0.031073805 -0.0854995 0.048771195 -0.011479349 0.030342882
0.065531865 -0.04814508 -0.12730603 -0.114264406 -0.09796211 -0.06717903 0.07755538 -0.084059425
-0.08841918 -0.10204743 -0.07774738 0.17682913 -0.111203164 0.01962148 -0.008493374 -0.10073267
-0.14007078 0.15100582 0.068655126 -0.009933101 0.04595397 0.113722526 -0.07208641 -0.09641914
-0.25410724 -0.18013656 -0.033873003 -0.13677035 0.2266724 0.07638132 0.16042444 -0.025089335
0.057090912 0.121564 0.09223588 0.110782005 0.052162245 -0.084168024 0.10354712 -0.12785217
0.083941415 0.06506725 0.19713446 -0.112761326 0.16070414 0.044640284 -0.16050178 0.07616821
0.193195 -0.14096282 0.08392143 -0.12440739 -0.00520099 -0.08278662 -0.08431152 -0.062906265
0.041627545 0.08194055 0.03955145 0.052763645 -0.05286814 0.12464305 0.015807066 -0.1639547
-0.15041962 -0.126701 0.0068289977 0.11494794 0.09742917 0.08786362 0.2050717 0.0057108547
0.12041681 -0.09423318 -0.0056744083 0.17162378
00000000: 6337 c13e 8e63 993c 9a4b d9bd 7e8e fe3c
00000010: 5d1a afbd 4ec4 473d e113 3cbc a391 f83c
00000020: 9235 863d c733 45bd 835c 02be 7503 eabd
00000030: 5ca0 c8bd 2995 89bd 5bd5 9e3d 5927 acbd
00000040: 1d15 b5bd 3efe d0bd 053a 9fbd b212 353e
00000050: 7cbe e3bd 3abd a03c cb27 0bbc ee4c cebd
00000060: b76e 0fbe 45a1 1a3e 0f9b 8c3d 72be 22bc
00000070: 3b3a 3c3d 5be7 e83d 0aa2 93bd 6677 c5bd
00000080: 581a 82be b875 38be 6bbe 0abd 870d 0cbe
00000090: cf1c 683e cf6d 9c3d 4e46 243e 2688 cdbc
000000a0: 29d8 693d 8cf6 f83d 2ae6 bc3d ade1 e23d
000000b0: 14a8 553d 4960 acbd 8310 d43d aeeb 02be
000000c0: 7ae9 ab3d fa41 853d 9edd 493e 69ef e6bd
000000d0: a08f 243e bbd8 363d 945a 24be 14fe 9b3d
000000e0: e9d4 453e 8f58 10be 00df ab3d 4dc9 febd
000000f0: 116d aabb 088c a9bd 85ab acbd 00d5 80bd
00000100: a581 2a3d 72d0 a73d b400 223d b11e 583d
00000110: 438c 58bd db44 ff3d d27d 813c bee3 27be
00000120: 9a07 1abe e8bd 01be c9c5 df3b d369 eb3d
00000130: f288 c73d d7f1 b33d 51fe 513e 1f22 bb3b
00000140: 179d f63d 53fd c0bd 63f0 b9bb 25be 2f3e

network.4.weight f4 [21, 84]
0.09374892 -0.006910513 0.07106586 -0.18713754 -0.070083775 -0.021130431 -0.08676797 -0.03757171
0.23613851 -0.038582668 0.025350345 -0.012015864 -5.9704515e-05 -0.09334352 0.06474819 -0.03273681
-0.008650155 0.037636515 -0.07708265 0.119369544 -0.021911666 -0.21539338 0.036860228 -0.07662421
0.026848013 0.046660814 0.11410141 0.048753344 0.16344327 0.059873052 -0.00028598052 0.0041111065
-0.0024579584 0.014914595 0.06985057 -0.034478962 0.15190707 0.17541867 -0.18430796 0.21027257
-0.09401875 0.05979279 0.102595754 -0.15806982 0.072141156 -0.06530141 0.14360298 0.01570298
-0.00493005 -0.16111648 0.1817089 -0.3149479 0.141813 -0.12813419 -0.08846866 -0.29072824
-0.016584117 0.010604693 -0.005798767 -0.021651821 -0.09955949 0.020019896 0.06452838 0.046324454
0.14818083 0.035216387 -0.09935948 -0.040129013 -0.072377816 -0.2823762 0.08313184 0.07880636
-0.015043982 0.08777819 -0.22951525 0.08245535 0.034930035 0.08047539 0.083371185 -0.29782984
-0.18634862 0.04088462 -0.0035070928 -0.044952627 0.08119264 -0.004911197 -0.10124079 -0.24755679
-0.07676378 0.1150475 -0.0761943 -0.061996926 0.17147622 0.033615056 -0.10312304 -0.012909418
-0.012079173 0.014136765 0.025779156 -0.017413015 -0.048289347 -0.02870632 -0.015120759 0.060481917
-0.07453225 -0.017677007 -0.017236827 -0.029671464 0.072891094 0.00037106706 0.19429207 0.1969777
-0.19770733 -0.030094527 0.0031782116 -0.012641142 -0.055219725 -0.10887694 -0.07127372 0.012091056
0.14184184 -0.06607623 0.034281787 -0.06977832 0.04244722 -0.036345687 0.038655646 -0.08379858
-0.18645081 0.07794096 0.065615095 -0.0385321 -0.065561615 -0.10387595 0.08061177 -0.3692109
0.12679076 -0.032278493 0.01689871 -0.38036734 0.18081267 -0.04006284 -0.07131608 0.02621292
-0.11489358 0.06704283 0.017833568 -0.06416802 -0.091826186 -0.12250575 -0.017665647 -0.0068578455
-0.047462255 -0.17842646 -0.09003741 0.03194366 0.02972543 0.08341971 0.10452408 0.16095266
0.01180024 0.014621317 0.08052122 -0.33791903 -0.16807882 0.04362269 0.01845388 -0.14082907
0.07193399 -0.080425024 0.07311309 -0.2195483 -0.010262321 0.10603922 -0.025899922 0.064890265
0.24612539 -0.0539549 0.00838698 -0.08850962 -0.053147785 -0.0009882333 -0.04521214 -0.10776011
-0.0057678176 -0.00722213 0.022193125 -0.047150467 -0.14044096 -0.11255986 -0.079287596 0.09723652
-0.08454897 0.12978986 0.15811229 0.092481755 -0.0033904426 0.008377595 -0.0031110055 0.027449094
-0.07925648 0.06073451 0.042574488 0.07073085 0.19109513 0.07920961 -0.068133764 -0.16214082
0.08633804 -0.3536564 0.040281672 -0.026429225 -0.15894084 0.00050272583 -0.026257794 -0.050682962
-0.011972882 -0.075983115 0.020374091 -0.35268232 0.14839621 -0.04193488 0.03545348 -0.36071575
0.17721795 0.05448448 -0.066746004 0.098965995 -0.10542529 -0.002059768 0.040736884 0.06575526
0.034280557 -0.051037844 -0.12239829 -0.029247418 0.008396807 -0.30154622 -0.038481537 -0.07011447
-0.0943157 0.033042736 0.006106588 0.05889757 -0.04143934 0.06419723 0.14778166 -0.25246152
-0.06298456 0.06477013 -0.026734682 0.12762621 0.13291027 0.15777099 0.040855188 -0.04976645
00000000: 6fff bf3d 9671 e2bb fa8a 913d fca0 3fbe
00000010: 1588 8fbd ba19 adbc 68b3 b1bd cbe4 19bd
00000020: 4bce 713e dc08 1ebd 87ab cf3c 30de 44bc
00000030: 3c6b 7ab8 e32a bfbd b39a 843d 0917 06bd
00000040: 61b9 0dbc bf28 1a3d 82dd 9dbd 0578 f43d
00000050: 1880 b3bc 1590 5cbe c0fa 163d 27ed 9cbd
00000060: 5df0 db3c 691f 3f3d 00ae e93d 96b1 473d
00000070: ac5d 273e 723d 753d a8ef 95b9 76b6 863b
00000080: b315 21bb 585c 743c d10d 8f3d d039 0dbd
00000090: 878d 1b3e f4a0 333e 3abb 3cbe b151 573e
000000a0: e78c c0bd 49e9 743d b91d d23d 0edd 21be
000000b0: bebe 933d bfbc 85bd a90c 133e 89a3 803c
000000c0: 428c a1bb b8fb 24be e611 3a3e da40 a1be
000000d0: 6d37 113e 9c35 03be 0f2f b5bd 55da 94be
000000e0: 6adb 87bc 4ebf 2d3c 9503 bebb 295f b1bc
000000f0: d9e5 cbbd c400 a43c 7527 843d b6be 3d3d
00000100: b7bc 173e 0f3f 103d fc7c cbbd 525e 24bd
00000110: d23a 94bd 9d93 90be 0741 aa3d 3b65 a13d
00000120: 097b 76bc 0dc5 b33d 0c06 6bbe 5ade a83d
00000130: cc12 0f3d 48d0 a43d 83be aa3d 277d 98be
00000140: 2cd2 3ebe a276 273d 41d7 65bb 3f20 38bd
00000150: 5448 a63d 1bee a0bb 5557 cfbd 877f 7dbe
00000160: 5436 9dbd 069e eb3d c20b 9cbd 7df0 7dbd
00000170: 7697 2f3e f1af 093d 2c32 d3bd 0682 53bc
00000180: b9e7 45bc e49d 673c cf2e d33c bda5 8ebc
00000190: 0dcb 45bd 8429 ebbc 0fbd 77bc e3bb 773d
000001a0: 5da4 98bd 5fcf 90bc 3f34 8dbc 9211 f3bc
000001b0: ed47 953d c78b c239 80f4 463e 86b4 493e
000001c0: ca73 4abe cc88 f6bc 8b49 503b cb1c 4fbc
000001d0: 142e 62bd e0fa debd f5f7 91bd 9119 463c
000001e0: fd3e 113e f952 87bd 0f6b 0c3d f0e7 8ebd
000001f0: 23dd 2d3d 37df 14bd 6255 1e3d 979e abbd
00000200: f6ec 3ebe 839f 9f3d 3561 863d d6d3 1dbd
00000210: 2b45 86bd eabc d4bd c917 a53d 3609 bdbe
00000220: 70d5 013e 7436 04bd 2a6f 8a3c 82bf c2be
00000230: f526 393e ef18 24bd 2a0e 92bd 7abc d63c
00000240: 534d ebbd c04d 893d b417 923c 866a 83bd
00000250: 5e0f bcbd 4be4 fabd 8cb7 90bc c7b7 e0bb
00000260: c867 42bd 6db5 36be 8965 b8bd 5bd7 023d
00000270: bf82 f33c f4d7 aa3d b910 d63d c6d0 243e
00000280: cb55 413c 408e 6f3c 4fe8 a43d b903 adbe
00000290: db1c 2cbe b5ad 323d 972c 973c 7f35 10be
000002a0: 2152 933d e0b5 a4bd 51bc 953d 45d1 60be
000002b0: 4b23 28bc 172b d93d 132c d4bc 30e5 843d
000002c0: 4b08 7c3e d0ff 5cbd 8b69 093c 8844 b5bd
000002d0: 7eb1 59bd 9b87 81ba 5d30 39bd 55b1 dcbd
000002e0: f6ff bcbb 9ea7 ecbb 5bce b53c d920 41bd
000002f0: c1cf 0fbe c985 e6bd 8961 a2bd f123 c73d
00000300: 0328 adbd a2e7 043e 30e8 213e 1367 bd3d
00000310: 3032 5ebb 2e42 093c 03e2 4bbb ecdc e03c
00000320: 3951 a2bd c0c4 783d 9662 2e3d 56db 903d
00000330: 71ae 433e a638 a23d b789 8bbd 3e08 26be
00000340: 00d2 b03d 7412 b5be 65fe 243d 1a82 d8bc
00000350: 63c1 22be 5cc9 033a 961a d7bc f098 4fbd
00000360: e829 44bc 099d 9bbd 91e7 a63c c792 b4be
00000370: 2df5 173e e9c3 2bbd ab37 113d bcaf b8be
00000380: 9f78 353e 1e2b 5f3d 21b2 88bd afae ca3d
00000390: 37e9 d7bd 2cfd 06bb b8db 263d b2aa 863d
000003a0: c569 0c3d 0f0d 51bd f4ab fabd 4898 efbc
000003b0: c392 093c 4464 9abe d19e 1dbd 2d98 8fbd
000003c0: 9728 c1bd d257 073d c619 c83b 943e 713d
000003d0: 4cbc 29bd d679 833d 1354 173e a342 81be
000003e0: 0dfe 80bd 34a6 843d b102 dbbc 72b0 023e
000003f0: a119 083e b88e 213e c557 273d e8d7 4bbd

network.4.bias f4 [21]
0.18483834 0.22775501 0.25587147 0.22611354 0.13759267 0.2787762 0.27701533 0.26682118
0.21510795 0.21679641 0.22804515 0.27376732 0.25910792 0.1516623 0.12826289 0.1886953
0.17244335 0.16411397 0.18874627 0.22778812 0.15021552
00000000: 4346 3d3e 9c38 693e 9601 833e 4f8a 673e
00000010: 18e5 0c3e c1bb 8e3e f4d4 8d3e c99c 883e
00000020: 4245 5c3e e1ff 5d3e ab84 693e 3b2b 8c3e
00000030: cba9 843e 5d4d 1b3e 5957 033e 5739 413e
00000040: fd94 303e 7e0d 283e b446 413e 4a41 693e
00000050: 19d2 193e
