model/state_dict/my_pretrained3.pt (torch, 248410 bytes, 10 tensors)

cnn.0.weight f4 [5, 5, 3, 3]
-0.08143155 -0.031982705 -0.095753714 0.0026685868 -0.15242743 0.028371219 -0.120196104 -0.07188119
-0.06098961 -0.039297666 -0.115470044 -0.1423817 -0.09174553 -0.045018993 -0.21134578 0.18482675
-0.005093658 0.023741087 -0.044087667 -0.16257185 -0.121195376 -0.09830442 -0.09302404 -0.015549328
-0.2068438 -0.074254006 -0.116264954 -0.06969456 0.5075914 0.43705 0.024293598 -0.18172908
-0.010697858 -0.11749333 -0.008809733 0.38712782 0.24259077 -0.8020251 -0.41753748 0.053596042
0.13569939 0.21780284 0.10334412 0.1581986 -0.5706963 -0.2445153 -0.29792637 -0.06537456
-0.20194705 -0.23873456 -0.116244875 -0.1042171 -0.13389972 -0.1827345 -0.011610273 0.24836835
0.41598138 0.11283619 0.29208514 0.05716946 -0.12472902 0.26506263 -0.0075010206 -0.16568087
-0.66699374 -0.69162595 -0.37027624 -0.53265965 -0.10724241 -0.007459515 -0.57662636 -0.16405292
0.058169864 -0.24039279 0.058036048 -0.028106885 -0.11797584 0.06757385 0.029094642 -0.0350027
-0.027125562 0.13337862 0.17590864 0.021200135 0.19496648 0.25876635 0.21900319 0.17389078
0.043321803 0.28037474 -0.052970853 -0.043582898 -0.020201188 0.0698477 -0.03991197 -0.03658309
0.020355742 0.011503951 -0.030901382 -0.21393976 -0.102497056 -0.1061836 -0.03852485 -0.16111194
-0.098575115 -0.11890053 -0.032036684 -0.06849596 -0.033780046 -0.10295304 -0.047844063 -0.009250352
-0.13482226 0.028019544 0.010170421 -0.07230778 -0.08856158 0.25485235 -0.12527168 0.2908152
0.42860922 0.40833053 0.36111212 0.29452735 -0.12526348 -0.25951016 -0.32396203 -0.2180333
-0.75690806 -0.4710402 -0.5149395 -0.2512849 -0.41426706 0.10986595 -0.331433 -0.00043261738
-0.06227402 -0.028314851 0.06513676 -0.13411231 0.053646915 -0.0072927196 -0.029677043 -0.112463094
0.056345332 -0.0675106 0.015588668 0.060740884 -0.05890531 -0.11135129 -0.018672738 -0.0024125136
-0.0753054 0.0010308542 -0.2978994 -0.049638394 -0.058381416 0.09222708 0.05569346 0.050826192
-0.022719445 0.062563315 0.11047544 0.68134135 0.4267646 -0.036124565 -0.025772868 0.29450062
0.00010981793 0.2507637 -0.013537624 -0.0077255764 -0.23484674 -0.5693737 0.18485768 0.0741094
-0.2820409 0.08507082 -0.28916246 0.06537004 -0.07970843 0.021996113 -0.03901182 -0.00657874
-0.11552234 0.012853763 -0.050526675 -0.06545747 -0.024980579 -0.0817373 -0.13987894 0.054521766
-0.020188149 -0.093543656 -0.017678492 0.038005 -0.09776496 -0.07802815 0.06870972 0.079075485
-0.27305022 -0.013238671 0.08549341 0.027677119 -0.02098684 0.05390124 0.10970197 0.4987747
-0.090900265 0.7294175 0.16587113 0.23456427 0.29381612 0.36061606 0.06623854 -0.03326633
-0.311303 0.13232462 -0.16421862 -0.1933891 -0.35064852 -0.22429737 -0.2908416 0.15132204
0.15024015
00000000: 96c5 a6bd 4c00 03bd 861a c4bd 75e3 2e3b
00000010: f015 1cbe c26a e83c 6029 f6bd 7236 93bd
00000020: 3ed0 79bd 97f6 20bd 8f7b ecbd 82cc 11be
00000030: 15e5 bbbd d665 38bd 076b 58be 3943 3d3e
00000040: b3e8 a6bb ab7c c23c 4595 34bd 3c79 26be
00000050: 4835 f8bd d453 c9bd 6383 bebd 9cc2 7ebc
00000060: dcce 53be 7c12 98bd 521c eebd 05bc 8ebd
00000070: 83f1 013f 05c5 df3e 5e03 c73c 3017 3abe
00000080: 1246 2fbc 58a0 f0bd b356 10bc 9e35 c63e
00000090: b769 783e 8451 4dbf 79c7 d5be 8687 5b3d
000000a0: c8f4 0a3e b507 5f3e 15a6 d33d d0fe 213e
000000b0: 2719 12bf 3862 7abe ce89 98be 19e3 85bd
000000c0: 35cb 4ebe d576 74be cb11 eebd c66f d5bd
000000d0: 021d 09be c11e 3bbe 0439 3ebc 4654 7e3e
000000e0: 83fb d43e a916 e73d 2f8c 953e 862a 6a3d
000000f0: ee71 ffbd 4ab6 873e 1fcb f5bb 3fa8 29be
00000100: 1ac0 2abf 660e 31bf d994 bdbe 625c 08bf
00000110: e9a1 dbbd f26e f4bb c99d 13bf 7dfd 27be
00000120: 8643 6e3d 8729 76be 35b7 6d3d 6940 e6bc
00000130: 519d f1bd 2964 8a3d e357 ee3c fe5e 0fbd
00000140: 6d36 debc 6894 083e 6521 343e e8ab ad3c
00000150: 4ba5 473e 067d 843e 5f42 603e 6d10 323e
00000160: 3472 313d 478d 8f3e f7f7 58bd fb83 32bd
00000170: f67c a5bc 500c 8f3d bc7a 23bd 26d8 15bd
00000180: 16c1 a63c 117b 3c3c e524 fdbc 0613 5bbe
00000190: fae9 d1bd ca76 d9bd 3ccc 1dbd 87fa 24be
000001a0: c0e1 c9bd 1f82 f3bd e638 03bd 9c47 8cbd
000001b0: f25c 0abd 0bd9 d2bd 23f8 43bd ca8e 17bc
000001c0: d90e 0abe 3e89 e53c d6a1 263c 1a16 94bd
000001d0: c65f b5bd 027c 823e 3847 00be bbe5 943e
000001e0: ab72 db3e b310 d13e b0e3 b83e 4acc 963e
000001f0: 1245 00be 84de 84be 5ade a5be 1f44 5fbe
00000200: bac4 41bf 2e2c f1be 13d3 03bf 6aa8 80be
00000210: d01a d4be 6601 e13d 96b1 a9be ecd0 e2b9
00000220: 0b13 7fbd 8cf4 e7bc 6c66 853d bd54 09be
00000230: debc 5b3d c4f7 eebb 451d f3bc 0d53 e6bd
00000240: 5dca 663d ff42 8abd 9d67 7f3c 6fcb 783d
00000250: b246 71bd 250c e4bd 92f7 98bc 431b 1ebb
00000260: b839 9abd ba1d 873a 4586 98be a151 4bbd
00000270: 5a21 6fbd 8de1 bc3d d31e 643d 202f 503d
00000280: 211e babc 3221 803d f340 e23d 636c 2e3f
00000290: e480 da3e 5af7 13bd 9f21 d3bc c9c8 963e
000002a0: 0d4e e638 1a64 803e e9cc 5dbc d526 fdbb
000002b0: aa7b 70be 7ac2 11bf 554b 3d3e abc6 973d
000002c0: aa67 90be 9c39 ae3d 1a0d 94be bae0 853d
000002d0: 2c3e a3bd 3131 b43c dcca 1fbd 7992 d7bb
000002e0: fa96 ecbd 9798 523c 0ff5 4ebd 910e 86bd
000002f0: 12a4 ccbc e365 a7bd 6d3c 0fbe 3752 5f3d
00000300: 9e61 a5bc d193 bfbd 7cd2 90bc 22ab 1b3d
00000310: ff38 c8bd 39cd 9fbd afb7 8c3d 54f2 a13d
00000320: 3dcd 8bbe 03e7 58bc 2b17 af3d 20bb e23c
00000330: 98ec abbc 8cc7 5c3d 6dab e03d 665f ff3e
00000340: eb29 babd 1bbb 3a3f 1fda 293e 9e31 703e
00000350: 116f 963e aba2 b83e 12a8 873d 4642 08bd
00000360: 1b63 9fbe 1b80 073e ed28 28be cb07 46be
00000370: 3488 b3be 36ae 65be 31e9 94be 2af4 1a3e
00000380: 8ed8 193e

cnn.0.bias f4 [5]
0.04558681 -0.012277729 -0.059209324 -0.10196319 0.021805724
00000000: 3cb9 3a3d 8728 49bc 7a85 72bd 14d2 d0bd
00000010: eba1 b23c

cnn.2.weight f4 [5, 5, 3, 3]
-0.10681571 -0.31278142 0.058072876 0.03789881 -0.011846779 0.097292304 0.3571472 -0.21166822
-0.031154469 0.024188163 -0.21425927 0.016957225 -0.35058984 -0.23812479 0.045499988 -0.14668058
-0.03741883 0.103550754 -0.020831935 0.46411285 0.23775934 0.163367 0.24735385 -0.12795648
-0.14811337 0.28504318 -0.057953116 0.27831855 -0.1376063 -0.36176476 0.06428885 0.060523532
0.0053017377 0.2547813 -0.057790145 -0.059760462 0.043894585 0.30357838 0.059293374 0.09212144
0.06640631 -0.028481968 -0.2187828 0.17897859 -0.052057445 -0.12198684 0.13657123 -0.11110846
-0.2583875 -0.034496818 -0.038201973 -0.049451504 -0.3569057 0.0672928 -0.034300257 -0.0015004324
-0.3461674 0.023497665 -0.06642401 0.19664884 0.19944315 0.002367193 0.036167588 0.22635315
-0.16572936 0.117183834 -0.074723035 -0.07053993 0.1342165 -0.045483053 -0.16457036 0.11878677
0.1415141 0.0047279326 0.069779426 -0.15692568 -0.23976924 -0.101292305 -0.2974452 -0.19695958
-0.09068986 0.06362173 -0.023308966 0.20206498 -0.07090966 -0.2443024 0.12259166 -0.07724876
-0.23306978 0.07510439 -0.12900545 0.585061 -0.27323592 0.1047665 -0.28440037 -0.05005763
-0.18508364 0.2096605 0.43211693 0.42295432 -0.37118185 0.12787229 0.16209763 -0.20356672
-0.1505304 0.115385845 0.08548923 -0.07699949 -0.06694407 -0.2054241 -0.32514971 -0.012892612
0.36798465 0.24815303 0.19468516 0.18263847 -0.2369973 -0.05572335 -0.033900708 0.04329187
-0.10540229 0.18139066 -0.0910338 0.034331135 0.3362956 0.08131586 0.15504843 -0.32980174
-0.3739265 0.05764565 0.26885206 0.17909694 -0.09272992 -0.006383963 -0.05003053 -0.12062291
-0.003281103 0.11607598 -0.016929882 0.16745712 0.2548032 -0.012853908 -0.20389722 0.10346492
0.0889368 -0.13743445 -0.041245203 0.2409857 0.48262185 0.073057115 0.28402165 0.10530988
-0.08388918 0.20147793 -0.05602684 0.13214958 0.12386182 0.23128277 0.13300855 0.2126566
0.0064128 0.06484655 -0.039305538 0.10816263 -0.11389741 -0.1558994 0.35708556 0.16481772
0.01988717 -0.04233867 -0.09400117 -0.14314264 0.042719234 0.006394692 -0.19150895 0.15505603
-0.15149947 0.029633181 -0.1395407 -0.026805313 -0.07679562 0.26045296 0.122186646 -0.10746124
-0.37641168 -0.3285046 -0.015139857 0.08681652 0.25116012 -0.07214907 -0.14652647 0.17877676
0.017467057 -0.1734253 -0.13679442 -0.044582013 -0.16670313 -0.005841624 -0.10848062 -0.19421539
-0.06044756 0.06220146 -0.002321243 0.21393505 0.08836904 0.32260743 0.21390352 0.05991811
-0.17685442 0.16012903 0.007175999 0.035697073 -0.19073376 -0.13985157 0.17630193 0.33207625
0.045563634 -0.29224998 0.028839217 -0.12840441 0.060796607 0.1016045 -0.13583416 0.41488612
0.031101465
00000000: 32c2 dabd e324 a0be d3dd 6d3d c83b 1b3d
00000010: fe18 42bc 3041 c73d ffdb b63e 8ebf 58be
00000020: a837 ffbc 4126 c63c c866 5bbe e1e9 8a3c
00000030: 8380 b3be fcd6 73be 325e 3a3d 6f33 16be
00000040: 7d44 19bd 6b12 d43d bca7 aabc 33a0 ed3e
00000050: 2f77 733e ae49 273e 544a 7d3e 0607 03be
00000060: 08ab 17be 2ef1 913e 3f60 6dbd c57f 8e3e
00000070: aae8 0cbe 3b39 b9be dfa9 833d 86e7 773d
00000080: 33ba ad3b b272 823e 5cb5 6cbd 63c7 74bd
00000090: cfca 333d a06e 9b3e 9cdd 723d 2aaa bc3d
000000a0: 0800 883d 0453 e9bc 9908 60be 2a46 373e
000000b0: 303a 55bd 3dd4 f9bd 54d9 0b3e d58c e3bd
000000c0: 5e4b 84be 894c 0dbd ac79 1cbd a98d 4abd
000000d0: 58bc b6be cfd0 893d 6d7e 0cbd 28aa c4ba
000000e0: da3c b1be 2d7e c03c 5009 88bd 505e 493e
000000f0: d33a 4c3e e922 1b3b 7724 143d 1fc9 673e
00000100: f5b4 29be 14fe ef3d 6408 99bd 3d77 90bd
00000110: 0d70 093e 704c 3abd 2285 28be 7a46 f33d
00000120: 12e9 103e c6ec 9a3b 84e8 8e3d 20b1 20be
00000130: 1186 75be 5772 cfbd bd4a 98be c6af 49be
00000140: 9bbb b9bd 1c4c 823d 72f2 bebc 1fea 4e3e
00000150: 1539 91bd 692a 7abe 5611 fb3d 9934 9ebd
00000160: d8a9 6ebe 55d0 993d 011a 04be 8fc6 153f
00000170: 94e5 8bbe d28f d63d ed9c 91be 3b09 4dbd
00000180: 9186 3dbe 3eb1 563e 6e3e dd3e 788d d83e
00000190: 8c0b bebe f4f0 023e ecfc 253e cb73 50be
000001a0: a424 1abe 6a4f ec3d fa14 af3d e9b1 9dbd
000001b0: f919 89bd b25a 52be 067a a6be 893b 53bc
000001c0: 7c68 bc3e d41b 7e3e 8c5b 473e 9405 3b3e
000001d0: 6caf 72be 2b3e 64bd 78db 0abd d152 313d
000001e0: 28dd d7bd 79be 393e ee6f babd ce9e 0c3d
000001f0: f02e ac3e ee88 a63d 04c5 1e3e c6db a8be
00000200: 4b73 bfbe d81d 6c3d faa6 893e 3065 373e
00000210: 2fe9 bdbd 9030 d1bb d0ec 4cbd 2509 f7bd
00000220: c607 57bb 3eb9 ed3d 89b0 8abc e179 2b3e
00000230: 9175 823e 3399 52bc 6fca 50be 6ae5 d33d
00000240: 7f24 b63d 9ebb 0cbe bbf0 28bd f5c4 763e
00000250: 361a f73e f89e 953d 496b 913e b5ac d73d
00000260: 17ce abbd 3b50 4e3e 667c 65bd 3852 073e
00000270: 44ab fd3d 64d5 6c3e 6533 083e a7c2 593e
00000280: 7722 d23b 45ce 843d d8fe 20bd 5e84 dd3d
00000290: 0c43 e9bd 18a4 1fbe ebd3 b63e fac5 283e
000002a0: 6bea a23c 506b 2dbd af83 c0bd fc93 12be
000002b0: 5dfa 2e3d 918a d13b ec1a 44be 02c7 1e3e
000002c0: ad22 1bbe 49c1 f23c c2e3 0ebe d196 dbbc
000002d0: 0647 9dbd 175a 853e fe3c fa3d a314 dcbd
000002e0: 08b9 c0be c131 a8be 2a0d 78bc dccc b13d
000002f0: 0f98 803e e4c2 93bd 090b 16be 4111 373e
00000300: 1317 8f3c 6796 31be d613 0cbe a19b 36bd
00000310: 3ab4 2abe 186b bfbb 162b debd 66e0 46be
00000320: dc97 77bd f5c6 7e3d ff1f 18bb ca11 5b3e
00000330: d4fa b43d cd2c a53e 8609 5b3e b16c 753d
00000340: 5319 35be ddf8 233e a524 eb3b 1837 123d
00000350: b64f 43be 4035 0fbe 7e88 343e e605 aa3e
00000360: efa0 3a3d caa1 95be 3940 ec3c 727c 03be
00000370: dd05 793d 0516 d03d 1c18 0bbe f46b d43e
00000380: 80c8 fe3c

cnn.2.bias f4 [5]
-0.040591333 -0.02870329 -0.18273759 -0.014547079 -0.06774654
00000000: 1943 26bd 2923 ebbc 901f 3bbe df56 6ebc
00000010: b3be 8abd

network.0.weight f4 [120, 405]
0.087649986 0.0614867 -0.20504242 -0.101863325 -0.18595625 -0.033208035 -0.1145308 0.033716608
-0.02599114 0.24410897 -0.107933484 0.1584822 0.040381655 -0.07351442 -0.08873616 0.051035453
-0.059497535 -0.09282133 -0.13338712 -0.07500992 -0.05020792 -0.06129215 -0.23712066 0.015097886
-0.20467938 -0.16451773 -0.05776863 -0.11679055 0.045151975 -0.10668995 -0.109106705 -0.20337322
-0.2747684 0.3638453 -0.32394877 -0.22233127 0.030478135 -0.07797062 -0.047678612 -0.21653849
0.021201922 0.28968102 0.05658781 -0.14414014 -0.16896503 -0.06954565 -0.25691828 0.016061978
-0.14096521 -0.081763454 -0.13928111 0.2043143 -0.1984312 -0.18263446 0.06720612 0.0098169595
0.18392333 -0.09351249 0.012764872 -0.21368761 0.03642716 -0.101900265 0.019248495 -0.13061027
-0.009661695 -0.077842355 -0.02542936 -0.02897181 -0.07738097 -0.1364697 -0.011016447 -0.08086475
-0.0153081985 -0.18511921 0.14330432 -0.048581176 -0.017342344 -0.12294406 0.115875475 -0.041603703
0.102673024 -0.30077663 -0.14110541 -0.0013317296 0.0455155 0.047516316 -0.047019567 0.2428624
-0.02259226 0.18186778 -0.13735473 0.0059149535 -0.044545155 -0.09592096 -0.022479657 0.09603525
-0.12176008 -0.09067316 -0.060569774 -0.15142938 0.03508995 0.062380854 0.1095569 -0.06420193
-0.31823725 0.02473119 -0.05978658 0.037579965 0.14972852 -0.088811375 0.018153634 -0.0785169
-0.23019767 -0.39075267 -0.39778894 -0.2263763 0.056833506 0.18617047 -0.1656517 -0.080369346
0.17007253 -0.302042 -0.30184114 -0.16647393 0.0544302 0.36171687 0.079240896 -0.22363919
-0.1860151 0.19624919 0.0069565005 0.14950454 -0.07101135 -0.047742248 0.08821065 -0.09674659
-0.20940076 -0.05467823 -0.10345721 0.028944267 -0.24493657 -0.13373616 0.012351186 -0.2617154
-0.15292607 0.051544115 -0.17539036 -0.01601795 -0.15136069 -0.23320763 -0.014236337 0.022993825
0.06402494 -0.18045561 -0.0144129135 -0.07160746 -0.20669466 -0.32385924 -0.14446235 -0.09065209
-0.17132255 0.020928284 0.21695161 -0.10096052 0.11619909 0.04752243 0.03874648 0.1628043
0.17613825 0.04553837 0.081443764 0.08850026 0.057827957 -0.18868786 -0.07131815 0.025215788
-0.1688812 -0.08321079 -0.0089796 -0.04414264 -0.011206078 -0.057049334 -0.18490216 -0.00759353
-0.12454425 0.07449706 0.0070737284 0.14130151 0.013730755 0.111436196 0.014732684 -0.33561808
0.02744271 0.35248485 -0.21992058 -0.0707857 -0.028676866 0.32608786 0.1327197 0.08776383
-0.020476967 -0.33428648 -0.16064927 -0.463649 -0.060488727 -0.12456174 -0.067346714 -0.01745466
-0.038275983 0.019570652 0.0611756 0.059956778 -0.09740356 0.10975476 -0.05655165 -0.2040768
-0.013947564 0.09751072 -0.11495753 -0.061666355 -0.33027548 -0.040278327 0.056462888 -0.087027304
-0.4208477 0.011336981 -0.21722049 -0.045204073 -0.09061026 -0.08540039 -0.2388456 0.028651584
-0.052353285 -0.040737864 0.01998378 -0.1587789 -0.04852191 -0.07514174 -0.15673535 -0.09791396
0.08913926 0.060668066 0.31014276 -0.112760015 -0.0937249 0.043790948 0.08509196 0.18342876
-0.011228579 0.010288907 -0.050651215 -0.08919448 0.018088728 0.061629325 -0.02009737 0.15875296
00000000: d681 b33d 7ad9 7b3d a4f6 51be b89d d0bd
00000010: 516b 3ebe 2605 08bd 208f eabd 6d1a 0a3d
00000020: 5feb d4bc b4f7 793e 3b0c ddbd 2849 223e
00000030: 3c67 253d ba8e 96bd 4ebb b5bd 8d0a 513d
00000040: b0b3 73bd 1c19 bebd a296 08be cd9e 99bd
00000050: d2a6 4dbd 7a0d 7bbd c2cf 72be 205d 773c
00000060: 7997 51be 5677 28be cd9e 6cbd e22f efbd
00000070: 47f1 383d 4380 dabd 5673 dfbd 1241 50be
00000080: 72ae 8cbe ee49 ba3e 9ddc a5be cfaa 63be
00000090: 48ad f93c 0faf 9fbd a64a 43bd 44bc 5dbe
000000a0: a7af ad3c 1251 943e 9fc8 673d 7999 13be
000000b0: 2b05 2dbe f36d 8ebd cb8a 83be 6994 833c
000000c0: 2f59 10be 9973 a7bd b59f 0ebe c537 513e
000000d0: 8c31 4bbe 8704 3bbe 5da3 893d 50d7 203c
000000e0: 6656 3c3e 7a83 bfbd c123 513c edd0 5abe
000000f0: a534 153d 16b1 d0bd 05af 9d3c b3be 05be
00000100: 164c 1ebc d06b 9fbd 3c51 d0bc 4a56 edbc
00000110: ea79 9ebd b7be 0bbe 547e 34bc 6b9c a5bd
00000120: 3dcf 7abc e48f 3dbe 5ebe 123e 0efd 46bd
00000130: 8811 8ebc 18ca fbbd 1f50 ed3d a568 2abd
00000140: 3c46 d23d 65ff 99be f07d 10be 6e8d aeba
00000150: 766e 3a3d 78a0 423d 9797 40bd ecb0 783e
00000160: 6713 b9bc 8c3b 3a3e b8a6 0cbe 3ad2 c13b
00000170: fb74 36bd 3572 c4bd 4227 b8bc 21ae c43d
00000180: 595d f9bd dab2 b9bd 0318 78bd 4e10 1bbe
00000190: 7bba 0f3d 1183 7f3d 5e5f e03d 4d7c 83bd
000001a0: feef a2be 1199 ca3c c6e2 74bd 73ed 193d
000001b0: 6f52 193e bde2 b5bd eeb6 943c 78cd a0bd
000001c0: f0b8 6bbe bc10 c8be feaa cbbe 30cf 67be
000001d0: 40ca 683d 79a3 3e3e 99a0 29be af98 a4bd
000001e0: 7e27 2e3e 40a5 9abe ec8a 9abe 2478 2abe
000001f0: 34f2 5e3d f432 b93e 0d49 a23d ac01 65be
00000200: be7a 3ebe 8cf5 483e 5bf3 e33b b817 193e
00000210: 666e 91bd 608d 43bd c9a7 b43d 1423 c6bd
00000220: 276d 56be 48f6 5fbd 60e1 d3bd 871c ed3c
00000230: a7d0 7abe 22f2 08be a15c 4a3c 90ff 85be
00000240: a798 1cbe ec1f 533d 8899 33be 1338 83bc
00000250: 4cfe 1abe fbcd 6ebe 863f 69bc 8c5d bc3c
00000260: 821f 833d 5bc9 38be 2424 6cbc efa6 92bd
00000270: c4a7 53be e1d0 a5be f0ed 13be cea7 b9bd
00000280: 2e6f 2fbe cb71 ab3c 9028 5e3e 64c4 cebd
00000290: caf9 ed3d e1a6 423d a1b4 1e3d 2cb6 263e
000002a0: 965d 343e 7186 3a3d fdcb a63d a03f b53d
000002b0: 02dd 6c3d 6437 41be 400f 92bd 5791 ce3c
000002c0: 31ef 2cbe 6b6a aabd 2c1f 13bc eace 34bd
000002d0: b399 37bc 90ac 69bd fe56 3dbe 26d3 f8bb
000002e0: 0e11 ffbd ea91 983d bcca e73b 58b1 103e
000002f0: f6f6 603c a938 e43d 5b61 713c 22d6 abbe
00000300: 89cf e03c e578 b43e dc32 61be 18f8 90bd
00000310: bfeb eabc fdf4 a63e ace7 073e 86bd b33d
00000320: 50bf a7bc 9927 abbe 3e81 24be 6763 edbe
00000330: 07c3 77bd 3a1a ffbd 13ed 89bd 13fd 8ebc
00000340: 47c7 1cbd a252 a03c 4493 7a3d 3d95 753d
00000350: 857b c7bd 1bc7 e03d b4a2 67bd 82f9 50be
00000360: 5384 64bc b3b3 c73d da6e ebbd dc95 7cbd
00000370: de19 a9be e3fa 24bd a145 673d 5f3b b2bd
00000380: 5a79 d7be bfbe 393c 0c6f 5ebe e827 39bd
00000390: df91 b9bd 66e6 aebd f193 74be bab6 ea3c
000003a0: 6670 56bd bfdc 26bd 06b5 a33c f096 22be
000003b0: e9be 46bd eae3 99bd 3b7f 20be 1d87 c8bd
000003c0: a58e b63d 147f 783d 08cb 9e3e b9ee e6bd
000003d0: d7f2 bfbd 235e 333d b244 ae3d c0d4 3b3e
000003e0: 13f8 37bc ce92 283c a677 4fbd 98ab b6bd
000003f0: d02e 943c 086f 7c3d 3da3 a4bc 2390 223e

network.0.bias f4 [120]
-0.091921136 -0.08516411 -0.023450296 -0.03187282 -0.057833973 -0.0487088 -0.038492996 -0.045405
-0.07361027 -0.029669287 -0.020426428 -0.05129813 -0.050448705 -0.18608038 -0.06348407 0.15039513
-0.0810742 -0.12478032 -0.23568806 0.17766288 -0.018595388 -0.027385242 0.061067242 -0.104267165
0.031025622 -0.039376635 0.005304764 0.058189604 -0.008508757 0.10695876 -0.1902099 0.0028804392
-0.0043205186 -0.10505754 -0.09849372 -0.00415936 -0.042870678 -0.20015576 -0.087565355 -0.21159734
-0.23881334 -0.0042567956 0.021307364 -0.075669765 -0.07026753 -0.02032298 -0.09067035 -0.08624441
-0.04879166 -0.11586479 -0.14584821 -0.14087988 -0.04976975 0.113861285 0.06256307 -0.063428484
-0.14828497 -0.08114141 -0.027155366 -0.12909798 -0.17589137 0.0025517526 0.020586118 0.015518311
-0.07434378 -0.030472577 0.10914443 -0.1265668 -0.044701625 -0.058190696 -0.16668664 -0.22080153
-0.28553486 -0.05231207 0.02048491 -0.18573439 0.006570883 -0.18140222 -0.03278874 0.048868287
-0.11436508 0.15614247 0.07334279 -0.020855295 0.20672563 0.027957449 -0.09981726 -0.055290222
-0.13645087 -0.042133212 -0.033241216 -0.05168531 -0.07388604 -0.19220848 -0.2856384 -0.08253309
0.0034201196 -0.0007468399 0.0015056154 -0.031749308 -0.045531157 -0.16011043 0.10060632 -0.05556302
0.013144827 -0.09252948 -0.020815033 0.11656316 -0.22241582 -0.06542464 -0.09259074 -0.032118738
-0.06477235 -0.12018465 0.10281581 0.055994004 -0.0004051101 -0.061139178 -0.15291974 -0.18012999
00000000: 2641 bcbd 856a aebd d61a c0bc 138d 02bd
00000010: 51e3 6cbd e182 47bd d5aa 1dbd 98fa 39bd
00000020: fbc0 96bd 010d f3bc 5355 a7bc fd1d 52bd
00000030: 4da3 4ebd db8b 3ebe f003 82bd 2e01 1a3e
00000040: 3b0a a6bd d38c ffbd 3658 71be 42ed 353e
00000050: 5b55 98bc 0457 e0bc a521 7a3d 068a d5bd
00000060: 7229 fe3c 6549 21bd 96d3 ad3b 3958 6e3d
00000070: 5068 0bbc 320d db3d 62c6 42be c0c5 3c3b
00000080: 2393 8dbb 6828 d7bd 13b7 c9bd 3e4b 88bb
00000090: 2a99 2fbd a2f5 4cbe 7755 b3bd f9ac 58be
000000a0: 7c8b 74be 977c 8bbb c88c ae3c c0f8 9abd
000000b0: 6ce8 8fbd 617c a6bc 60b1 b9bd e9a0 b0bd
000000c0: c4d9 47bd 854a edbd 3c59 15be d142 10be
000000d0: 5edb 4bbd 1b30 e93d 1121 803d cbe6 81bd
000000e0: 04d8 17be 782d a6bd ee74 debc 4332 04be
000000f0: de1c 34be 4e3b 273b 38a4 a83c 8440 7e3c
00000100: 8d41 98bd a0a1 f9bc 1d87 df3d ba9a 01be
00000110: 0d19 37bd 5e59 6ebd e7af 2abe cc19 62be
00000120: a031 92be 2e45 56bd f8cf a73c 2831 3ebe
00000130: 9050 d73b 81c1 39be 7c4d 06bd 1d2a 483d
00000140: 3d38 eabd d0e3 1f3e bf34 963d b9d8 aabc
00000150: e2af 533e 0507 e53c fe6c ccbd 0078 62bd
00000160: c7b9 0bbe e093 2cbd f127 08bd fab3 53bd
00000170: 9051 97bd 4dd2 44be 323f 92be 1c07 a9bd
00000180: 1624 603b 94c7 43ba 1258 c53a 900b 02bd
00000190: e17e 3abd fdf3 23be b00a ce3d 0d96 63bd
000001a0: 675d 573c 1980 bdbd 4a84 aabc abb8 ee3d
000001b0: f9c0 63be 5bfd 85bd 37a0 bdbd f08e 03bd
000001c0: 5ea7 84bd 5f23 f6bd 1891 d23d f859 653d
000001d0: f564 d4b9 136d 7abd fe96 1cbe ff73 38be

network.2.weight f4 [84, 120]
-0.07877065 -0.04049361 -0.0876949 -0.06394532 0.06301693 0.089060545 0.004834838 -0.04777717
0.0013851497 -0.012734473 0.070737004 -0.023778781 0.016212491 0.024130845 -0.029507948 -0.08001856
-0.073890835 -0.06446717 -0.08993321 -0.056929864 0.0170058 -0.07583205 -0.096107125 -0.065734096
0.011154692 0.057733655 -0.09899867 0.031287264 0.013225004 0.005738143 -0.03625785 -0.012341265
-0.009643475 -0.0844306 -0.0213878 -0.020102 -0.01946603 0.034241203 0.048714884 -0.019026255
0.03899771 0.032657374 -0.10245463 0.022481665 0.07280625 -0.025928741 -0.0002674209 -0.100820504
0.080144726 -0.06676837 0.06399574 -0.06622368 0.06294207 -0.11178324 0.015596321 -0.11123175
0.07197695 -0.06267662 -0.038397986 -0.04394456 0.0556752 0.027789328 -0.08533323 -0.010350219
0.010300133 -0.018018013 0.04193478 -0.005306902 -0.078923464 -0.07333744 -0.014228865 0.0421703
0.0060853143 -0.059210546 0.017388634 0.039733637 2.1965872e-05 0.023765368 0.03599061 -0.038300954
0.032597274 -0.03933895 -0.08162583 -0.03141342 0.06159283 -0.09875268 -0.040085405 -0.0452755
-0.029721186 -0.02981979 -0.006383561 -0.051735297 -0.07843761 -0.0417868 -0.080091 0.004930909
0.060641337 -0.09836618 -0.07343044 0.045269903 0.0005227617 -0.083501436 -0.025813647 0.012214096
-0.059737593 0.051436014 0.026305765 0.041411627 0.05301352 0.039548114 -0.02008203 -0.100505024
-0.037266016 0.059891123 0.043120656 0.019824827 -0.08492255 -0.0034634129 0.08616858 -0.05650688
-0.043095555 -0.042643923 0.08314448 -0.1572836 0.014421923 -0.01658596 0.11711516 -0.4739386
-0.07615816 0.025257578 -0.23549859 -0.009496117 -0.088376746 0.13828348 0.1934398 -0.07909169
-0.017692298 -0.059398845 -0.00066430954 -0.76867247 -0.072611414 0.18550083 -0.0885569 0.0103699565
0.09209686 0.032359987 0.2231252 -0.3795339 0.0044209473 0.27000746 -0.02453969 -0.19844869
-0.05645224 -0.030306598 0.029983412 -0.01780631 0.07320878 -0.05548105 0.28382415 0.043350007
-0.027192647 -0.15776768 -0.3343404 0.002645982 0.03657684 0.085247256 0.06700625 0.23452199
0.06752023 -0.007003019 0.07012961 -0.13607323 0.25504738 -0.08795462 0.05751097 -0.097944334
-0.035408195 0.037843775 -0.037433546 -0.05214484 0.045057617 -0.023428867 0.24796572 0.013581581
-0.0063204975 -0.18149711 0.27100027 -0.07540979 0.15608339 -0.14255778 0.031711712 0.14474429
0.01251396 0.07115676 0.0031203248 -0.101427354 0.3140579 0.10761591 -0.06502769 -0.060908858
-0.1318362 -0.297588 -0.20023687 -0.13916855 -0.121106766 0.23404804 -0.029734876 0.02667663
-0.10248967 -0.064793825 -0.06021219 -0.112368084 -0.081211135 0.16608052 0.06992113 -0.015852109
0.030233888 -0.19154176 -0.05878976 0.008376972 0.069677785 -0.34857655 0.3039315 -0.120188855
-0.14871864 0.04383628 -0.047055893 0.1732881 -0.06164645 -0.067592256 -0.04026449 -0.5924137
0.08712052 0.05067845 -0.09425955 -0.6274193 -0.30872557 -0.06578232 -0.049288943 -0.3079537
-0.18835263 0.041939057 0.067926124 0.03783885 0.008952068 0.102783754 0.03088429 0.053468943
0.06929882 -0.12870821 0.22182518 0.017074486 -0.038518462 -0.22292556 -0.17981024 0.16215958
00000000: 8252 a1bd a1dc 25bd 6299 b3bd c4f5 82bd
00000010: 050f 813d 6065 b63d 906d 9e3b feb1 43bd
00000020: e98d b53a 40a4 50bc 90de 903d b8cb c2bc
00000030: 0fd0 843c 0dae c53c a7ba f1bc c5e0 a3bd
00000040: 1454 97bd 5d07 84bd e72e b8bd 4a2f 69bd
00000050: bf4f 8b3c d54d 9bbd d0d3 c4bd 999f 86bd
00000060: 2bc2 363c 207a 6c3d d1bf cabd 1327 003d
00000070: b0ad 583c 0807 bc3b 1c83 14bd 0433 4abc
00000080: aaff 1dbc f3e9 acbd 7835 afbc f3ac a4bc
00000090: 3977 9fbc 8140 0c3d 4289 473d f3dc 9bbc
000000a0: 10bc 1f3d bdc3 053d bcd3 d1bd 782b b83c
000000b0: 711b 953d 8368 d4bc a034 8cb9 fb7a cebd
000000c0: eb22 a43d dbbd 88bd 3310 833d 48a0 87bd
000000d0: c6e7 803d 9dee e4bd b687 7f3c 79cd e3bd
000000e0: a768 933d 9a5c 80bd 3547 1dbd 36ff 33bd
000000f0: ae0b 643d 72a6 e33c 30c3 aebd f793 29bc
00000100: e4c1 283c 839a 93bc cec3 2b3d 85e5 adbb
00000110: a0a2 a1bd f131 96bd 2f20 69bc c4ba 2c3d
00000120: 5167 c73b c286 72bd 9c72 8e3c bdbf 223d
00000130: 5a43 b837 97af c23c e46a 133d 76e1 1cbd
00000140: b884 053d e121 21bd 712b a7bd 5cab 00bd
00000150: c348 7c3d d83e cabd 9830 24bd cd72 39bd
00000160: d879 f3bc a248 f4bc 312d d1bb 64e8 53bd
00000170: e6a3 a0bd a328 2bbd c006 a4bd 7693 a13b
00000180: 0d63 783d 3574 c9bd b362 96bd ef6c 393d
00000190: f209 093a cd02 abbd 2477 d3bc a21d 483c
000001a0: 68af 74bd 92ae 523d 307f d73c 3d9f 293d
000001b0: b424 593d 34fd 213d 1283 a4bc 94d5 cdbd
000001c0: 40a4 18bd 6550 753d 499f 303d ad67 a23c
000001d0: e0eb adbd 6dfa 62bb 2779 b03d c273 67bd
000001e0: f784 30bd 65ab 2ebd a747 aa3d f40e 21be
000001f0: ee49 6c3c 47df 87bc 13da ef3d 15a8 f2be
00000200: cff8 9bbd fbe8 ce3c 8b26 71be 9a95 1bbc
00000210: defe b4bd 2f9a 0d3e 1515 463e d3fa a1bd
00000220: 70ef 90bc 344c 73bd 0f25 2eba b8c7 44bf
00000230: 4bb5 94bd eef3 3d3e 525d b5bd c0e6 293c
00000240: 479d bc3d e88b 043d ef7a 643e 4452 c2be
00000250: 98dd 903b 6b3e 8a3e 7607 c9bc 2236 4bbe
00000260: 773a 67bd 8b45 f8bc c69f f53c 8ade 91bc
00000270: 7cee 953d 1940 63bd 6651 913e c78f 313d
00000280: 1dc3 debc da8d 21be aa2e abbe 3668 2d3b
00000290: 99d1 153d 1d96 ae3d 933a 893d 8826 703e
000002a0: 0c48 8a3d 9579 e5bb 1da0 8f3d c856 0bbe
000002b0: 9295 823e 8d21 b4bd 9f90 6b3d 0a97 c8bd
000002c0: 2f08 11bd 1302 1b3d eb53 19bd d495 55bd
000002d0: 568e 383d e5ed bfbc baea 7d3e 4885 5e3c
000002e0: 2d1c cfbb 61da 39be 8cc0 8a3e 7370 9abd
000002f0: 53d4 1f3e abfa 11be 24e4 013d d937 143e
00000300: 5a07 4d3c a3ba 913d 5d7e 4c3b 25b9 cfbd
00000310: 32cc a03e bb65 dc3d 3d2d 85bd 917b 79bd
00000320: 1200 07be 745d 98be e50a 4dbe 3382 0ebe
00000330: d306 f8bd 4aaa 6f3e 8e96 f3bc f388 da3c
00000340: 1be6 d1bd a0b2 84bd 0fa1 76bd 3d21 e6bd
00000350: 0652 a6bd 0311 2a3e cf32 8f3d 48dc 81bc
00000360: 0fad f73c 8623 44be 88cd 70bd 913f 093c
00000370: 3ab3 8e3d a078 b2be e99c 9b3e 9325 f6bd
00000380: b349 18be ac8d 333d aebd 40bd 7072 313e
00000390: fd80 7cbd cf6d 8abd 61ec 24bd 6da8 17bf
000003a0: 3e6c b23d 3594 4f3d 270b c1bd 8d9e 20bf
000003b0: 4711 9ebe e2b8 86bd 34e3 49bd 1bac 9dbe
000003c0: 83df 40be 4ac8 2b3d da1c 8b3d e9fc 1a3d
000003d0: b2ab 123c 4a80 d23d 0d01 fd3c 4002 5b3d
000003e0: 8aec 8d3d 16cc 03be 2426 633e cbdf 8b3c
000003f0: 89c5 1dbd 9946 64be 2d20 38be 290d 263e

network.2.bias f4 [84]
-0.08784986 0.19463505 0.08868291 0.43828297 0.11865659 -0.1780748 0.0848034 -0.055608496
0.0050770706 -0.07810883 0.3003047 0.10193575 0.14564513 0.14945687 -0.060110163 -0.03089405
-0.017986542 0.2608598 -0.12854625 -0.12237554 -0.21885036 -0.09523389 0.15722221 0.15803179
-0.052222766 0.18917076 0.21499696 -0.08537946 -0.079790965 -0.04191512 0.18391432 0.12851101
-0.04508255 -0.14016253 -0.0899395 -0.12590064 0.391845 0.16909486 0.3141722 0.119361356
0.17702125 -0.13847603 0.14255565 0.117904074 -0.04506637 -0.0050484464 0.16078499 0.17383717
0.21102026 -0.11887401 0.031130543 0.22940716 0.1898794 -0.105180115 -0.08284832 0.23910064
0.047992006 -0.094786026 -0.14914413 -0.1034085 -0.04952286 0.13184357 0.24143136 0.13798782
0.14179659 -0.15249158 -0.055381205 0.21296097 0.12671185 0.071579635 -0.1289739 -0.18795705
0.05417062 0.10793485 0.13350464 -0.14821188 0.2992935 0.16380031 0.17117503 0.08035708
-0.027451841 0.34130403 0.07738585 -0.12991586
00000000: a1ea b3bd 694e 473e 639f b53d a066 e03e
00000010: 3a02 f33d 3e59 36be 68ad ad3d bcc5 63bd
00000020: 8e5d a63b 86f7 9fbd 8ac1 993e b1c3 d03d
00000030: ff23 153e 390b 193e 1336 76bd 8515 fdbc
00000040: 8358 93bc 6a8f 853e a1a1 03be 07a0 fabd
00000050: 4f1a 60be fc09 c3bd dcfe 203e 16d3 213e
00000060: 8ae7 55bd fbb5 413e 2a28 5c3e 6ddb aebd
00000070: 7269 a3bd 30af 2bbd 0954 3c3e 6498 033e
00000080: 7ba8 38bd c486 0fbe 3332 b8bd 19ec 00be
00000090: e89f c83e 3427 2d3e 2edb a03e ba73 f43d
000000a0: 0f45 353e a9cc 0dbe 1cfa 113e b177 f13d
000000b0: 8497 38bd 706d a5bb d2a4 243e 5f02 323e
000000c0: b215 583e 3874 f3bd 7b05 ff3c b6e9 6a3e
000000d0: bf6f 423e ac68 d7bd 61ac a9bd ccd6 743e
000000e0: 4493 443d 2d1f c2bd 3db9 18be d6c7 d3bd
000000f0: 7cd8 4abd 0002 073e c839 773e ae4c 0d3e
00000100: 2033 113e c126 1cbe 67d7 62bd 7112 5a3e
00000110: c0c0 013e 5898 923d bc11 04be d077 40be
00000120: 03e2 5d3d f20c dd3d 71b5 083e dbc4 17be
00000130: ff3c 993e 45bb 273e 8248 2f3e 4192 a43d
00000140: afe2 e0bc 67bf ae3e 797c 9e3d aa08 05be

network.4.weight f4 [21, 84]
0.106226824 -0.022282623 -0.1461126 0.057057668 0.02556415 -0.14206386 0.037427433 0.019965317
-0.089866996 0.036597572 0.16353717 -0.0910326 0.014022265 0.011960026 -0.029295672 0.04926083
-0.10380307 0.034476258 0.05322089 -0.040435858 -0.028013363 -0.02084506 -0.020842692 -0.11922795
0.018804273 -0.09672911 -0.050595783 0.058652114 -0.059950907 -0.0147731155 -0.016076881 0.13331254
-0.06668682 -0.16867144 0.091208145 -0.16139132 0.22351003 0.17621285 0.14557233 0.05450716
-0.093076415 -0.1099354 -0.019389179 -0.10587526 0.010908293 -0.16050838 0.05699516 -0.021671273
-0.04274665 -0.07799788 -0.18708463 0.10474739 -0.077593125 0.0936881 0.010595242 0.008940488
-0.084825054 -0.07994395 -0.055458777 -0.0772705 -0.06302527 -0.088819794 -0.05952177 0.11222528
0.19664945 -0.08102642 0.078263104 -0.047277324 -0.24767148 0.1750533 0.007054967 -0.13054027
0.0048364066 -0.08321585 0.32645816 0.008256231 0.09358134 -0.051971644 0.2150545 -0.023651557
-0.065889545 0.008563436 -0.08337058 0.005157361 0.107334845 0.003948041 -0.11948295 0.14939737
0.023235625 -0.07077189 0.14234313 -0.08918707 0.10309938 0.08388926 0.0912517 -0.07779614
-0.006912129 -0.004411555 0.07202262 -0.005811368 -0.017860442 -0.06762682 0.05123483 -0.05312845
-0.0069840625 0.05927775 0.06514041 0.05738651 0.0069704796 0.041222237 -0.09024007 0.035676006
-0.14616984 -0.05050631 0.010870913 0.089881 -0.05415708 0.042511996 -0.02631562 0.023489362
0.13968846 -0.07175318 0.27045444 -0.05697097 0.0124024255 0.0623298 -0.06289478 -0.14834376
0.06282499 0.16299912 0.0692186 -0.004592399 0.02735218 -0.04416952 -0.032323033 0.22924805
-0.073107965 0.01564007 -0.08201969 0.0117971515 -0.070668116 0.046236757 -0.08250027 -0.022889405
0.08613454 0.1027082 0.10324502 0.091721036 0.1472511 0.12896363 0.14032449 -0.048056826
-0.08745934 0.09551862 -0.09467355 0.06738816 0.08283634 -0.019485071 -0.027169066 0.035087734
0.06502393 -0.07580036 0.28438222 -0.044577572 -0.01767054 0.20596482 -0.09616127 0.03058983
0.06263049 -0.093167946 -0.052295215 0.14141026 -0.07625243 0.07423296 0.105757184 -0.036632866
0.0644471 -0.10169919 0.06082231 -0.15735687 0.001098942 0.016298532 -0.036643576 -0.025859196
-0.060757823 -0.04729881 -0.036099367 -0.046931148 -0.18504901 -0.09579943 0.114597015 -0.05213899
0.03779823 -0.05344404 0.09237471 0.011654813 0.0016593548 -0.04085004 0.06971945 0.078608006
-0.093020424 0.09734782 -0.06399274 -0.06230306 0.18283002 0.06266114 0.19379394 0.10224024
0.033908207 -0.017954318 0.03149109 -0.08924042 0.061871674 -0.08678585 0.032396197 0.0100033125
-0.04460076 -0.0481302 -0.115089424 0.13123742 0.0136869 -0.098591596 -0.05403232 0.08217291
-0.028959192 0.064091414 -0.037265208 0.084164195 0.08276042 0.08181759 -0.0010412416 -0.009205652
0.13640499 0.055689733 0.023518883 0.04713186 -0.22246638 0.059869435 -0.06505454 -0.12692264
-0.14824362 0.04487622 0.08121778 0.08825238 0.12837586 0.038260642 0.18232843 -0.17350884
0.099921905 0.049875323 -0.053016804 -0.0762321 0.00673111 0.038670238 -0.065717004 0.13314277
00000000: 738d d93d 0c8a b6bc 8b9e 15be 4db5 693d
00000010: e96b d13c 3079 11be 824d 193d 4e8e a33c
00000020: 300c b8bd 56e7 153d 4a76 273e 4d6f babd
00000030: a4bd 653c fcf3 433c 7afd efbc b9c5 493d
00000040: b496 d4bd fa36 0d3d 26fe 593d 12a0 25bd
00000050: 487c e5bc 42c3 aabc 4bbe aabc c92d f4bd
00000060: 6b0b 9a3c e919 c6bd 863d 4fbd 333d 703d
00000070: 158f 75bd f00a 72bc aab3 83bc 1583 083e
00000080: 1993 88bd 35b8 2cbe 56cb ba3d c443 25be
00000090: d0df 643e 2471 343e ea10 153e e642 5f3d
000000a0: d99e bebd d025 e1bd 0ed6 9ebc 21d5 d8bd
000000b0: b2b8 323c 4f5c 24be c273 693d f487 b1bc
000000c0: 1c17 2fbd 5abd 9fbd 1d93 3fbe cd85 d63d
000000d0: 25e9 9ebd 8cdf bf3d aa97 2d3c 207b 123c
000000e0: c2b8 adbd a7b9 a3bd be28 63bd ff3f 9ebd
000000f0: 6513 81bd 27e7 b5bd 19cd 73bd 5ed6 e53d
00000100: 795e 493e 2ef1 a5bd 6848 a03d dea5 41bd
00000110: 989d 7dbe 2c41 333e 5a2d e73b 59ac 05be
00000120: b87a 9e3b 126d aabd 8625 a73e 2545 073c
00000130: 93a7 bf3d 38e0 54bd 3f37 5c3e e9c0 c1bc
00000140: 19f1 86bd a74d 0c3c 32be aabd 14ff a83b
00000150: 5fd2 db3d 915e 813b 7ab3 f4bd a0fb 183e
00000160: a358 be3c daf0 90bd 66c2 113e b6a7 b6bd
00000170: c525 d33d 22ce ab3d 2ce2 ba3d 9553 9fbd
00000180: 247f e2bb ce8e 90bb 9880 933d 4a6d bebb
00000190: 1050 92bc ee7f 8abd 9ddb 513d 389d 59bd
000001a0: 90da e4bb 3acd 723d 5668 853d 1e0e 6b3d
000001b0: 9f68 e43b a6d8 283d c9cf b8bd 0121 123d
000001c0: 8cad 15be b4df 4ebd ea1b 323c 8813 b83d
000001d0: d0d3 5dbd 0f21 2e3d db93 d7bc c36c c03c
000001e0: 7e0a 0f3e 55f3 92bd 0179 8a3e 645a 69bd
000001f0: 8b33 4b3c 884d 7f3d face 80bd 6de7 17be
00000200: 63aa 803d 3ee9 263e 7bc2 8d3d d67b 96bb
00000210: ae11 e03c 19eb 34bd 2865 04bd 00c0 6a3e
00000220: a1b9 95bd 9b1f 803c f0f9 a7bd d748 413c
00000230: 72ba 90bd c162 3d3d e7f5 a8bd 9082 bbbc
00000240: 4e67 b03d ad58 d23d 2072 d33d 3dd8 bb3d
00000250: fec8 163e 0b0f 043e 39b1 0f3e 3cd7 44bd
00000260: e21d b3bd 449f c33d 35e4 c1bd ce02 8a3d
00000270: 19a6 a93d 289f 9fbc a991 debc 28b8 0f3d
00000280: 442b 853d 383d 9bbd 8c9a 913e f996 36bd
00000290: cfc1 90bc 71e8 523e 33f0 c4bd 8697 fa3c
000002a0: 6a44 803d d6ce bebd 8233 56bd dacd 103e
000002b0: 3c2a 9cbd 7307 983d 3997 d83d 580c 16bd
000002c0: d7fc 833d aa47 d0bd d120 793d 2922 21be
000002d0: 600a 903a 8084 853c 9317 16bd aad6 d3bc
000002e0: 32dd 78bd 66bc 41bd eedc 13bd e03a 40bd
000002f0: 7d7d 3dbe 7e32 c4bd d7b1 ea3d b28f 55bd
00000300: 51d2 1a3d 23e8 5abd f42e bd3d d4f3 3e3c
00000310: b57e d93a 5f52 27bd 12c9 8e3d 3cfd a03d
00000320: 7e81 bebd 4b5e c73d a00e 83bd 7e31 7fbd
00000330: cb37 3b3e 7c54 803d eb71 463e 5563 d13d
00000340: 55e3 0a3d ef14 93bc cdfc 003d aec3 b6bd
00000350: 276d 7d3d c8bc b1bd e0b1 043d efe4 233c
00000360: 49af 36bd 2c24 45bd 01b4 ebbd 1a63 063e
00000370: 053f 603c 64ea c9bd fe50 5dbd 454a a83d
00000380: d43b edbc 5c42 833d 67a3 18bd 475e ac3d
00000390: 4c7e a93d fb8f a73d 457a 88ba 4ed3 16bc
000003a0: c0ad 0b3e eb1a 643d acaa c03c 560d 413d
000003b0: 3ace 63be a739 753d 513b 85bd 02f8 01be
000003c0: 2dcd 17be 21d0 373d 8255 a63d aabd b43d
000003d0: f674 033e 31b7 1c3d 4eb4 3a3e 4dac 31be
000003e0: dba3 cc3d 114a 4c3d 2628 59bd 931f 9cbd
000003f0: a590 dc3b af64 1e3d a396 86bd 9456 083e

network.4.bias f4 [21]
0.20124325 0.10799748 0.2016856 0.15986459 0.21235585 0.14012702 0.2447705 0.15515895
0.16416053 0.17100075 0.21353841 0.15987948 0.21832536 0.2216436 0.18001276 0.2170553
0.15840599 0.19895856 0.20923415 0.18205437 0.1839013
00000000: b612 4e3e c82d dd3d ac86 4e3e 8bb3 233e
00000010: d073 593e 757d 0f3e 1ea5 7a3e fde1 1e3e
00000020: b319 283e d21a 2f3e d0a9 5a3e 72b7 233e
00000030: af90 5f3e 8af6 623e 4455 383e bf43 5e3e
00000040: 2e35 223e cbbb 4b3e 7a41 563e 766c 3a3e
00000050: 9f50 3c3e
