model/state_dict/my_pretrained2.pt (torch, 248410 bytes, 10 tensors)

cnn.0.weight f4 [5, 5, 3, 3]
0.17344773 0.0275442 -0.150385 0.1611509 0.17232655 -0.22784856 0.1849705 0.07418811
0.03577963 -0.0415323 0.08602201 0.098974265 0.0925581 0.061495423 0.036417782 0.051906116
0.12503332 -0.028076952 0.10701639 0.060836237 0.023032064 0.029581774 0.13994247 0.120085515
0.03356783 0.1496574 0.042298846 -0.026506009 0.0062092836 0.038498957 0.092028126 -0.09851549
0.07772336 -0.5104966 -0.2451097 -0.33175433 0.015049959 -0.16550958 -0.19334725 -0.0034130658
-0.5612769 -0.050957 -0.4925984 -0.3301272 -0.5816327 0.057539184 -0.029775107 -0.045329493
-0.099645674 0.054252878 -0.03855519 0.05558883 0.010989187 0.036183324 0.055031188 -0.052894242
0.010072436 0.018621294 0.022659529 0.031170622 0.0038681747 0.026988545 0.041148406 -0.019069085
0.1030582 -0.021542776 0.05615907 0.06702566 -0.013384771 -0.022669274 0.09448516 -0.07436918
0.19818394 0.03493462 -0.16845052 -0.15115029 0.20879467 -0.06016982 0.8857564 -0.058077227
-0.03653916 -0.23879488 -0.15126559 0.10291594 0.046779033 -0.28457066 0.016176602 -0.62125605
-0.13116412 0.018551063 0.051385477 -0.09069488 0.034336098 -0.068303816 0.01883955 -0.07740088
0.0071799443 -0.1536593 -0.10581038 -0.05840443 -0.13002796 -0.07506059 -0.21043174 -0.1677399
-0.17763098 -0.18526827 -0.18589772 -0.08215932 0.01540902 0.099509366 -0.0036189647 0.009950998
-0.09930748 0.109882034 -0.12331155 0.123819314 0.13443837 0.39144957 0.014900691 0.33620918
0.5784219 0.37269443 0.18264647 0.5222674 0.60755485 -0.1207771 -0.36406803 0.051934823
-0.24020092 -0.6818725 -0.31825504 -0.25441423 -0.61594886 -0.780579 0.28385597 0.1675324
-0.14362308 -0.09614505 -0.122407876 -0.21357942 0.004854332 -0.25127423 0.067465566 -0.05942904
-0.13098143 -0.18402165 0.0669275 -0.10555556 -0.09852734 0.06392089 -0.13808145 -0.21806349
-0.15024072 -0.0029712857 -0.042866718 -0.028207859 -0.1502862 0.014310781 -0.031930156 0.04351418
-0.11224093 0.061323214 0.138741 -0.029457023 0.016295968 0.50037354 0.009568572 0.050276425
-0.36596057 -0.02207284 -0.2344222 -0.33299038 -0.0910425 0.08106325 -1.2858129 0.16385534
-0.02397617 -0.3858727 -0.028588813 -0.33273023 -0.18078697 -0.19412273 0.009261222 0.10913843
-0.12337737 -0.034509372 -0.091041625 -0.2243907 0.07455321 0.01732659 0.10908498 -0.056532145
-0.16121466 -0.007846994 0.019114248 -0.19817147 -0.13976003 -0.13458459 -0.1711269 -0.1154233
-0.20979661 -0.14829266 -0.06542898 -0.08725022 0.05212456 -0.07134674 0.120949104 -0.1251517
0.1130363 -0.0927296 -0.27662066 0.0022822958 -0.14165308 -0.07598966 -0.027718086 -0.008714405
-0.2300209 -0.019583922 -0.12122296 -0.0772721 -0.0323133 -0.04457308 -0.038480736 -0.20200695
-0.08892794
00000000: 489c 313e 60a4 e13c 87fe 19be be04 253e
00000010: 5f76 303e 2251 69be e868 3d3e f0ef 973d
00000020: a98d 123d c61d 2abd 4f2c b03d 05b3 ca3d
00000030: 1a8f bd3d a0e2 7b3d d02a 153d 829b 543d
00000040: bc08 003e a301 e6bc 692b db3d 6b2f 793d
00000050: bdad bc3c 7a55 f23c 144d 0f3e 65ef f53d
00000060: 6c7e 093d ca3f 193e 8e41 2d3d 2123 d9bc
00000070: 3f77 cb3b 15b1 1d3d 3e79 bc3d 7dc2 c9bd
00000080: 6d2d 9f3d e8af 02bf 0afe 7abe b4db a9be
00000090: 1a94 763c 587b 29be d2fc 45be bead 5fbb
000000a0: d8af 0fbf 4ab8 50bd dc35 fcbe 6f06 a9be
000000b0: e1e5 14bf 35ae 6b3d edea f3bc 6bab 39bd
000000c0: 0813 ccbd 4438 5e3d 0cec 1dbd 1db1 633d
000000d0: fe0b 343c f734 143d 6268 613d a2a7 58bd
000000e0: dc06 253c af8b 983c 7aa0 b93c 8859 ff3c
000000f0: 3481 7d3b 1517 dd3c 3b8b 283d c536 9cbc
00000100: 2d10 d33d 7a7a b0bc 0e07 663d c044 893d
00000110: cc4b 5bbc eab4 b9bc 7081 c13d de4e 98bd
00000120: bbf0 4a3e 9b17 0f3d 4b7e 2cbe 24c7 1abe
00000130: 45ce 553e a174 76bd eec0 623f 63e2 6dbd
00000140: 16aa 15bd a586 74be 5ee5 1abe 98c5 d23d
00000150: 5f9b 3f3d 3fb3 91be cb84 843c a30a 1fbf
00000160: e34f 06be 66f8 973c 9479 523d 3dbe b9bd
00000170: 02a4 0c3d dfe2 8bbd 6655 9a3c 5a84 9ebd
00000180: bd45 eb3b dd58 1dbe 1db3 d8bd 7c39 6fbd
00000190: 0d26 05be 5eb9 99bd 6b7b 57be 02c4 2bbe
000001a0: e5e4 35be f7b6 3dbe f95b 3ebe 2543 a8bd
000001b0: 1d76 7c3c 91cb cb3d 272c 6dbb 8309 233c
000001c0: b861 cbbd d509 e13d c48a fcbd fb94 fd3d
000001d0: 36aa 093e 146c c83e 0722 743c 9c23 ac3e
000001e0: 7513 143f ced1 be3e ad07 3b3e 51b3 053f
000001f0: b788 1b3f fc59 f7bd 2067 babe 9cb9 543d
00000200: 3bf7 75be 328f 2ebf 53f2 a2be 9542 82be
00000210: d3ae 1dbf 06d4 47bf 9255 913e 9d8d 2b3e
00000220: ee11 13be b2e7 c4bd fbb0 fabd 90b4 5abe
00000230: 1711 9f3b 04a7 80be 632b 8a3d dd6b 73bd
00000240: ff1f 06be 2c70 3cbe 4911 893d 832d d8bd
00000250: b4c8 c9bd f5e8 823d 3965 0dbe 094c 5fbe
00000260: b4d8 19be e7b9 42bb 0395 2fbd 2b14 e7bc
00000270: a0e4 19be c477 6a3c 32c9 02bd ed3b 323d
00000280: 93de e5bd 0d2e 7b3d 1f12 0e3e db4f f1bc
00000290: 1f7f 853c 7b18 003f 80c5 1c3c a7ee 4d3d
000002a0: 2f5f bbbe 1ad2 b4bc 600c 70be b77d aabe
000002b0: 7e74 babd 7d04 a63d 8495 a4bf b2c9 273e
000002c0: ac69 c4bc 1b91 c5be 1633 eabc 9e5b aabe
000002d0: 3820 39be 1cc8 46be 61bc 173c f883 df3d
000002e0: 46ad fcbd b359 0dbd 0874 babd adc6 65be
000002f0: 5aaf 983d 7ef0 8d3c f267 df3d 408e 67bd
00000300: 7515 25be ae90 00bc 7c95 9c3c 76ed 4abe
00000310: 411d 0fbe 8bd0 09be e43b 2fbe 0d63 ecbd
00000320: ecd4 56be 08da 17be a1ff 85bd 3eb0 b2bd
00000330: 9080 553d 3d1e 92bd 2ab4 f73d c427 00be
00000340: 937f e73d 04e9 bdbd 39a1 8dbe 9292 153b
00000350: 810d 11be 78a0 9bbd 0a11 e3bc ddc6 0ebc
00000360: 998a 6bbe 766e a0bc be43 f8bd d640 9ebd
00000370: f35a 04bd 4392 36bd fa9d 1dbd e9da 4ebe
00000380: da1f b6bd

cnn.0.bias f4 [5]
-0.19817887 -0.0006324387 -0.019929871 -0.018105835 -0.20571056
00000000: 67ef 4abe 3eca 25ba f843 a3bc b052 94bc
00000010: caa5 52be

cnn.2.weight f4 [5, 5, 3, 3]
-0.0018359039 0.03399685 -0.014306017 0.15597922 -0.009183365 0.013490711 -0.22809716 -0.12707621
-0.30252215 -0.0072411136 -0.07114246 -0.063788235 -0.019297833 -0.036250703 -0.09989713 0.037509117
-0.22076617 0.49062058 -0.031187171 0.06201019 -0.19756877 0.09959698 -0.22407821 0.1752107
-0.41366765 0.27605906 0.41700977 -0.12741558 0.031352077 -0.024075942 0.035709023 0.061812732
0.032623455 -0.21242201 -0.12576754 -0.4336738 -0.021229452 0.06438973 0.0067569804 -0.16338302
0.09568524 -0.028560152 -0.016537795 0.0022043702 0.042861503 -0.21851003 0.01473552 -0.020621248
-0.45681146 -0.29110655 -0.27255744 -0.22647755 -0.045820434 -0.07406947 -0.077696316 -0.02222181
0.196154 -0.020518536 -0.17064688 0.12142386 -0.49758768 -0.015581872 -0.021277508 -0.5172341
0.28083006 0.073499866 0.2230388 0.16813295 0.43369037 0.12288543 0.0673419 0.36008474
-0.0017036404 -0.17975171 -0.10044268 0.12680456 -0.08002214 0.37535858 -0.33077797 0.06567343
0.1593249 -0.097684026 -0.035921715 -0.027409427 -0.20093843 0.04980186 -0.18584344 -0.17476434
-0.0023068502 -0.10648446 -0.075721115 -0.120862775 -0.0056983437 0.07740655 -0.13899669 -0.15146935
0.13366644 -0.11762657 -0.012786009 -0.025294814 -0.010551092 -0.049403165 -0.2004884 -0.33786172
-0.29234153 0.040053137 -0.097041555 -0.112181425 -0.11226979 0.0202902 -0.37753108 -0.21303755
-0.68210715 0.28117806 -0.33747053 0.14049505 0.21649252 -0.10111812 -0.07072936 -0.2568527
0.032854192 -0.096686155 -0.20633712 -0.11457207 -0.1448623 -0.051100515 0.092317104 -0.089370616
0.04339714 -0.05839393 0.072475776 -0.046337504 0.05609089 -0.018127128 -0.15321314 0.054625794
0.04917937 0.0037906351 -0.0066361404 -0.20110205 -0.02990475 -0.029311549 0.07400518 -0.064677946
-0.19428605 -0.21736915 -0.018469993 -0.18580808 -0.098947234 -0.030412437 -0.11486324 -0.16313133
-0.078348614 -0.08320582 -0.026796881 -0.043667007 -0.04685201 0.013250128 -0.010874214 0.022039521
0.05738881 -0.114009164 -0.19328348 -0.024557745 -0.08402714 -0.11980958 0.043489847 -0.094936006
-0.062306833 -0.17606221 0.0702192 -0.044885546 0.058885425 -0.007874373 -0.048722588 0.07609162
-0.10932735 0.09491153 -0.020062089 0.16098498 0.01173699 -0.0042009717 -0.0369281 -0.06229565
-0.32648522 0.016646905 -0.24097945 0.07659415 -0.044131 -0.02179005 0.018836576 -0.024098158
-0.036893528 0.5149843 0.028377246 -0.010925609 -0.20230222 -0.09735958 -0.19149226 -0.3293215
-0.047680836 0.2580246 0.10819816 -0.18947628 0.05764162 0.32656842 -0.23250923 -0.21685673
0.07365657 -0.04936787 -0.16921589 -0.4091793 0.19780509 -0.34394974 0.6036016 -0.11078981
-0.10137677 -0.18295717 -0.021985168 0.15268672 -0.037852634 0.1042271 -0.10812406 -0.28128338
0.22218628
00000000: b6a2 f0ba 4840 0b3d c963 6abc 04b9 1f3e
00000010: d375 16bc 2508 5d3c 4d92 69be 4420 02be
00000020: 2fe4 9abe dd46 edbb 23b3 91bd 68a3 82bd
00000030: 7d16 9ebc 9e7b 14bd de96 ccbd 29a3 193d
00000040: 8710 62be 9f32 fb3e 3d7c ffbc 66fe 7d3d
00000050: 784f 4abe 80f9 cb3d c274 65be 6f6a 333e
00000060: 3fcc d3be 9d57 8d3e 4e82 d53e 3b79 02be
00000070: 096b 003d e93a c5bc a043 123d 592f 7d3d
00000080: 2ca0 053d 2885 59be 35c9 00be 7e0a debe
00000090: 63e9 adbc c3de 833d a969 dd3b e14d 27be
000000a0: a0f6 c33d fbf6 e9bc 457a 87bc 3277 103b
000000b0: 8b8f 2f3d 18c1 5fbe 406d 713c e4ed a8bc
000000c0: 31e3 e9be eb0b 95be a68c 8bbe bbe9 67be
000000d0: 35ae 3bbd bcb1 97bd 3f1f 9fbd 830a b6bc
000000e0: 98dc 483e 7d16 a8bc 0ebe 2ebe 13ad f83d
000000f0: d0c3 febe 1c4b 7fbc 2b4e aebc 7469 04bf
00000100: f5c8 8f3e 1987 963d 4864 643e 0b2b 2c3e
00000110: aa0c de3e 5bab fb3d 8dea 893d 075d b83e
00000120: b04c dfba d510 38be e4b4 cdbd 0ed9 013e
00000130: a6e2 a3bd 002f c03e bb5b a9be cb7f 863d
00000140: 1126 233e 900e c8bd a622 13bd bc89 e0bc
00000150: cec2 4dbe 09fd 4b3d be4d 3ebe 6cf5 32be
00000160: 862e 17bb 8614 dabd ac13 9bbd e786 f7bd
00000170: 2cb9 babb 5387 9e3d 2655 0ebe c81a 1bbe
00000180: dbdf 083e 33e6 f0bd 697c 51bc 1237 cfbc
00000190: 7dde 2cbc f95a 4abd d54c 4dbe 36fc acbe
000001a0: caad 95be c20e 243d b9bd c6bd 60bf e5bd
000001b0: b4ed e5bd a237 a63c c14b c1be 8426 5abe
000001c0: 939e 2ebf 92f6 8f3e f0c8 acbe efdd 0f3e
000001d0: 37b0 5d3e 0417 cfbd 8eda 90bd 3282 83be
000001e0: 1e92 063d 6403 c6bd 0a4a 53be c3a4 eabd
000001f0: c856 14be c64e 51bd c010 bd3d f107 b7bd
00000200: 33c1 313d 792e 6fbd 2e6e 943d 65cc 3dbd
00000210: 90bf 653d 587f 94bc e8e3 1cbe 4cbf 5f3d
00000220: 4f70 493d 4e6c 783b fb73 d9bb b2ed 4dbe
00000230: cefa f4bc c61e f0bc 0790 973d df75 84bd
00000240: ecf2 46be 0596 5ebe 624e 97bc 7944 3ebe
00000250: d9a4 cabd 8123 f9bc 6b3d ebbd e60b 27be
00000260: 3d75 a0bd d067 aabd 2285 dbbc 2ddc 32bd
00000270: e5e7 3fbd 1117 593c c229 32bc 3a8c b43c
00000280: 8710 6b3d a37d e9bd 1bec 45be 532d c9bc
00000290: 6c16 acbd ba5e f5bd 6922 323d cf6d c2bd
000002a0: 7335 7fbd a749 34be 15cf 8f3d e8d9 37bd
000002b0: d831 713d 8403 01bc 5691 47bd ecd5 9b3d
000002c0: 05e7 dfbd fa60 c23d 4059 a4bc 3fd9 243e
000002d0: 814c 403c 4ea8 89bb eb41 17bd b929 7fbd
000002e0: 1229 a7be 175f 883c 51c3 76be 65dd 9c3d
000002f0: b5c2 34bd 0c81 b2bc 2a4f 9a3c 8069 c5bc
00000300: ab1d 17bd 03d6 033f 6677 e83c 5301 33bc
00000310: 5028 4fbe 7664 c7bd 8c16 44be d49c a8be
00000320: fb4c 43bd cd1b 843e ff96 dd3d 1206 42be
00000330: 9f19 6c3d fa33 a73e e616 6ebe b10f 5ebe
00000340: 41d9 963d f735 4abd ee46 2dbe f37f d1be
00000350: 6b8d 4a3e 2e1a b0be a285 1a3f c5e5 e2bd
00000360: a09e cfbd 2059 3bbe 3d1a b4bc e859 1c3e
00000370: 5d0b 1bbd 0575 d53d 2670 ddbd 6004 90be
00000380: cd84 633e

cnn.2.bias f4 [5]
-0.045516983 -0.26128018 -0.07750422 -0.17364675 -0.042759076
00000000: 0470 3abd 84c6 85be 88ba 9ebd 74d0 31be
00000010: 2424 2fbd

network.0.weight f4 [120, 405]
-0.14879723 -0.25738186 -0.064255096 0.13455954 -0.070306666 -0.3465881 -0.28196478 -0.27001482
0.011146309 0.054759625 -0.2374976 -0.14991052 -0.17473732 0.00036598055 -0.39718685 -0.20203821
0.26395428 -0.12378204 -0.122553505 -0.040294036 -0.19251817 -0.19349517 -0.21555297 0.02824741
0.27733365 -0.053896647 0.07842799 -0.39922178 -0.08036746 -0.13654387 0.09312312 -0.23435664
0.09363968 0.36106935 -0.1199477 0.033358652 -0.03645911 0.0111835785 0.20105828 -0.1038442
0.04154981 0.31623253 -0.03392247 -0.14983146 0.03491878 -0.14551938 -0.039790988 -0.11350667
-0.021645192 0.2505675 -0.16605967 0.02935483 -0.24438274 -0.10722392 -0.23921286 0.028526535
-0.124230705 -0.037387624 -0.12466368 0.027760388 -0.055595495 0.005601137 -0.11306921 -0.047761798
-0.1337087 -0.18429787 -0.16820017 -0.062423494 0.05928286 0.094453566 0.12634441 0.1901185
-0.21098937 0.06478168 0.048400536 0.065006815 -0.12361534 0.18247141 0.093437985 0.084665455
-0.11271523 -0.23418793 -0.13321418 0.054514486 -0.09093334 0.0037729656 0.15278335 -0.1367623
-0.085846975 -0.1868319 0.008909888 -0.2702844 -0.023655677 -0.26018903 -0.054658365 -0.20930138
-0.060693372 -0.1776268 0.08520383 -0.1910221 -0.3393894 -0.108458914 -0.09546668 -0.18410338
-0.37061268 -0.03691102 -0.18363367 -0.3962808 -0.062366825 -0.41092739 0.08029449 0.04496068
-0.37026104 -0.329708 -0.1291559 0.031639416 -0.3220601 -0.12720126 -0.24585259 0.089781106
0.06345264 -0.036899284 -0.04010654 0.23776574 -0.035017896 -0.3701684 -0.2506361 -0.018328395
-0.19866435 0.27560884 -0.12856235 0.02359152 0.28306583 0.16604634 -0.37876058 -0.1609304
-0.33273098 -0.06511343 0.0048637777 -0.07874614 0.2523327 0.004767323 -0.14434202 -0.34105018
-0.038024317 -0.34603953 -0.12614548 -0.090314426 -0.17593576 0.065213986 0.0021734296 -0.12781136
-0.15382224 -0.08444639 -0.15002157 0.039117124 -0.043044146 -0.0681896 -0.17971571 -0.056868766
-0.0326445 -0.065050066 -0.05614684 -0.12756316 -0.017719496 0.11359627 -0.20740706 -0.102714
-0.03265491 -0.11987534 0.0015425333 0.027325146 0.01640358 0.1856524 0.09261238 0.09323892
-0.24126476 0.0019139029 -0.060196653 -0.09900302 -0.12533666 -0.23902804 -0.11819479 0.09589602
-0.06509374 -0.064228624 -0.24206373 0.13130295 -0.13325621 0.063922055 0.08583114 -0.084840976
-0.086972065 -0.20970291 0.003638944 -0.018872289 -0.15722595 0.071585335 -0.07533601 -0.18552454
0.09467922 -0.19383131 0.006838476 0.04936527 0.022555904 -0.1102818 -0.38988197 -0.055939406
-0.11817013 -0.15299657 0.023061063 -0.108824626 -0.09620472 -0.10512102 -0.13066795 -0.085547686
-0.16003802 0.021230873 -0.007497528 -0.28060392 0.055922776 -0.28577837 0.19039185 0.07318642
-0.09216779 -0.18290569 -0.091851175 0.06443296 -0.20606941 0.13221404 -0.067610435 -0.08900808
0.18607846 -0.2045854 -0.15746039 0.14765382 0.14378017 0.11772115 0.087517336 -0.1597553
-0.017907254 -0.092060305 -0.00467937 -0.051282942 0.046648953 -0.031764023 -0.041219488 0.05289552
0.0108162975 0.048924185 -0.0054022856 0.01950014 0.026027229 0.0016163951 -0.0196555 -0.015257238
00000000: 4d5e 18be 8ec7 83be 2d98 83bd fac9 093e
00000010: f1fc 8fbd ff73 b1be b05d 90be 623f 8abe
00000020: 029f 363c a14b 603d 9232 73be 2582 19be
00000030: 57ee 32be 14e1 bf39 135c cbbe 1be3 4ebe
00000040: 0425 873e 7081 fdbd 55fd fabd 5c0b 25bd
00000050: 7c23 45be 9923 46be ebb9 5cbe 1d67 e73c
00000060: adfe 8d3e bbc2 5cbd db9e a03d cc66 ccbe
00000070: b297 a4bd 28d2 0bbe 56b7 be3d 30fb 6fbe
00000080: 29c6 bf3d 15de b83e 24a7 f5bd 15a3 083d
00000090: 2656 15bd 543b 373c 39e2 4d3e 45ac d4bd
000000a0: 2230 2a3d 3be9 a13e 4af2 0abd 6b6d 19be
000000b0: ff06 0f3d 0803 15be e0fb 22bd 2f76 e8bd
000000c0: 4251 b1bc 624a 803e 8c0b 2abe 8a79 f03c
000000d0: 783f 7abe 3798 dbbd 37f4 74be 7bb0 e93c
000000e0: ab6c febd c423 19bd ac4f ffbd c169 e33c
000000f0: 1ab8 63bd be89 b73b d490 e7bd e0a1 43bd
00000100: efea 08be 95b8 3cbe aa3c 2cbe c7af 7fbd
00000110: 96d2 723d df70 c13d 6e60 013e 6dae 423e
00000120: 990d 58be 42ac 843d a43f 463d 4b22 853d
00000130: 0a2a fdbd c9d9 3a3e 6a5c bf3d 1565 ad3d
00000140: 3ed7 e6bd f6ce 6fbe 4c69 08be 954a 5f3d
00000150: 423b babd dc43 773b 3d73 1c3e 6b0b 0cbe
00000160: 8ad0 afbd dd50 3fbe c7fa 113c b862 8abe
00000170: 8dc9 c1bc 7f37 85be 73e1 5fbd 1a53 56be
00000180: 9d99 78bd cde3 35be 587f ae3d 4c9b 43be
00000190: 73c4 adbe b51f debd 0984 c3bd 9985 3cbe
000001a0: f2c0 bdbe 0230 17bd 770a 3cbe 51e5 cabe
000001b0: 5b74 7fbd 1365 d2be 7071 a43d b128 383d
000001c0: db92 bdbe 7dcf a8be 7241 04be 5598 013d
000001d0: 10e5 a4be 0c41 02be c8c0 7bbe 28df b73d
000001e0: 75f3 813d b423 17bd c146 24bd dd78 733e
000001f0: ed6e 0fbd b686 bdbe 6053 80be 6e25 96bc
00000200: ab6e 4bbe 9a1c 8d3e d9a5 03be 0143 c13c
00000210: 01ee 903e 0d08 2a3e e8ec c1be f0ca 24be
00000220: b75b aabe 315a 85bd 5360 9f3b a845 a1bd
00000230: c031 813e 3437 9c3b 65ce 13be 219e aebe
00000240: 63bf 1bbd 182c b1be 482c 01be c5f6 b8bd
00000250: 8128 34be e98e 853d 1970 0e3b fbe0 02be
00000260: 9483 1dbe 3bf2 acbd 419f 19be 4739 203d
00000270: 0f4f 30bd fda6 8bbd 6507 38be 39ef 68bd
00000280: 3db6 05bd f838 85bd 3bfa 65bd eb9f 02be
00000290: 7a28 91bc 29a5 e83d 8462 54be b85b d2bd
000002a0: 28c1 05bd 3481 f5bd d42e ca3a fcd8 df3c
000002b0: cd60 863c aa1b 3e3e 8fab bd3d 0cf4 be3d
000002c0: 1c0e 77be eddb fa3a c490 76bd 18c2 cabd
000002d0: 4158 00be c4c3 74be 1c10 f2bd 2265 c43d
000002e0: de4f 85bd 4c8a 83bd 8edf 77be 4874 063e
000002f0: 5174 08be 91e9 823d 3dc8 af3d 1bc1 adbd
00000300: 691e b2bd 5cbc 56be 597b 6e3b 0f9a 9abc
00000310: d7ff 20be 559b 923d c449 9abd 25fa 3dbe
00000320: 2ee7 c13d b77b 46be 4b15 e03b 3d33 4a3d
00000330: 29c7 b83c 6ddb e1bd 9c9e c7be b820 65bd
00000340: 2e03 f2bd 22ab 1cbe 8eea bc3c 72df debd
00000350: fb06 c5bd b049 d7bd d2cd 05be a033 afbd
00000360: 02e1 23be 5eec ad3c d3ad f5bb 51ab 8fbe
00000370: 480f 653d 8b51 92be 15f6 423e c3e2 953d
00000380: 77c2 bcbd a14b 3bbe 781c bcbd 6df5 833d
00000390: dc03 53be 1e63 073e 5777 8abd de49 b6bd
000003a0: 5a8b 3e3e d67e 51be 4c3d 21be 9032 173e
000003b0: 1c3b 133e c917 f13d 4a3c b33d e596 23be
000003c0: 3cb2 92bc 1d8a bcbd 6755 99bb 100e 52bd
000003d0: f912 3f3d fe1a 02bd c4d5 28bd f9a8 583d
000003e0: d736 313c ba64 483d a805 b1bb c2be 9f3c
000003f0: 0e37 d53c 38dd d33a 9204 a1bc 7ff9 79bc

network.0.bias f4 [120]
-0.10392726 0.0942806 -0.12852566 -0.17640634 -0.10776546 0.017788615 -0.071239494 -0.007945569
-0.007464269 -0.008758245 0.026878964 -0.017571194 -0.09184212 -0.1918871 -0.02801258 -0.04594077
-0.042487197 -0.17567286 -0.11227609 -0.007854434 -0.022191415 -0.006539807 -0.16917175 -0.015323992
-0.12823425 0.09594789 -0.026935905 -0.09389553 0.013714803 0.07207744 -0.08348897 -0.23038137
0.028956529 0.1173349 -0.043450423 0.027469449 -0.061796173 -0.20179197 0.025178386 -0.10903998
-0.082077764 -0.29024723 -0.12044823 -0.062063538 -0.10972469 -0.2876755 -0.10799969 -0.09917627
-0.15750307 -0.015010391 -0.13345277 -0.06921428 -0.23547013 -0.16090368 -0.08190911 0.036090016
-0.099017866 -0.06269616 -0.06916864 -0.24372236 0.014986147 -0.1371504 0.073914476 0.049759623
-0.09482734 -0.10719689 -0.016092593 -0.016006652 -0.30620167 0.005179914 -0.20528235 -0.13503698
-0.1529829 -0.067632675 -0.16369875 -0.21025524 -0.24124983 -0.18399908 -0.110132106 -0.113843635
-0.094512776 -0.06303548 0.13573883 0.10155668 -0.053528856 0.025616216 -0.08620712 0.0125817
-0.086611435 -0.07603788 0.20101237 0.2900533 0.019319411 0.0065423977 -0.09427242 -0.014566752
0.020058842 0.010733503 -0.078559354 -0.11797308 0.009084589 -0.22892475 0.05277968 -0.13292113
0.048245337 0.22269385 -0.11634817 -0.075587384 -0.2295262 -0.13377874 -0.09056806 -0.20454542
-0.13014442 -0.0110619925 -0.102261804 -0.04960458 -0.14829619 0.10963269 -0.014999218 -0.12093252
00000000: d1d7 d4bd 3016 c13d 3b9c 03be dda3 34be
00000010: 23b4 dcbd 6eb9 913c 03e6 91bd 222e 02bc
00000020: d496 f4bb be7e 0fbc 4631 dc3c 77f1 8fbc
00000030: b917 bcbd 0d7e 44be a37a e5bc 642c 3cbd
00000040: 0e07 2ebd 96e3 33be 02f1 e5bd e2af 00bc
00000050: c5ca b5bc e14b d6bb 5c3b 2dbe 7b11 7bbc
00000060: d74f 03be 5480 c43d b0a8 dcbc 4d4c c0bd
00000070: 0eb4 603c 569d 933d 44fc aabd 18e9 6bbe
00000080: 3e36 ed3c 484d f03d 12f9 31bd 9c07 e13c
00000090: fc1d 7dbd 8ea2 4ebe e742 ce3c 5a50 dfbd
000000a0: 6318 a8bd 499b 94be 90ad f6bd 5636 7ebd
000000b0: 57b7 e0bd 344a 93be f12e ddbd ee1c cbbd
000000c0: 7c48 21be 25ee 75bc d8a7 08be 37c0 8dbd
000000d0: 151f 71be efc3 24be f7bf a7bd 20d3 133d
000000e0: e1c9 cabd d866 80bd 4aa8 8dbd 5b92 79be
000000f0: 7588 753c 2871 0cbe 7960 973d bfd0 4b3d
00000100: d634 c2bd 0b8a dbbd 9dd4 83bc 6220 83bc
00000110: 77c6 9cbe 45bc a93b 8935 52be 2247 0abe
00000120: 8da7 1cbe 0083 8abd a5a0 27be 264d 57be
00000130: 320a 77be 416a 3cbe f18c e1bd da26 e9bd
00000140: ea8f c1bd bf18 81bd 1fff 0a3e f3fc cf3d
00000150: 1341 5bbd 19d9 d13c 5c8d b0bd 7a23 4e3c
00000160: 5661 b1bd bfb9 9bbd 30d6 4d3e de81 943e
00000170: be43 9e3c 9c61 d63b e611 c1bd 63a9 6ebc
00000180: 7152 a43c 93db 2f3c bae3 a0bd df9b f1bd
00000190: 87d7 143c 406b 6abe 812f 583d 7a1c 08be
000001a0: e79c 453d db09 643e f347 eebd 8fcd 9abd
000001b0: eb08 6bbe 4bfd 08be bf7b b9bd 5b74 51be
000001c0: 9444 05be 5c3d 35bc a36e d1bd 2c2e 4bbd
000001d0: f5da 17be 1b87 e03d 48bf 75bc 78ab f7bd

network.2.weight f4 [84, 120]
0.04017351 -0.07655651 0.09478255 0.00435195 0.01234853 -0.055101532 -0.12822366 -0.07453019
0.17098053 0.0133986175 0.00429428 0.03918238 0.047076046 -0.14358717 -0.25029203 -0.36147088
0.11607158 0.08722883 0.06881987 0.17463408 0.06551835 -0.22392038 0.1687061 0.06421711
-0.050862018 0.26262355 0.007237833 0.067804806 0.12737614 0.01955072 -0.11231785 -0.16984046
0.12234887 -0.044817753 -0.19000882 0.19563937 -0.029813517 0.12235429 0.11810816 0.006785004
0.1293488 -0.06929321 -0.11832261 -0.08701971 -0.0967858 0.026066322 0.0039984044 0.039287034
-0.07642577 0.0005432062 0.12825495 -0.22229579 -0.13136546 -0.059530765 0.04818005 -0.089814804
0.08118956 -0.13227758 -0.081665315 -0.033818513 -0.05007261 -0.29206347 0.023427041 0.022920212
0.044143267 0.20096739 -2.0184723e-05 0.1806291 0.03437146 -0.15230836 -0.03536344 0.107667305
-0.011353273 0.07588062 -0.11832286 -0.016962102 0.18231265 -0.12658072 -0.059634283 0.058438532
0.027165176 0.12728903 0.279169 0.17477652 -0.3795271 -0.073333494 0.063037 -0.08295925
-0.08763504 0.036499877 -0.35707146 -0.25935498 -0.098629184 -0.05642037 -0.04024665 -0.06837667
-0.09754666 0.04385626 0.07330213 0.018977663 -0.097069934 -0.045431837 0.08016932 0.10128505
0.041819524 -0.6479842 0.04555255 -0.004591221 0.047571916 0.18023598 -0.08352143 -0.2567924
0.04020737 -0.10861061 0.3012104 -0.10404847 -0.069444485 0.03376816 0.17826118 0.23561087
0.048986632 -0.03250007 -0.027498651 -0.3469414 0.011036708 0.16077192 -0.16935353 0.17488994
-0.14532354 0.165407 -0.056109108 0.12310832 0.0464616 0.09378816 0.0005422525 0.121895604
-0.04938759 0.016451398 0.08073388 -0.09577263 -0.0881593 -0.013981556 -0.07625051 -0.14811566
0.021859562 -0.49081463 -0.0033547664 -0.022623328 -0.13547526 0.0876711 -0.074814275 -0.044688918
-0.26055908 0.11091245 0.027873494 0.19111332 -0.00027319544 0.1111415 0.20000207 -0.06893833
-0.16440985 0.10149297 0.05882904 0.02829446 0.050555427 -0.1633266 0.048210826 -0.025814444
-0.099873476 -0.07230739 -0.06276501 -0.109122336 0.039706938 -0.14796913 0.048107814 -0.43295828
0.034161452 -0.041283693 -0.19271417 -0.3426483 -0.22146612 0.05307501 -0.17856981 -0.1406564
0.097335204 -0.11181678 0.048611246 -0.015786078 0.15796705 -0.06758343 -0.083736055 0.07928106
0.10404414 0.055751834 -0.06665387 -0.27090758 0.104847185 -0.24444643 -0.22783466 0.062296625
0.06747727 0.13005914 -0.18157998 0.28909588 -0.30662632 -0.12190098 0.033516932 0.10242861
0.13396561 -0.02126179 -0.2691684 0.103917144 0.052605856 -0.0053245844 -0.008167333 0.15967578
-0.08803956 -0.23508054 -0.04274745 -0.027447054 0.256745 0.017324166 -0.18044253 0.030471487
-0.08916152 -0.06260576 0.036264125 -0.049993254 -0.18106993 0.031732857 -0.05818906 -0.12602256
-0.054074306 -0.13057907 0.05536942 -0.19135056 -0.09840266 0.18712705 0.083470255 0.10920063
-0.03759501 -0.045582067 -0.08497806 -0.04319551 0.021674044 -0.06323451 -0.076573566 -0.05407256
-0.0062690135 -0.095296755 -0.10196612 0.02657548 0.0014604207 0.012799272 -0.10793805 -0.11766019
00000000: fa8c 243d a9c9 9cbd 5b1d c23d cd9a 8e3b
00000010: 7d51 4a3c 25b2 61bd 104d 03be 49a3 98bd
00000020: 8515 2f3e e085 5b3c 08b7 8c3b b47d 203d
00000030: d0d2 403d 8408 13be 4726 80be b612 b9be
00000040: f0b6 ed3d 07a5 b23d 6ff1 8c3d 47d3 323e
00000050: 7c2e 863d 624b 65be 4bc1 2c3e 4384 833d
00000060: b154 50bd 9876 863e 582b ed3b 3fdd 8a3d
00000070: e46e 023e d528 a03c e706 e6bd a8ea 2dbe
00000080: 0b92 fa3d d292 37bd ac91 42be b055 483e
00000090: 7a3b f4bc e394 fa3d b1e2 f13d bd54 de3b
000000a0: 0374 043e 99e9 8dbd 2053 f2bd 6437 b2bd
000000b0: a237 c6bd 0a89 d53c 0c05 833b 71eb 203d
000000c0: 1d85 9cbd f365 0e3a 4455 033e 82a1 63be
000000d0: ab84 06be 88d6 73bd 7258 453d d3f0 b7bd
000000e0: b646 a63d c673 07be 2540 a7bd 4885 0abd
000000f0: f018 4dbd 5889 95be 11ea bf3c 2bc3 bb3c
00000100: 92cf 343d 65ca 4d3e 5d52 a9b7 d6f6 383e
00000110: 17c9 0c3d b9f6 1bbe 41d9 10bd ad80 dc3d
00000120: 1403 3abc 4c67 9b3d 4153 f2bd 1bf4 8abc
00000130: 2bb0 3a3e 609e 01be 1443 74bd 3e5d 6f3d
00000140: 8189 de3c 0e58 023e 3def 8e3e 9ef8 323e
00000150: 6051 c2be df2f 96bd 8b19 813d 8ae6 a9bd
00000160: 007a b3bd e580 153d 12d2 b6be 2dca 84be
00000170: 19fe c9bd 0c19 67bd acd9 24bd 1109 8cbd
00000180: 8bc6 c7bd 9fa2 333d 6d1f 963d 0b77 9b3c
00000190: 9acc c6bd bc16 3abd d02f a43d 896e cf3d
000001a0: f34a 2b3d 4be2 25bf 5095 3a3d f471 96bb
000001b0: c5da 423d c88f 383e 490d abbd 4b7a 83be
000001c0: 7cb0 243d 3d6f debd 4038 9a3e 5d17 d5bd
000001d0: e938 8ebd 7b50 0a3d 198a 363e fa43 713e
000001e0: 35a6 483d cb1e 05bd da44 e1bc 4ea2 b1be
000001f0: 4fd3 343c 65a1 243e 036b 2dbe 5916 333e
00000200: b2cf 14be 7460 293e aad2 65bd 3720 fc3d
00000210: 854e 3e3d 0214 c03d f325 0e3a 67a4 f93d
00000220: a44a 4abd 15c5 863c ce57 a53d 7124 c4bd
00000230: dd8c b4bd e512 65bc 3a29 9cbd a2ab 17be
00000240: d312 b33c 0e4c fbbe a4db 5bbb 8f54 b9bc
00000250: 07ba 0abe e88c b33d 3a38 99bd ba0b 37bd
00000260: 0068 85be 1126 e33d f456 e43c 36b3 433e
00000270: ac3b 8fb9 289e e33d 58cd 4c3e 8a2f 8dbd
00000280: 0e5b 28be 8cdb cf3d b8f6 703d c9c9 e73c
00000290: 3513 4f3d 173f 27be b778 453d d078 d3bc
000002a0: 778a ccbd e615 94bd f18a 80bd 887b dfbd
000002b0: bea3 223d 3885 17be b30c 453d b5ac ddbe
000002c0: e1ec 0b3d 1719 29bd dd56 45be 996f afbe
000002d0: 04c8 62be 2f65 593d 01db 36be 3b08 10be
000002e0: ae57 c73d 3200 e5bd 961c 473d ce51 81bc
000002f0: 1dc2 213e 2e69 8abd cf7d abbd 1c5e a23d
00000300: 1815 d53d 095c 643d d381 88bd 66b4 8abe
00000310: 1fba d63d 2a50 7abe 7d4d 69be bf2a 7f3d
00000320: 8631 8a3d 392e 053e 1af0 39be 6004 943e
00000330: 20fe 9cbe 39a7 f9bd 0d49 093d 17c6 d13d
00000340: 482e 093e 352d aebc 71d0 89be 83d2 d43d
00000350: 3d79 573d da79 aebb 47d0 05bc 0c82 233e
00000360: 164e b4bd f4b8 70be f317 2fbd a5d8 e0bc
00000370: 1574 833e 69eb 8d3c edc5 38be 579f f93c
00000380: 519a b6bd 7337 80bd b189 143d bac5 4cbd
00000390: 656a 39be 50fa 013d a757 6ebd 0f0c 01be
000003a0: 057d 5dbd 85b6 05be 0ccb 623d 67f1 43be
000003b0: 5587 c9bd 3c9e 3f3e 74f2 aa3d 94a4 df3d
000003c0: 3afd 19bd 43b4 3abd fa08 aebd c6ed 30bd
000003d0: c48d b13c 1881 81bd 9ad2 9cbd 307b 5dbd
000003e0: 4c6c cdbb f22a c3bd 9dd3 d0bd d2b4 d93c
000003f0: 966b bf3a 0ab4 513c a00e ddbd d3f7 f0bd

network.2.bias f4 [84]
-0.11633135 0.10237988 -0.06799617 -0.059416577 -0.124248266 -0.11847922 0.38893235 -0.004336277
0.08847083 -0.025050595 -0.02948485 -0.029387483 -0.20717409 0.24497558 -0.03795483 0.011540585
0.07526747 -0.027610049 0.24614152 -0.0378796 -0.0873293 -0.136653 0.10404255 -0.14479475
-0.098127365 -0.08759889 0.13713908 -0.07716128 -0.089861654 0.109143965 0.29847077 -0.054188993
-0.14289606 -0.019000173 -0.1163249 0.11385165 0.117203794 -0.116658986 -0.09945132 -0.1356162
-0.045220375 -0.061220903 0.09977204 0.22309901 -0.12793307 0.19425665 0.10431898 0.17689681
0.095933534 -0.13275857 -0.049543537 0.082641244 -0.14706776 0.13930936 -0.09242465 0.17532454
-0.06324168 -0.14023606 -0.09144776 -0.14520025 0.1367553 0.13507055 0.003162841 -0.1203668
0.13469158 -0.11907459 -0.07387931 -0.10323369 -0.072223134 0.03707186 0.16530679 0.24115832
-0.06496785 -0.07835199 -0.013397311 0.022131762 -0.1749061 -0.1256427 -0.023402138 0.19634019
0.10326 -0.049221866 -0.04216541 0.0044355635
00000000: 213f eebd 8bac d13d 9341 8bbd cc5e 73bd
00000010: e075 febd 3ca5 f2bd 2422 c73e 5417 8ebb
00000020: 3230 b53d e836 cdbc 368a f1bc 05be f0bc
00000030: 7225 54be e1da 7a3e 8676 1bbd b914 3d3c
00000040: d525 9a3d 782e e2bc 860c 7c3e a427 1bbd
00000050: b4d9 b2bd c4ee 0bbe 4314 d53d 1345 14be
00000060: 00f7 c8bd 0c67 b3bd 306e 0c3e bc06 9ebd
00000070: 6309 b8bd df86 df3d 29d1 983e 47f5 5dbd
00000080: 5853 12be 40a6 9bbc c03b eebd 0e2b e93d
00000090: 8b08 f03d e8ea eebd 22ad cbbd f9de 0abe
000000a0: 0039 39bd c5c2 7abd 4955 cc3d 1174 643e
000000b0: e300 03be 37eb 463e 30a5 d53d 7024 353e
000000c0: cd78 c43d ddf1 07be 2aee 4abd d03f a93d
000000d0: ee98 16be 1da7 0e3e 2349 bdbd 4788 333e
000000e0: db84 81bd 0b9a 0fbe f748 bbbd 60af 14be
000000f0: 9509 0c3e ef4f 0a3e ab47 4f3b de82 f6bd
00000100: 97ec 093e 61dd f3bd 094e 97bd 2f6c d3bd
00000110: b9e9 93bd aad8 173d 2f46 293e 35f2 763e
00000120: dd0d 85bd 0277 a0bd 6580 5bbc ab4d b53c
00000130: 961a 33be 7ba8 00be d7b5 bfbc 670d 493e
00000140: fb79 d33d de9c 49bd a3b5 2cbd 3458 913b

network.4.weight f4 [21, 84]
-0.110706806 -0.12780859 -0.008975714 0.0061778584 0.12649189 -0.116564766 0.09081744 -0.15793303
0.0079259975 -0.049950406 0.014188871 0.054622415 -0.5010385 0.20966066 -0.049790315 -0.107337095
0.17751795 -0.06770434 0.047997218 0.023047997 -0.03961905 -0.053102884 -0.026237369 -0.10763453
-0.018595317 0.0034630552 0.09654305 0.07339846 -0.2739306 -0.16560912 0.0063878475 0.021404283
0.03183819 -0.15036982 0.023847882 -0.1651711 -0.030461017 0.044816617 -0.1472059 0.077315144
0.078952536 -0.070648715 0.12726805 0.150851 -0.29518488 0.020276919 0.045612063 -0.01983798
0.019806735 -0.10119057 0.0021637883 0.0032327834 0.022639394 0.108279645 0.10051472 0.035356324
-0.19894826 0.055706874 0.059020333 0.008294559 0.15134406 0.14441112 0.00073317246 0.03303437
0.103531405 0.13829504 0.0751736 -0.08903281 0.056008916 0.06919121 0.039326325 0.13550045
0.04779561 -0.09308766 0.037065994 -0.03925349 0.042298544 0.028136458 -0.072380766 0.0585328
0.056672297 -0.056613863 0.007955058 -0.07224732 -0.117430314 0.09605785 0.1049273 0.10965714
0.048329074 -0.035592414 0.1101835 -0.030590337 -0.15299158 -0.03472511 -0.09872876 -0.01437799
-0.32068053 0.05295799 -0.032008827 0.0030290643 0.19997421 -0.082222894 0.0892508 -0.09391607
-0.093895726 0.005517025 0.007980195 0.019476576 -0.11094984 -0.017741682 0.0016627606 -0.01823716
-0.35087222 -0.013457155 -0.048881542 -0.0356173 -0.009011722 -0.15624663 0.12888394 0.014260995
0.009850675 -0.06919069 -0.08586821 0.05656612 -0.0768539 -0.08636827 0.0028948665 0.14772767
-0.07922006 0.045086574 0.17110357 -0.03176932 0.01694732 0.0016528391 -0.08624134 0.010494966
-0.086922 -0.055632737 -0.1329296 0.075198196 -0.11558457 -0.110203974 -0.039848465 -0.12228998
0.07518893 -0.011616018 0.22474578 0.06979436 0.09439335 -0.049115352 -0.0009997512 -0.2248124
-0.058804613 0.106487446 -0.0025382529 0.28662005 -0.03457086 -0.023070287 0.08508621 -0.08469287
0.07343806 0.030762967 -0.08581151 0.13831055 -0.022133732 -0.011845424 -0.118967265 0.058840573
-0.10273606 -0.06145745 0.05250112 0.05695243 -0.0635664 -0.04137269 0.12610587 -0.10268741
-0.12208222 -0.030608378 -0.14101487 0.11613373 -0.31032544 0.19910406 0.071265206 -0.0630471
-0.122161105 -0.09075811 0.07363988 -0.023925958 -0.029973377 -0.13008437 0.13728237 -0.048061542
-0.104070455 0.029560896 0.020632105 0.022662632 -0.46913207 -0.029544704 0.033917736 0.06933123
0.069134235 -0.08611643 0.05107693 -0.023344569 -0.03261001 -0.038711593 -0.04961626 -0.11544725
0.039083928 0.0374257 0.097584516 0.07107234 -0.03199022 -0.045743506 0.14527893 0.09192859
-0.014316194 0.010798739 0.04613487 0.026650159 0.058915988 -0.021722184 -0.004826525 0.09633573
-0.14407925 -0.036923837 -0.025334831 -0.0017499428 0.007301366 0.10440546 -0.141179 -0.08939503
0.06070975 -0.01505225 -0.047311816 0.026809853 0.050336815 -0.0329865 -0.024905203 0.23424077
0.010711622 0.08418112 0.072108045 -0.109757654 -0.15907893 0.051520452 -0.07638934 0.017875884
-0.1169947 0.048955064 -0.063842386 -0.05206454 -0.10854888 0.040535264 -0.1137532 0.14920013
00000000: 40ba e2bd 41e0 02be e00e 13bc a26f ca3b
00000010: 1787 013e 82b9 eebd 7efe b93d 32b9 21be
00000020: 0bdc 013c cc98 4cbd 7078 683c c1bb 5f3d
00000030: 0f44 00bf 49b1 563e eef0 4bbd 8dd3 dbbd
00000040: 44c7 353e 93a8 8abd bb98 443d 27cf bc3c
00000050: 9647 22bd 6982 59bd c0ef d6bc 7e6f dcbd
00000060: 3555 98bc 6df4 623b 5db8 c53d ef51 963d
00000070: a240 8cbe 7095 29be 2651 d13b 0958 af3c
00000080: c368 023d 8cfa 19be a25c c33c 9d22 29be
00000090: 6289 f9bc a191 373d 25bd 16be 6757 9e3d
000000a0: deb1 a13d 46b0 90bd 8e52 023e af78 1a3e
000000b0: 7922 97be c81b a63c b7d3 3a3d 4283 a2bc
000000c0: bc41 a23c 003d cfbd 58ce 0d3b 1bdd 533b
000000d0: 4076 b93c b8c1 dd3d a9da cd3d cbd1 103d
000000e0: 18b9 4bbe e42c 643d 4ebf 713d e7e5 073c
000000f0: f0f9 1a3e 82e0 133e 5f32 403a 0c4f 073d
00000100: 4608 d43d 379d 0d3e 9ef4 993d d556 b6bd
00000110: 9b69 653d 1fb4 8d3d a414 213d a1c0 0a3e
00000120: 54c5 433d bea4 bebd 83d2 173d 44c8 20bd
00000130: 3d41 2d3d 6e7e e63c 5e3c 94bd 17c0 6f3d
00000140: 3621 683d f0e3 67bd ee55 023c 67f6 93bd
00000150: 4e7f f0bd fab9 c43d 20e4 d63d ec93 e03d
00000160: b5f4 453d 5ac9 11bd e3a7 e13d 9698 fabc
00000170: d3a9 1cbe eb3b 0ebd 4e32 cabd a991 6bbc
00000180: 3d30 a4be 7aea 583d b01b 03bd 4483 463b
00000190: 0ac6 4c3e 7a64 a8bd 20c9 b63d 1257 c0bd
000001a0: 674c c0bd 29c8 b43b 5dbf 023c 578d 9f3c
000001b0: ab39 e3bd 0157 91bc fdf0 d93a 1966 95bc
000001c0: 86a5 b3be 667b 5cbc 0338 48bd 72e3 11bd
000001d0: e7a5 13bc 1eff 1fbe 27fa 033e f3a6 693c
000001e0: ba64 213c d9b3 8dbd acdb afbd e0b1 673d
000001f0: 9465 9dbd d9e1 b0bd cdb7 3d3b ec45 173e
00000200: 203e a2bd b3ac 383d c635 2f3e 8c20 02bd
00000210: 1bd5 8a3c 14a4 d83a 4d9f b0bd 14f3 2b3c
00000220: 2904 b2bd 27df 63bd b21e 08be 8301 9a3d
00000230: 9ab7 ecbd 9fb2 e1bd 2538 23bd 2b73 fabd
00000240: a7fc 993d 1c51 3ebc c223 663e 58f0 8e3d
00000250: 4d51 c13d 2e2d 49bd 150a 83ba 3935 66be
00000260: 1bdd 70bd 1716 da3d d158 26bb ddbf 923e
00000270: 2d9a 0dbd e6fd bcbc ae41 ae3d 7573 adbd
00000280: b266 963d 9e02 fc3c f2bd afbd 48a1 0d3e
00000290: cd51 b5bc 4f13 42bc 1ca5 f3bd d002 713d
000002a0: 4967 d2bd cfba 7bbd 6a0b 573d f446 693d
000002b0: 1a2f 82bd 6976 29bd e621 013e c74d d2bd
000002c0: 3e06 fabd 6cbe fabc 3466 10be 85d7 ed3d
000002d0: fae2 9ebe efe1 4b3e 7ef3 913d d71e 81bd
000002e0: 9a2f fabd 63df b9bd 81d0 963d 5f00 c4bc
000002f0: ba8a f5bc d634 05be c093 0c3e 2edc 44bd
00000300: e422 d5bd b129 f23c a904 a93c fca6 b93c
00000310: 1432 f0be bc07 f2bc 53ed 0a3d 88fd 8d3d
00000320: 4096 8d3d d05d b0bd 0b36 513d 1c3d bfbc
00000330: 1392 05bd 0c90 1ebd 6b3a 4bbd 9c6f ecbd
00000340: 7816 203d b14b 193d 64da c73d 608e 913d
00000350: 2d08 03bd 8b5d 3bbd 00c4 143e 0e45 bc3d
00000360: 788e 6abc 32ed 303c ebf7 3c3d 6f51 da3c
00000370: e451 713d b9f2 b1bc d427 9ebb ab4b c53d
00000380: 8389 13be 733d 17bd fe8a cfbc 565e e5ba
00000390: 4c40 ef3b 88d2 d53d 3a91 10be be14 b7bd
000003a0: c9aa 783d b69d 76bc 09ca 41bd 56a0 db3c
000003b0: fa2d 4e3d da1c 07bd ff05 ccbc d0dc 6f3e
000003c0: cd7f 2f3c 2767 ac3d 62ad 933d 9fc8 e0bd
000003d0: 96e5 22be 1c07 533d 0472 9cbd 7270 923c
000003e0: eb9a efbd 1b85 483d ccbf 82bd a141 55bd
000003f0: e04e debd 4e08 263d 70f7 e8bd ebc7 183e

network.4.bias f4 [21]
0.17011784 0.1718416 0.21194023 0.21768884 0.12574483 0.21699262 0.22597495 0.22094797
0.1818947 0.2046223 0.23107424 0.17837407 0.20604506 0.18153946 0.1664113 0.19172932
0.18250538 0.22669388 0.22609982 0.21592177 0.1944433
00000000: 5f33 2e3e 3ff7 2f3e dc06 593e d3e9 5e3e
00000010: 41c3 003e 5033 5e3e fa65 673e 2f40 623e
00000020: 9b42 3a3e 8288 513e ba9e 6c3e b1a7 363e
00000030: 7afd 523e 7be5 393e b967 2a3e b154 443e
00000040: b1e2 3a3e 7122 683e b686 673e 991a 5d3e
00000050: 251c 473e
