model/state_dict/my_qmix1.pt (torch, 248326 bytes, 10 tensors)

cnn.0.weight f4 [5, 5, 3, 3]
000000 1c 5b f6 bc a3 3e 75 3e 15 fd 06 be a4 ed f2 3e
       -0.030072741 0.23949675 -0.1318248 0.4744693
000010 81 b2 05 3d bf 06 27 3e 3f 07 45 be d5 91 05 be
       0.032640938 0.16311167 -0.19241045 -0.13043912
000020 a3 80 ba 3e 46 bb 14 be dc 97 b1 3e 72 e7 16 3e
       0.36426267 -0.14524564 0.34686172 0.14736727
000030 91 2a cc be f0 c6 38 3e 79 1d ff bd 9d 3b 48 3e
       -0.39876226 0.18044639 -0.12456793 0.1955399
000040 48 a8 fa bd d0 34 45 bd 42 cd d7 be cb 52 d6 be
       -0.12239128 -0.04814607 -0.42148787 -0.4186004
000050 c1 53 be bd 47 f1 d1 be 52 03 db bd 86 bf be 3e
       -0.092933185 -0.41004393 -0.10693993 0.37255496
000060 17 16 27 3c d3 7b ef 3d bc 03 0e be 1c 85 45 3e
       0.010198138 0.116935395 -0.13868612 0.19289058
000070 18 65 8f 3d 3e 4f fe 3c 51 56 3d 3e 7f a4 bc bd
       0.07001704 0.031043645 0.18489958 -0.09211063
000080 12 85 c2 bd be 4b 2c 3e ce 2b c0 be c5 81 0a 3e
       -0.094980374 0.16825768 -0.3753342 0.13526066
000090 69 8a 6d 3e 5a 50 92 bc 5d 03 05 3c 1f fe 6d 3e
       0.2319733 -0.01786058 0.008118478 0.23241471
0000a0 ec f0 02 3d 3d ac 09 3e 0d 47 41 be 08 ca 84 be
       0.031968042 0.1344461 -0.1887476 -0.25935388
0000b0 7e 8e 9f 3e d5 b3 94 3e fb d7 b5 bc b8 ab 29 bc
       0.311634 0.2904345 -0.022197714 -0.010355882
0000c0 5f ef 49 3d 3b 4c bf 3e c4 b6 77 be c3 53 36 3d
       0.049300548 0.37362847 -0.24190813 0.044513475
0000d0 fd 94 1f 3e 88 5d 05 be 60 23 bd bd 8b c4 f0 3d
       0.15584178 -0.1302396 -0.09235263 0.117562376
0000e0 e2 1a 65 be f7 8b a4 3d d5 11 45 be 92 d7 ec 3e
       -0.22373536 0.08034509 -0.19245084 0.46258217
0000f0 9d b3 31 3e 09 1b 13 3e eb a8 1a 3d 46 15 a3 bd
       0.17353673 0.14365782 0.03775875 -0.07963042
000100 42 64 ea 3e 38 e2 41 be af ed cd 3d 76 fa cd bd
       0.45779616 -0.18933952 0.100551 -0.10057537
000110 79 cc 02 3d 1a c8 98 be cb e9 3f be 83 ce 6d 3e
       0.03193328 -0.29840165 -0.18741529 0.23223309
000120 be d4 0d bd 27 c8 01 bc 79 c7 27 be d6 0d 25 3e
       -0.034626715 -0.007921255 -0.16384687 0.16118559
000130 ed 49 bc bd 20 6e 14 3e e2 5a 2c 3d 4b 7a 61 3b
       -0.09193788 0.14495134 0.04207886 0.0034405168
000140 4f b0 06 3e 00 a0 50 bd 82 12 48 be d8 b2 2b be
       0.13153194 -0.050933838 -0.1953831 -0.16767442
000150 01 92 2f bd 80 f4 50 3d d7 08 bb bd e5 56 c8 bd
       -0.04286385 0.051014423 -0.091325454 -0.09782199
000160 96 f6 90 3e 78 a4 2e 3f 26 e5 5d be cd 87 f4 3e
       0.2831313 0.6821971 -0.21669444 0.47759858
000170 68 1a ab 3d 08 1b 1f 3d 81 0c bd 3e 69 08 bd bd
       0.08354646 0.03884414 0.36923602 -0.0923012
000180 76 6a ef 3d 92 3c 04 be 88 c3 38 3e 8e 2e 07 bd
       0.11690228 -0.1291373 0.18043339 -0.033003382
000190 99 f7 e3 be ea aa f7 3d 4b ec 86 3d cf a2 79 3d
       -0.4452484 0.12093146 0.06588038 0.060946282
0001a0 c8 97 1c be b6 c2 51 3e cc b8 b7 3c 7f 84 bb bd
       -0.15292275 0.20484433 0.022426985 -0.09156131
0001b0 98 eb fc be b5 0f bf 3e ec 8a b2 3e 47 f6 f7 3e
       -0.49398494 0.3731667 0.34871614 0.48430082
0001c0 a4 9f 0d bf 81 d7 42 3e 77 62 32 be 6e ea 04 bf
       -0.5532172 0.1902752 -0.17420374 -0.5192021
0001d0 c4 8e 2a 3e df 79 84 3d c3 c5 2f bd 26 95 d9 bd
       0.16656023 0.064685576 -0.04291321 -0.10624151
0001e0 f8 a1 31 3e d3 0b 43 be 40 b7 76 bd 0a 79 d0 bd
       0.17346942 -0.1904748 -0.060233355 -0.10179336
0001f0 7a 1b 2d 3e 4a 64 7e bd b4 3d d1 be f6 21 40 be
       0.16905013 -0.06210736 -0.40867388 -0.18762955
000200 79 9e e0 bd 0f f4 6f 3d 7c d9 c1 3e ce 73 c3 bb
       -0.10967726 0.05858236 0.3786124 -0.0059647327
000210 5d be 8c bd 7c 95 89 bd 8f 63 11 3d d0 2c 97 be
       -0.068722464 -0.06717965 0.035495337 -0.29526377
000220 1d 61 e4 3d 6f 74 2b 3d a1 56 a7 bb af 6c 32 3e
       0.111513354 0.041859087 -0.0051067625 0.17424272
000230 9d e7 d4 be f5 2e 5e 3e 00 21 44 3e 9c 02 b2 bd
       -0.41582957 0.216976 0.19153214 -0.08691904
000240 ee 70 9b bc 55 fc cf 3e 02 19 1d 3e 44 54 cd bd
       -0.018974748 0.40622202 0.15341571 -0.10025838
000250 f6 33 95 be 4d 61 f1 bd 13 98 81 3e e8 4f b6 3e
       -0.29141206 -0.11786137 0.25311336 0.3560784
000260 e7 32 a9 bd 18 38 28 3d 3f a6 f9 3e d0 63 82 bd
       -0.08261662 0.04106912 0.48759648 -0.06366694
000270 00 e2 cb be 9b 27 78 bd 2e 6e 82 3e 83 1c 8b bd
       -0.39820862 -0.060584646 0.25474685 -0.067925476
000280 2f c1 bf be 59 d9 a9 bd 28 f1 42 be e6 55 3a be
       -0.37452075 -0.08293409 -0.19037306 -0.1819683
000290 9c 1d ab 3d 1d 1a 4d 3e 0a eb 3b 3e 29 94 38 bd
       0.08355257 0.20029493 0.18351379 -0.04506317
0002a0 36 e3 e1 3d 21 b7 69 3e 92 29 45 3d d7 4d 97 bc
       0.11029665 0.22823764 0.048135348 -0.018469734
0002b0 82 8f d4 be c2 ca b1 3e f3 d1 ba 3e b4 a4 ad 3c
       -0.41515738 0.34725004 0.36488304 0.0211967
0002c0 80 7e 88 be 8b 7e da be 06 99 12 be 80 2d f0 3d
       -0.26659012 -0.4267467 -0.14316186 0.117274284
0002d0 45 9b 0b bd 17 5a 03 be 51 1a 3f 3e fa 25 23 3d
       -0.034083623 -0.12827335 0.18662383 0.03983114
0002e0 8d d4 3d be 21 d3 5b 3c e6 3f 7c be dc 16 76 bd
       -0.18538113 0.013417036 -0.2463375 -0.060080394
0002f0 02 75 a4 be d5 24 11 3d 64 3c 47 3e 01 62 70 3e
       -0.3212052 0.035435516 0.19456631 0.23474886
000300 4b 14 b9 be dc 8e d1 bd 14 c0 5d 3c cd b8 31 be
       -0.36148295 -0.102323264 0.0135345645 -0.17355652
000310 09 3e 88 be a3 21 12 3d cb e8 0a bd bd 18 89 bd
       -0.2660983 0.03567661 -0.033913415 -0.066941716
000320 db 64 75 be 1d f5 13 be 02 c0 e5 3d cc b4 22 be
       -0.23964255 -0.14448972 0.11218263 -0.15889281
000330 93 e2 16 3e 56 f1 ee bc 92 dd 3b be f1 19 00 3f
       0.14734869 -0.029167812 -0.18346241 0.50039583
000340 3b 53 02 be f7 e4 bf bd 89 15 e7 3e 4f b1 1a bf
       -0.12727062 -0.093698435 0.45133618 -0.604268
000350 35 c0 1b 3e c5 3a 07 3e 8a b1 16 3e 2c 5c 2b be
       0.1521004 0.13206013 0.14716163 -0.1673438
000360 c1 fc 3f bd fb 7c 45 3d 3b ce 38 be f1 c5 c0 3d
       -0.046871904 0.048214894 -0.1804742 0.09412754
000370 16 5c ce 3d ea ab 23 be a2 87 1d 3b 9c 51 70 3e
       0.10076158 -0.15983549 0.0024037142 0.23468632
000380 cd 64 d6 bd
       -0.10468445

cnn.0.bias f4 [5]
000000 81 bd 2f 3d a0 12 27 3d da 20 1a 3d 66 97 28 3d
       0.042905334 0.040789247 0.037628986 0.04116001
000010 7d 86 25 bd
       -0.04041146

cnn.2.weight f4 [5, 5, 3, 3]
000000 70 6d 4d 3e 3b eb df 3d 72 9e 06 be 51 89 83 be
       0.20061278 0.109335385 -0.1314638 -0.25690702
000010 fd e5 05 3c ed a7 3f bd 56 5f da bd 20 1c c2 3e
       0.008172509 -0.046791006 -0.10662715 0.37912083
000020 2c 49 93 3e 58 6d 06 3f 7d 3c d7 3d b0 d1 e7 bc
       0.28766763 0.52510595 0.10509584 -0.028298229
000030 ee 07 d9 be 19 05 a3 3d eb 1e fc 3d 7e e2 8c bd
       -0.42388862 0.07959957 0.12310585 -0.068791375
000040 e2 eb 3f be 1a 3d 0f 3e 06 19 5f 3e 2f 39 4d 3e
       -0.18742326 0.13988152 0.2178689 0.20041345
000050 f8 17 bc be 6c a6 84 3e ff e8 75 3c 00 eb ad bc
       -0.36737037 0.2590822 0.015009164 -0.02123022
000060 a9 53 0f 3d 36 04 aa bc 8f 54 cc 3d d7 a7 e7 3c
       0.034991894 -0.020753961 0.09977066 0.028278274
000070 99 84 0f 3d 30 a7 88 3e 90 e0 27 3e 67 63 57 3e
       0.035038564 0.26690054 0.16394258 0.21034013
000080 f5 2f 58 3a 96 b3 08 be 32 47 06 3e ca 4f 24 3e
       0.0008246892 -0.13349757 0.13113096 0.16046062
000090 cc 51 c2 3e fc f4 86 bd 9a 41 4b be 52 fd 19 3e
       0.3795303 -0.06589696 -0.19849244 0.1503804
0000a0 0f 9f 3d be 41 15 19 3e 85 81 17 bd 8c 43 c1 bb
       -0.18517707 0.14949514 -0.036988754 -0.005897945
0000b0 57 03 d5 3e 03 7b 87 3d 1b 0e 3c bd c7 81 78 3e
       0.4160411 0.066152595 -0.04591189 0.24268256
0000c0 a1 54 35 3e dd e6 7c 3e 7c 0b 69 3d 2a 0f f9 be
       0.17708065 0.24697442 0.056895718 -0.48644382
0000d0 e6 1b c3 bd e5 57 5b bd e4 05 28 3e 28 fd 7b bd
       -0.095268056 -0.05355062 0.16408497 -0.061520725
0000e0 61 97 44 be c1 e9 92 bd cc 34 5a 3d f4 93 17 3e
       -0.19198371 -0.07173491 0.053273007 0.14802533
0000f0 24 aa a0 bd 4b 46 82 3e 97 4f d4 bc cb fc 25 bd
       -0.07844952 0.25444254 -0.025916858 -0.040524285
000100 56 5b 0f 3f 86 2d a9 3e 48 9f ba 3c c3 23 66 3d
       0.5599874 0.33042544 0.02278103 0.05618645
000110 5f 01 8e 3e 1c 04 b1 bd d3 74 df 3d bf 87 5b 3d
       0.2773542 -0.08643362 0.10910954 0.053596254
000120 bd 86 8e be 5c 02 55 be 97 ee 2d be 18 96 e6 bd
       -0.27837172 -0.20801681 -0.16985546 -0.11259097
000130 9f ff 6d 3e 0d b8 ef 3e eb 9e 79 3e 62 26 8a 3e
       0.23242043 0.46820107 0.24377029 0.2698241
000140 4c ef 20 3d 68 12 6e bd 65 a8 fc 3d 0c 4b 26 bf
       0.03929071 -0.058123022 0.12336806 -0.6495826
000150 aa 6c d9 3e b7 3a 4b bd 9b 04 80 bc 8b 64 b9 be
       0.42465717 -0.04961654 -0.015627196 -0.3620952
000160 7e cf c1 bd 72 3b 5e 3e 2a c3 73 bd cc d3 9b be
       -0.09463404 0.21702364 -0.059512295 -0.30435026
000170 40 b5 db bd 47 66 97 bd f1 d8 2d 3c eb 65 71 bd
       -0.1072793 -0.07392555 0.010610805 -0.058935087
000180 3a a3 32 3e 02 d6 ca bd b0 ab 79 be c9 ab 7a be
       0.17445078 -0.099041 -0.243819 -0.24479593
000190 42 d5 c8 3d 2f d3 a5 3c b5 6c d4 bd 4c 77 72 3e
       0.09806301 0.020242302 -0.10372297 0.2367832
0001a0 5d ca 77 be 5c 5c 1c 3f 1c eb 82 be 80 90 73 bd
       -0.24198289 0.6107843 -0.2557 -0.059463978
0001b0 12 29 4d bd b2 3a d2 3d 63 7d 8f 3e 4b 9c b8 ba
       -0.050087996 0.102651015 0.2802535 -0.0014084665
0001c0 56 bf 22 3e ea d8 b7 bc fe bb 66 3e 5c e4 86 be
       0.15893301 -0.0224423 0.22532651 -0.263461
0001d0 81 7a 6b 3d 15 a0 1c 3d 75 40 a7 3d c5 63 66 3e
       0.057489876 0.038238604 0.08166591 0.22498997
0001e0 e4 89 68 3e 8b 80 24 3e 25 ad 32 be 30 f5 98 be
       0.22708851 0.1606466 -0.17448862 -0.29874563
0001f0 b2 31 86 3d aa 9c ae 3e d3 2a b2 3d 07 d9 3f 3d
       0.065524474 0.341039 0.08699574 0.046837833
000200 f7 15 37 3d 39 a6 f7 bc 7b 79 5d 3d a7 72 0d be
       0.04469868 -0.030230628 0.05407093 -0.13813268
000210 65 7e a1 3d f7 24 32 be 72 dd ae be 87 02 01 3e
       0.07885436 -0.17396913 -0.34153324 0.1259862
000220 e5 30 20 3e 2b 29 d6 3e cd c0 6d 3e 41 c2 b3 3d
       0.15643652 0.41828284 0.23218079 0.08777285
000230 6e 18 24 3e a7 73 98 3d 40 ea 19 3e 66 cd 01 bd
       0.16024944 0.07443934 0.15030766 -0.031690024
000240 d8 68 77 be eb 63 c1 3e 94 32 92 3e 14 3a 51 be
       -0.24161088 0.37771544 0.28554213 -0.20432311
000250 55 11 14 3f 87 74 82 3e a6 0d 87 3e 84 36 97 3d
       0.57838947 0.25479528 0.263776 0.07383445
000260 50 1e e0 bc 71 0a 14 3e 08 2e a1 3d 98 00 9f bd
       -0.027358204 0.14457108 0.07870108 -0.07763785
000270 bb f3 83 be 81 29 8c bd e1 ce a0 be f1 05 e8 3e
       -0.2577189 -0.06843854 -0.31407836 0.45317033
000280 e4 eb 89 3e 82 95 a5 3d 26 2e 7b bd dc 6d 51 bd
       0.26937783 0.08085157 -0.061323307 -0.05113016
000290 c0 b6 86 3d 87 41 8d 3e 27 28 fb bd 30 ae c0 3e
       0.065778255 0.27589056 -0.12263518 0.37632895
0002a0 0f 85 07 3f dd c6 09 be a7 4d d8 3d 4f 51 8a bd
       0.52937406 -0.13454767 0.10561686 -0.0675379
0002b0 a9 87 93 3e b1 c1 52 bc f0 08 52 be 83 9f bb 3d
       0.28814438 -0.012863562 -0.20511222 0.09161284
0002c0 9c ce 11 bd ae 21 45 3d f4 67 a4 be 00 5e 42 3d
       -0.03559743 0.048127823 -0.3211056 0.047452927
0002d0 c5 1a ae 3e 65 19 f2 3e ad 33 e2 3e ab e3 35 be
       0.340048 0.47285 0.4418005 -0.1776263
0002e0 b5 d9 d1 3c c7 02 a3 3d 1f 62 4f 3d d0 a2 2d be
       0.025616506 0.07959514 0.050630685 -0.1695664
0002f0 38 c7 10 3b 98 6d 0a be 9e 2d d5 3d 6c 13 21 bd
       0.00220914 -0.13518369 0.104090914 -0.039325163
000300 bf f8 6b 3e fc 0c 80 be c8 e4 2d 3d aa cf 9d be
       0.23044108 -0.25009906 0.04245451 -0.30822498
000310 d0 d4 08 3e e4 ff 97 3e 5b 05 6b 3e ea 77 09 be
       0.13362432 0.29687417 0.22951262 -0.1342465
000320 95 eb cb 3e bb 61 f8 bd 96 88 eb 3d eb 81 55 be
       0.39828172 -0.121280156 0.11500661 -0.20850341
000330 92 4d 3b be cc ae 54 3d 77 e9 4f be 69 ae 11 bd
       -0.1829131 0.05192451 -0.20303904 -0.03556672
000340 a7 fa 0b be f7 37 25 bd 12 cf 88 be 19 b7 cb be
       -0.13669835 -0.040336575 -0.26720482 -0.3978813
000350 33 ec 27 bf 17 c0 2e be 41 7f 81 be ca b8 e4 bd
       -0.65594786 -0.17065464 -0.252924 -0.11168058
000360 bb 82 13 3f ca 2d 31 3d 69 78 45 be 02 e6 a7 bd
       0.57621354 0.04325656 -0.19284214 -0.081981674
000370 7a 0d c4 3b e5 da b3 3c 7b f7 b7 3d 8f a3 8a 3e
       0.005983052 0.021954963 0.0898275 0.2707791
000380 e9 0d 0f be
       -0.1397015

cnn.2.bias f4 [5]
000000 52 42 2c 3d 06 fa 26 3d 87 dd 2c 3d 47 c9 3f 3d
       0.042055435 0.040765785 0.042203452 0.046822812
000010 eb 50 2e 3d
       0.04255764

network.0.weight f4 [120, 405]
000000 59 7b 3e 3e 15 a1 13 3e 3d c5 06 3e 79 6d 67 3d
       0.18601741 0.14416917 0.13161178 0.056500886
000010 4b 8a 02 3c 77 fe 91 3c bd a5 fc 3d a8 25 de 3c
       0.007967542 0.017821534 0.123362996 0.027117565
000020 f1 55 16 3e 59 77 f7 bd 15 b2 d2 3d a2 11 32 3d
       0.14681222 -0.12083311 0.10287873 0.043473847
000030 80 50 c0 bd 29 fb 36 3c 92 7f 78 3d b5 8b 98 3d
       -0.09390354 0.01116828 0.060668536 0.07448522
000040 74 62 60 3d 44 13 7a 3d 35 af 66 3d be f9 73 3d
       0.054781392 0.06105353 0.056319434 0.059564345
000050 ad e8 0d 3e a8 c9 84 3d 5e a5 51 3e 46 25 0c bc
       0.1385829 0.064837754 0.20473239 -0.008553809
000060 a5 e1 a5 3b 6c 80 ff b9 15 62 15 3e 9a 6e ee 3d
       0.0050622993 -0.00048733072 0.14588197 0.11642189
000070 61 52 b9 3d 51 cc 41 3d 33 7b 15 3d 2a 68 9a 3d
       0.09048916 0.047313992 0.036494445 0.07539399
000080 58 a1 81 3d 08 23 4b 3d a5 ad ec 3d 05 ee 37 bc
       0.06329602 0.049593955 0.115565576 -0.011226182
000090 56 8d 00 bd f9 9a ca 3d 4c a2 93 bd c7 20 85 bc
       -0.03138479 0.0989284 -0.0720869 -0.016250981
0000a0 5d c7 e3 3d 97 a4 d0 3d a3 07 d9 bd 41 a0 dc 3d
       0.1112201 0.10187643 -0.1059716 0.107727535
0000b0 09 98 55 bc a8 8f 90 3d 57 b9 df 3d 54 92 0b bd
       -0.013036736 0.0705865 0.10924023 -0.034075096
0000c0 9d 5c 85 bd d5 89 f8 bb 05 c9 25 3e 14 38 77 3e
       -0.06511805 -0.0075847902 0.16189964 0.24142486
0000d0 55 cf a5 3d 3e 64 c0 bd 92 12 4a 3d 32 6a f6 3d
       0.08096186 -0.0939412 0.049334116 0.12031974
0000e0 f1 f6 ac 3d 63 62 b7 3d e2 4f c7 3b 38 1a 4d 3d
       0.08445538 0.08954313 0.006082521 0.050073832
0000f0 45 7d d8 3c 3a 64 0c 3e 95 9d 0a 3d cd 57 3f 3c
       0.02642692 0.13710108 0.03384169 0.011678648
000100 73 d7 b8 ba 10 20 5d bd a6 9b df 3d 1f 37 07 bd
       -0.0014102295 -0.053985655 0.109183595 -0.033011552
000110 5d 63 60 3d eb bb 90 3d a4 d0 05 3e c6 49 cc 3d
       0.05478226 0.070670925 0.13067871 0.09975009
000120 9c 80 bf bd 8b d0 41 3e 3d a1 50 3d aa 03 5d 3c
       -0.09350702 0.18927209 0.05093502 0.013489643
000130 e2 8a 83 3d 20 30 11 3d 6a 17 22 3e b4 8a 56 bd
       0.06422974 0.035446286 0.15829244 -0.05237837
000140 71 e3 ba 3d 59 b2 7c 3d 68 ad 7e 3d 5e a6 80 3d
       0.09125412 0.061693523 0.06217709 0.06281732
000150 26 eb ae 3b e4 f5 51 bd 09 b9 88 bc 45 af 19 bd
       0.0053380905 -0.05125989 -0.016689794 -0.037520666
000160 52 95 d0 3d 38 f3 08 3e 3e c6 c5 bc e5 90 ee 3d
       0.101847306 0.1337403 -0.02414238 0.1164873
000170 67 9f 33 3d d1 fc 0d 3d a8 ca 32 3d f0 b5 93 3c
       0.04385319 0.034664933 0.0436503 0.01803109
000180 5e b9 d2 3d a2 70 a5 3d 4c c5 71 bd 21 da 96 3d
       0.10289262 0.08078124 -0.059026048 0.073658235
000190 f0 4e 46 bd a4 ff 95 bd 02 8b 6b 3d 51 67 9a bc
       -0.048415124 -0.0732415 0.057505615 -0.018848093
0001a0 3d 97 f5 3a 10 5c 43 bd 46 24 18 3d 25 93 b6 bd
       0.0018737089 -0.04769522 0.037143968 -0.08914784
0001b0 21 77 32 3d 23 59 ba 3d 3a a5 a7 bd 82 1c 81 3d
       0.04357064 0.09099033 -0.08185811 0.063042656
0001c0 83 cc b3 3d 7a 93 6c 3d bb d1 24 3d 04 75 95 ba
       0.08779242 0.057757832 0.040239077 -0.0011402671
0001d0 5b f7 a9 bc 88 69 41 3d ac d3 d9 bc 5f c8 ae 3d
       -0.020747831 0.047219783 -0.02659019 0.085343115
0001e0 7c 00 9a bd 5b 42 5a 3d d3 a2 2d 3d 19 bb 1e bd
       -0.07519624 0.053285938 0.04239161 -0.03875265
0001f0 b4 64 34 3e e3 27 5b 3d dc 6f bd 3b 0d 29 ad 3b
       0.1761654 0.053504836 0.005781157 0.0052844347
000200 10 bc 37 3d c8 79 f3 3d 58 6d c2 bd 46 f1 2e bc
       0.044857085 0.11888462 -0.09493512 -0.010677641
000210 2a 14 6b 3c 16 b5 3c bd 9e 39 2e bd e2 e8 c7 3d
       0.014348069 -0.046071135 -0.042535417 0.09761216
000220 c6 f1 02 3e 6e 96 81 3c e9 a5 fb 3d f8 43 86 bb
       0.12787542 0.0158188 0.12287504 -0.004097458
000230 25 4a ad bc 86 25 aa bc 1d ca 97 3d 22 cd 25 3e
       -0.021153519 -0.020769846 0.07411597 0.16191533
000240 3d ee 6d 3d b0 91 79 3c be dc 39 3d 9d 8e bf 3d
       0.05808853 0.0152324885 0.04537653 0.09353373
000250 6d 85 16 3e 8d 99 31 bd 30 60 58 bb 3b 1b 87 bc
       0.14699335 -0.043359328 -0.0033016317 -0.016492477
000260 2c 8d b6 3d ca b0 81 3c 76 66 29 3d 1b 2d 16 bd
       0.08913645 0.01583137 0.04135748 -0.03666411
000270 38 53 01 3e 81 57 0a 3c 79 3d e7 3c f7 99 90 3d
       0.12629402 0.008443714 0.028227555 0.070606165
000280 a7 23 00 3e 9d 09 6f 3d 0c 48 2b bd 7b ed d7 3c
       0.125136 0.058358777 -0.041816756 0.026358357
000290 cd f3 14 3e b2 25 e3 3d bb b8 4a b9 67 de d9 3d
       0.14546128 0.11091174 -0.00019333039 0.10638123
0002a0 7c 4d 2b bc 69 55 3f 3e fb 24 fb 3d 76 4c 96 3d
       -0.010455485 0.18684925 0.12262913 0.073388025
0002b0 44 f7 61 3d fd 02 d3 3c 5a ec b1 3d 9e f4 9b ba
       0.05516745 0.02575826 0.086876586 -0.0011898463
0002c0 ba 23 ad bc 32 3b 27 bd 13 15 69 bc 26 74 81 3c
       -0.0211352 -0.040827937 -0.014226216 0.015802454
0002d0 fe a9 7e 3e 8c 90 a1 3d e8 58 35 3c 69 b5 9f 3c
       0.24869534 0.07888898 0.01106856 0.019495683
0002e0 9e e2 e1 bd 16 36 81 3d 47 94 24 ba 68 80 ae 3d
       -0.11029552 0.06309144 -0.00062781986 0.08520585
0002f0 25 c1 e9 3c f6 ac 55 bc a0 85 50 bc 68 70 57 3d
       0.028534481 -0.013041725 -0.012727171 0.052597433
000300 9e 8d 2f bd 15 95 5c bb ef da 72 3d c1 4b b4 3d
       -0.042859666 -0.0033658196 0.059290823 0.088035114
000310 ad 4e 72 3d b3 cf 1b 3d 76 78 7f 3d e9 c4 df 3d
       0.059157062 0.038039874 0.06237074 0.109262295
000320 06 cf b2 3d 1c 53 a7 3c 1f 7f e4 bc db ec 5b 3d
       0.08730893 0.020425372 -0.027892647 0.05369268
000330 be 1e 46 3d c7 a2 2f 3e 60 d2 bb bd 3f a9 49 3d
       0.04836916 0.17151938 -0.09170985 0.04923367
000340 f4 5f db bd 36 f0 9a 3d 72 5a 62 bc 7d 76 d5 3d
       -0.10711661 0.07565348 -0.013815509 0.104229905
000350 fa 04 00 3d 09 50 2e 3e a0 bd c8 3d c1 52 57 bd
       0.031254746 0.17022718 0.09801793 -0.052569155
000360 6d 2d 35 bd 60 b1 a2 3c 5c ce cb 3d 8d f1 c4 3d
       -0.044232775 0.01985997 0.09951469 0.09616385
000370 57 98 ad 3d 15 39 d4 3d ff 8f 6c bc 55 12 05 3e
       0.08476322 0.1036245 -0.014438628 0.12995274
000380 34 9c 95 3d 0d 64 8d bc 0c 4b 0f 3d 40 a9 f4 bc
       0.07305184 -0.017259622 0.03498368 -0.029865861
000390 c2 81 62 3d b2 cc ae bc 9c 01 1c 3e 93 22 82 3d
       0.055299528 -0.02133784 0.15234989 0.06354251
0003a0 fb a6 0f 3e 92 c5 0e 3e 5a a8 0d bd 68 62 84 bc
       0.14028542 0.13942555 -0.03458438 -0.016160205
0003b0 c4 36 8c bc 0b d9 59 3d 37 2c db 3d 84 e7 18 3c
       -0.017115958 0.053185504 0.10701793 0.009332541
0003c0 be d7 16 3d af 27 be 3d 2e 81 cd bc 15 e2 bc bd
       0.03682684 0.09284913 -0.025086012 -0.09222809
0003d0 44 4a 8f 3d 0c 3a 3e 3e 81 79 64 3b f2 ea 04 3d
       0.06996587 0.1857683 0.003486246 0.032450624
0003e0 85 45 cd 3d a4 f0 c0 3d c5 69 ec bd 2d 48 e0 3d
       0.100230254 0.094208986 -0.115436114 0.109512664
0003f0 85 a5 13 3e 4b 52 98 bc 18 a5 8e ba 23 c9 be 3d
       0.1441861 -0.018593928 -0.0010882942 0.093157075

network.0.bias f4 [120]
000000 db 5c 59 3d 14 a3 70 3d ee be 31 3d ca 32 24 3d
       0.05306707 0.058749273 0.043394975 0.0400875
000010 db 26 c5 3c 9b c2 4a ba b8 c5 39 bc 8c 43 63 3d
       0.02406638 -0.0007734687 -0.011338644 0.05548434
000020 34 49 86 3d c0 0e 3e bb fc ae 23 3d a3 f1 59 3d
       0.06556931 -0.002900049 0.0399618 0.05320896
000030 4b e3 4e 3d ac 8c 85 bc 44 e5 5a 3d 8a f6 75 bc
       0.050509732 -0.01630243 0.0534413 -0.015012393
000040 e7 ab 43 3b 6e 34 50 3d 75 38 33 3d c2 1e 15 3d
       0.00298571 0.05083125 0.043755013 0.036406286
000050 18 6e 73 bc 92 a0 4a bb 5e 52 48 3d a7 40 72 3d
       -0.014857791 -0.0030918461 0.048906676 0.05914369
000060 00 1a 29 3c 29 64 5e 3d 31 d0 89 3d f7 a6 71 3d
       0.01032114 0.05429474 0.067291625 0.05899712
000070 82 24 56 3d 5f 78 4b 3d c4 a6 8a bc c5 93 6f bc
       0.05228091 0.04967534 -0.016925223 -0.014622633
000080 27 52 53 3d 0b 72 21 bc 01 26 32 bb 40 8d 59 3d
       0.05159202 -0.00985385 -0.0027183297 0.053113222
000090 c2 01 81 bc da b2 6c 3d 17 da 40 bc 66 dd 31 3d
       -0.015747909 0.057787754 -0.011770747 0.043424033
0000a0 42 54 5b 3d 05 80 5e 3d 74 6a 5b 3d 9b 97 5b bc
       0.05354715 0.054321308 0.05356832 -0.013402845
0000b0 51 e2 3a bc bc 84 4d 3d a3 da cf bb 22 4e 6a 3d
       -0.011406497 0.050175413 -0.006343202 0.05720342
0000c0 07 e4 65 3d 4e af 6e 3d d2 3e 52 bc 8d 19 82 bc
       0.056125667 0.058272652 -0.01283236 -0.015881324
0000d0 d8 4b 17 3c 37 6e 88 bc ff e1 6b 3d 64 3d 68 bc
       0.009234391 -0.016654117 0.057588574 -0.014174793
0000e0 f0 5c 37 3d 4e 78 8f bc 11 33 e6 bb c9 10 57 3d
       0.044766366 -0.01751342 -0.0070251306 0.052506242
0000f0 4b 40 fe bb 5e ad 90 bc f5 37 71 bc 0e 49 53 3d
       -0.007759129 -0.017660793 -0.014722814 0.051583342
000100 75 75 9e 3c d5 c6 42 bc 38 60 6c bc 5f 95 6f 3d
       0.019343117 -0.011888226 -0.014427237 0.05849206
000110 0d 3b 66 3d 92 c5 5c 3d 44 56 7e bc 37 7a 55 bc
       0.05620866 0.053899355 -0.015523497 -0.013029627
000120 47 81 7d 3d a3 a8 2c bc 44 30 56 3d d9 f9 67 bc
       0.061890867 -0.010538253 0.052292123 -0.014158689
000130 4d 7e 6d bc 9f 74 55 3d 5c fd 57 3d 23 54 8a bc
       -0.0144954445 0.05211317 0.052731857 -0.016885823
000140 e5 4f 6b bc a6 df 62 3d 56 3d 3e bc 58 91 41 bc
       -0.01436231 0.05538907 -0.011611303 -0.011814438
000150 8f b9 7c 3d ff 0e f6 bb c6 b1 55 3d b3 25 34 3d
       0.0617004 -0.007509112 0.05217149 0.043981265
000160 d6 72 5a 3d 47 24 4c bc f0 54 74 3d 7d 5f 7d bc
       0.053332172 -0.012459821 0.059651315 -0.015464661
000170 50 69 7d bc 4e 14 8d 3d 7a 7f 59 3d c8 d8 64 3d
       -0.015467003 0.068886384 0.053100087 0.0558708
000180 87 e7 77 3d 59 a5 55 3d ac 81 3e bc ca 26 2d bc
       0.060523536 0.05215964 -0.011627596 -0.01056833
000190 fa 2c 90 bc e8 10 10 bb 43 9f 56 3d a3 bb 44 bc
       -0.017599571 -0.0021982733 0.052397978 -0.012007627
0001a0 0b 7f a8 3b a8 a5 59 3d 59 dc 58 3d ff cd 9d bc
       0.005142098 0.053136498 0.052944515 -0.019263266
0001b0 be c6 57 3d ec 51 4c 3d 7f 4c 4e 3d ca a9 62 3d
       0.05267977 0.049882814 0.05036592 0.055337705
0001c0 82 96 de bb 0a 25 6f 3d 10 a0 d7 bb 39 a0 5a bc
       -0.0067928443 0.058384933 -0.0065803602 -0.013343864
0001d0 63 af 5b bc 2e c0 16 3d da 44 7f bc 87 c2 67 3d
       -0.013408515 0.03680437 -0.01558038 0.056582

network.2.weight f4 [84, 120]
000000 36 a1 bf 3e 00 1b 9d 3d 26 8a 86 3c 7c f7 46 3d
       0.37427682 0.076711655 0.016423296 0.048575863
000010 3f e5 26 bd 43 2c 45 3e 9f 62 8e bd f2 88 c5 3b
       -0.04074597 0.19255166 -0.06952404 0.006028288
000020 2c f2 ee 3d 05 5c 0a 3e b9 25 66 bd 02 4e d7 3d
       0.11667284 0.13511665 -0.05618832 0.10512926
000030 aa 61 53 bc 35 7a 84 3c 4c 19 3e 3e 33 08 8b bd
       -0.012901703 0.016171554 0.18564337 -0.06788673
000040 0c 8f 33 3d 0d 9d 2e be e7 0d e3 bd 3b b8 e7 3c
       0.043837592 -0.17052098 -0.11086636 0.02828609
000050 9b 67 fe 3d 16 b5 d4 3d ac c3 85 3e 4c 81 68 3e
       0.12422105 0.10386102 0.26125848 0.22705573
000060 ff 3f a8 3c 78 37 8c 3c d9 39 be bd b9 8f 98 3e
       0.020538328 0.017116293 -0.09288377 0.29797152
000070 9f 43 14 3d e1 37 44 3e 91 73 d0 bd 14 5d 9d 3d
       0.0361973 0.19161941 -0.101782925 0.07683769
000080 87 57 bc 3c 89 33 d2 3d 9e f0 7a bd 87 2b 0a 3e
       0.022990955 0.10263736 -0.061264627 0.13493167
000090 69 aa 5e bd cc d7 c5 3e f8 5b 18 3e 86 59 4c 3d
       -0.054361735 0.38641202 0.14878833 0.049890064
0000a0 d2 dd ff 3c fe 2c e1 3d 5e 16 9d 3e 33 f9 b2 bd
       0.031233702 0.1099491 0.30681127 -0.08738937
0000b0 17 1b 24 bd f3 55 b6 bd 4b b7 9a 3c 76 1c 4f 3e
       -0.040064897 -0.08903112 0.018886229 0.202257
0000c0 67 ee bc bd ae 1a ed 3d 89 31 7a 3d aa c7 a0 bd
       -0.09225159 0.11577354 0.061082397 -0.07850583
0000d0 13 73 2c be a8 41 89 be 77 72 26 3e 8a d4 07 bd
       -0.16840772 -0.26807904 0.16254602 -0.033161677
0000e0 43 9e bb 3d db 00 ec bd d9 29 d8 bd eb d5 9d 3e
       0.091610454 -0.11523601 -0.10554857 0.3082727
0000f0 7e ff 70 3e bd 4e 96 3b 53 9d 13 3e 38 fe cc 3d
       0.23534963 0.004587023 0.14415483 0.10009426
000100 fa ab 67 3e cb a1 54 3d 75 f8 39 3e 6d 91 29 3d
       0.22624198 0.05191211 0.18161185 0.041398454
000110 32 a2 8e 3d 00 83 21 3e fe 2b ba bd e4 2f a9 bd
       0.0696453 0.15772629 -0.09090422 -0.082610875
000120 7b 32 f5 3d 4d a6 09 3d 49 24 99 ba 9f f8 4c bb
       0.11972519 0.033605862 -0.0011683787 -0.003127612
000130 45 d5 3f 3d e8 89 6e 3c d2 70 03 bd 24 dd 5f 3e
       0.04683425 0.014559247 -0.032090016 0.21861702
000140 d0 94 94 3d 6f a3 28 3e e1 e2 c3 bd a1 fb 9c bd
       0.07254946 0.16468595 -0.09564758 -0.07665182
000150 71 4f a8 3e c0 94 88 bc fc 4e b5 3e 79 41 03 3e
       0.3287311 -0.016672492 0.35411823 0.12817945
000160 2c 01 49 3b 12 da 35 bd 76 05 96 3e 5e d8 21 3e
       0.0030670865 -0.04439742 0.2930104 0.15805194
000170 db 51 05 be 85 18 c7 3e 5c e9 03 bd 08 74 95 3d
       -0.13019507 0.38885894 -0.03220497 0.07297522
000180 8a 22 26 3e 78 49 b7 bd fe 45 a4 bd 11 ff 03 3d
       0.16224113 -0.0894956 -0.080211625 0.032225672
000190 06 e1 50 3e 63 9a 27 3c 8e fb 67 3e 17 69 76 3d
       0.2039834 0.01022968 0.22654554 0.060158815
0001a0 d8 5c ba 3d ec 23 07 be 42 02 b9 bd bc 32 8d 3c
       0.0909974 -0.13197297 -0.09033634 0.017236106
0001b0 0f 31 8d 3d 2f 56 6e 3e 61 74 2a bd ac a7 e0 bc
       0.06894123 0.23275064 -0.041614894 -0.027423702
0001c0 63 d6 c6 bd 43 8e 74 3e 13 eb 94 3e eb 8f 19 3d
       -0.0970886 0.23882394 0.29085597 0.037490766
0001d0 ae 72 51 be fa 20 11 3e e2 f2 bf 3d fb 04 21 3d
       -0.20453903 0.14172736 0.09372498 0.03931139
0001e0 81 b5 25 3e f9 34 1c 3e a4 d8 8f 3d 4f 7c 86 bd
       0.1618252 0.15254582 0.07023743 -0.06566679
0001f0 43 88 f5 3d a8 e0 20 3d 53 51 81 bd 88 f3 05 3e
       0.119888805 0.03927675 -0.063143395 0.13081181
000200 6f 7a 4f be 08 06 45 bc 50 13 09 bc 10 88 90 bd
       -0.20261548 -0.012025364 -0.008366421 -0.07057202
000210 97 9b fc 3a 46 8a ab be 25 36 4c 3d 36 d8 2c 3e
       0.0019272444 -0.33503932 0.049856324 0.16879353
000220 1b 1c ca 3d 72 69 ba bd a0 79 76 3e c5 5f 88 3a
       0.09868642 -0.09102143 0.24069834 0.0010404518
000230 5f 11 ca bd b4 38 f6 bc b4 91 3d bd 29 a8 ea bd
       -0.098665945 -0.030056335 -0.04628153 -0.11457855
000240 ee 51 6f be 6f 37 9d 3e f3 6e 9a 3e fa 97 23 be
       -0.23371097 0.30706355 0.30162773 -0.15975943
000250 29 c4 4d 3d 1a 98 34 be bf 63 f1 bd 0e 8b b1 be
       0.0502359 -0.17636147 -0.11786603 -0.34676403
000260 5a 70 11 3e 8e 89 75 3e 0c f1 87 3d e3 f4 58 3e
       0.14203015 0.23978254 0.06637773 0.21187167
000270 38 5e b7 3d c7 f6 19 3e 62 2c d8 3c 6f 09 b9 3d
       0.08953518 0.15035544 0.02638835 0.090350024
000280 2e 35 8b 3e 94 bc 1a be 38 f1 bd bc df 63 18 3e
       0.2718901 -0.15111 -0.023186311 0.14881848
000290 fe b8 6f 3e a9 5e 17 be 86 24 cb bd e2 1b c6 3d
       0.23410413 -0.14782204 -0.09919076 0.09673287
0002a0 0f eb 67 3e 6f fb 08 3e 05 37 36 bd 07 96 e1 bd
       0.22648261 0.13377164 -0.044486064 -0.110149436
0002b0 a8 a5 0f 3d 7a 21 23 3e 5b 19 23 3e d6 7f e1 bd
       0.03507009 0.15930739 0.15927641 -0.11010711
0002c0 38 2c e3 3b aa 0b da 3d 94 8f e4 3d 4a 23 a2 3e
       0.0069327615 0.10646756 0.11160198 0.31667548
0002d0 e1 e9 0c 3e 66 33 9a 3e 84 bf 16 be 69 79 7d 3e
       0.13761093 0.3011734 -0.14721495 0.24753346
0002e0 9f 6b 3a 3e 7d 95 8b bd 93 a0 84 bd 42 51 fd 3d
       0.18205117 -0.06815622 -0.064759396 0.12369014
0002f0 fc 39 6a be 1b 27 83 3e 6a 03 1d 3e 9e 8f 0b 3e
       -0.22873682 0.25615773 0.15333334 0.13629004
000300 83 43 e6 3d b8 40 11 bd f5 8a a0 3d 02 0f 9e bd
       0.112433456 -0.03546211 0.07839004 -0.07717706
000310 0d 9f 89 be f3 d9 92 bd b3 55 7b bd 97 1a 59 bd
       -0.2687916 -0.07170477 -0.061361026 -0.053003874
000320 d7 75 1d be ac be f0 3d 5c 03 b6 3d c9 b9 24 be
       -0.15376984 0.11755118 0.088873595 -0.16086496
000330 39 ce 0e 3e 76 6c 23 bd 56 46 74 3d 2b eb 15 be
       0.13945855 -0.03989836 0.05963739 -0.1464049
000340 35 83 64 3d df 65 8a be 93 1f 04 3e 89 ea 13 3d
       0.05578919 -0.27030846 0.1290267 0.036112342
000350 6d a3 2b be 87 2a 64 be b9 4e 3a 3d 24 5d 1a bc
       -0.1676156 -0.22281848 0.045485232 -0.0094216205
000360 c0 82 3c 3e 4a fd 54 be c1 9d 0b be f6 90 b5 3e
       0.18409252 -0.20799747 -0.13634397 0.3546216
000370 a6 95 51 be d2 ea 5f 3e 74 a5 03 3e 33 ad 25 bd
       -0.20467243 0.2186692 0.12856084 -0.04044838
000380 3f bc 83 be f8 b3 c9 3d c0 f8 26 3e db a4 6b 3c
       -0.25729558 0.098487794 0.16305828 0.014382566
000390 62 9f a6 3d 44 c3 87 bb 04 de 28 3e 30 d7 c6 b8
       0.081358686 -0.0041431505 0.16490942 -9.4814575e-05
0003a0 70 28 de bb f4 75 a4 bc 0a 19 90 bd b3 cf 13 bd
       -0.006779723 -0.020075776 -0.07036026 -0.03608675
0003b0 1b 5b d2 3d b1 42 7f bc cc 24 55 be 14 a3 3a 3e
       0.10271283 -0.015579865 -0.20814818 0.18226272
0003c0 1a 01 2a be 57 8a 92 bc a6 09 19 3e 99 02 77 3d
       -0.16601983 -0.017888231 0.14945087 0.06030521
0003d0 80 ba 4f bd 00 8b 3a 3e 82 ab c8 bd ca 9b 30 bd
       -0.05071497 0.18217087 -0.097983375 -0.043117322
0003e0 cb d6 86 3e 3a d9 9c 3d 4d 80 32 be 8d 4d 23 3c
       0.2633575 0.0765862 -0.17431755 0.00996722
0003f0 f1 c4 88 3e 0a 74 eb bd 9a d6 fc bd 8c ca 5a be
       0.26712754 -0.11496742 -0.123456195 -0.21366328

network.2.bias f4 [84]
000000 0f 8a 88 3d 90 84 68 3d 24 be 72 3d e9 c4 66 3d
       0.066669576 0.056767046 0.059263363 0.056340132
000010 68 48 a6 3c 12 0e 9f 3c 20 76 2f 3d 5c ff 82 3c
       0.020298198 0.019415889 0.042837262 0.015990905
000020 cb 1c 8d 3c 84 b7 58 3d 7f 6c 4d 3d 8a b2 48 bc
       0.017225644 0.05290939 0.050152298 -0.012249598
000030 b9 27 3f bc 6f fe 92 bc cf 51 b3 bc fe e5 32 bc
       -0.011667185 -0.017943589 -0.021889595 -0.010919092
000040 db de c3 bc d3 69 6d 3d 2f 99 6a 3b 18 f4 fe 3c
       -0.023909977 0.05796225 0.003579687 0.031122252
000050 27 b7 73 3d 93 b4 b5 3c 3c 4f 67 bc eb 81 13 bc
       0.05950084 0.022180831 -0.014118012 -0.009003143
000060 92 de 97 3d 92 a1 5b 3d d4 f2 8b bc 3f 8f 8c bc
       0.07415499 0.053620882 -0.017083563 -0.017158149
000070 d5 a8 66 3d d2 9e 82 3d f9 8f 88 3d ed ae 6d 3d
       0.056313355 0.06377949 0.066680856 0.05802815
000080 50 84 71 bc da 40 65 3d a1 27 16 3d 18 e3 7b 3d
       -0.014741018 0.05597005 0.036658887 0.06149587
000090 f8 46 6c 3d 05 27 5e 3d 01 29 52 3d 74 02 4a 3c
       0.05768487 0.05423643 0.051308636 0.012329686
0000a0 a3 eb 50 3d cf e0 51 bc 9e 3e ad bc 93 ed dd bc
       0.05100597 -0.012809946 -0.021148022 -0.027090823
0000b0 38 74 75 3d e4 11 5f 3d a3 7b 6a bc 0c ed c5 3d
       0.059925288 0.05446042 -0.014311704 0.09664354
0000c0 19 ab 87 3c c4 14 a8 3d 52 01 36 3b fc de 6a 3d
       0.016561078 0.08207086 0.0027771783 0.05734156
0000d0 a6 4b 52 bc 1e d5 97 bc 00 dc 8e bc f2 c8 44 bc
       -0.012835419 -0.01853424 -0.017438889 -0.0120108
0000e0 0a 53 71 3d 56 ce 38 3d f4 46 73 bc fc 19 59 3d
       0.058917083 0.045118652 -0.0148484595 0.053003296
0000f0 ad f1 a5 bc 0d d7 4f 3d 9e e1 bd bc 17 1a 78 3d
       -0.020256842 0.050742198 -0.023178872 0.060571756
000100 0a 7b bc bc a7 68 39 3d a4 0c 06 3d 5b c7 c5 bc
       -0.023007888 0.04526582 0.0327269 -0.024142912
000110 4a ca 7c 3d 87 60 80 bc 7b c7 74 bc 12 cc 5a bc
       0.061716355 -0.015671028 -0.014940138 -0.013354318
000120 f9 20 81 bc 2f 4f 72 3d ba 9f 78 3d ec 6d a5 bc
       -0.015762793 0.059157547 0.060699202 -0.020194016
000130 8c e0 b3 3c 53 d9 b8 bc 70 5b 6e 3d fc e4 6a 3d
       0.021957658 -0.022564566 0.05819267 0.057347283
000140 a6 ec 7e 3d f8 b1 55 3d 70 f1 82 3d 80 ad 76 3d
       0.062237404 0.052171677 0.06393707 0.060224056

network.4.weight f4 [21, 84]
000000 21 f3 49 3e d4 55 a4 3d 7b fc 1b 3d cc 76 10 3d
       0.19721653 0.08024183 0.03808258 0.035269544
000010 3f 8d 94 3e c0 95 62 3b a5 dd 1e 3d d3 12 32 3e
       0.29014012 0.0034574121 0.038785595 0.17389993
000020 d9 52 6d 3e 5e c9 fc 3a f4 d6 a8 3d 41 ac e9 3d
       0.23176135 0.0019286086 0.08244124 0.11409808
000030 5e 5d 1a 3e f1 05 c0 be e3 d0 1d bb 54 15 f1 bd
       0.1507468 -0.37504533 -0.0024080805 -0.11771646
000040 45 11 14 3e 66 94 e0 3d 74 f9 bc bd c7 a2 35 bb
       0.14459713 0.10965805 -0.09227267 -0.002771543
000050 f3 fe b0 bc 3c 96 cc 3d 1c b5 a3 be 1c b9 de 3c
       -0.021605944 0.099895924 -0.31974113 0.027187876
000060 ea ad ee 3c 39 fc 96 bc 43 f8 4f bc f8 3f d5 bd
       0.029135663 -0.018430816 -0.012693468 -0.10412592
000070 c6 bb 6d 3e 2f 27 88 3e 2d fd 75 be 01 e7 5f bd
       0.23216161 0.26592395 -0.2402236 -0.054663662
000080 28 d3 6b 3e 84 01 72 3e e4 49 85 3d 7d d2 bc 3e
       0.23029768 0.2363339 0.06508234 0.3687934
000090 8a fa 82 bc bb 50 17 3e 2e 0b 10 be 12 57 e0 bd
       -0.015988607 0.1477689 -0.14066765 -0.10954107
0000a0 1c 8e 85 3e 10 ca 0b bd 5a 34 07 be 24 0e 00 3e
       0.26084983 -0.03412825 -0.13203564 0.12505394
0000b0 16 24 af 3e e1 72 a6 3b f9 24 87 bd f3 5c db 3e
       0.3420722 0.0050796126 -0.06598849 0.42844352
0000c0 f1 38 24 3e 67 02 a7 3d e0 d9 52 3d f4 66 7b 3e
       0.16037346 0.08154755 0.051477313 0.24550992
0000d0 a2 c9 10 3e da 53 dc bd 61 bc 1d bd 3b 4a 1d be
       0.14139417 -0.10758181 -0.03850973 -0.15360348
0000e0 49 67 fd 3c 0e c4 85 3d da 27 e0 3c 36 7d 40 be
       0.03093304 0.06531535 0.027362753 -0.18797764
0000f0 c7 d1 74 bd ba b4 bd bb f7 65 16 bd 11 b3 f1 3d
       -0.05977037 -0.0057893666 -0.036718335 0.11801732
000100 64 35 2e 3e ed 68 83 be 61 a2 4e be 48 e7 33 be
       0.17012554 -0.2566599 -0.2017913 -0.17568696
000110 af 29 16 bd 2c ed 0a 3d 12 13 13 be a6 48 24 3d
       -0.036660846 0.03391759 -0.14362743 0.040108345
000120 ab 1b d5 bd c4 06 d0 bc 6a 1b 1b be b8 aa 0c be
       -0.10405668 -0.025393851 -0.15147176 -0.13736999
000130 5c dc 4f be 36 9b 6c bd f1 55 a6 3c 4a 9a 8f be
       -0.20298904 -0.05776521 0.020304652 -0.280474
000140 56 ae a4 3d 83 d3 49 be bd 9e 52 bd 5f 10 5e 3e
       0.080410644 -0.19709592 -0.051420916 0.21685933
000150 4f 5e 1a 3e ff cf 12 be e9 77 5c bd b1 2e 0e 3e
       0.15075038 -0.14337157 -0.053825293 0.13884999
000160 f9 ef d5 3d 9d f7 29 3e 1f 2f 02 3e 08 4a 3e 3e
       0.10446162 0.16598363 0.12713288 0.18582928
000170 2a 8b 62 bd 8c 08 3b 3e 63 69 33 be 46 48 75 be
       -0.0553085 0.18264979 -0.1752067 -0.23953351
000180 e3 52 2b 3e 23 9d 42 3e ad fb 11 be 3e 4d 70 be
       0.16730838 0.19005255 -0.14256163 -0.23466966
000190 18 2a 56 3e 46 a8 66 bd a2 0d 0e be 6d 27 49 3e
       0.20914495 -0.05631282 -0.13872388 0.19643946
0001a0 60 8e 9f bd 2b 4b 68 3d d1 23 9c bc bb ec bc bc
       -0.07790828 0.05671231 -0.019060047 -0.0230621
0001b0 cb 06 ad bd ec b9 f5 bd 4c 09 7f be f6 e0 14 bd
       -0.08448561 -0.119983524 -0.2490589 -0.036347352
0001c0 ff 42 78 3d bd 30 8c 3e 13 e5 83 3e 9a ee af 3e
       0.060610767 0.27380934 0.25760707 0.34361726
0001d0 8e fe e0 bd 85 af 36 3e 65 2f dc be 3e 17 9a 3c
       -0.109860525 0.17840393 -0.4300491 0.01880991
0001e0 63 88 88 3d 42 23 c3 be ee 86 93 bc 2a 8e 8f 3e
       0.06666639 -0.38112837 -0.018008675 0.2803815
0001f0 ea f4 73 3e 66 71 aa 3e bd a8 3d 3e be 67 f3 bb
       0.23823896 0.3328964 0.185214 -0.0074281385
000200 4d c5 03 3e 6a b2 29 3e d5 af 57 bd 35 4b 0f 3e
       0.12868233 0.16571966 -0.05265792 0.13993533
000210 30 d7 cf 3c e6 e8 92 3e f5 f6 66 3d bc 9d 1f 3e
       0.025371164 0.28693312 0.05638786 0.15587515
000220 bc 7d bc bd 06 70 cd bd c8 3f 03 be 57 8b 27 be
       -0.092036694 -0.100311324 -0.128173 -0.16361748
000230 e2 36 00 3d ae 6e ac 3d 15 13 1c be 28 f5 0f 3e
       0.03130234 0.08419548 -0.15241654 0.14058363
000240 b3 2e 1e bd b1 b4 d6 bc 83 af ec bc 29 e3 c0 3d
       -0.038618755 -0.026209207 -0.028892284 0.09418327
000250 ae 8f 38 3e 4b db 2a 3e 8a 31 d2 3d bc e9 c0 bc
       0.1802356 0.16685216 0.10263355 -0.023548953
000260 e2 23 73 bb 2b 6c c0 3d 16 d2 ef bd 1f 47 99 3d
       -0.0037100245 0.093956314 -0.117099926 0.074842684
000270 cb df d0 3d 47 1a 9e 3e af c7 b8 bb 2c 25 ca 3c
       0.10198935 0.30879423 -0.0056390385 0.024675928
000280 54 2c 93 bc 1d c3 61 be 67 6a a9 3d d3 11 fa bc
       -0.017965473 -0.22047086 0.08272248 -0.030526077
000290 2c 75 28 3d cf 31 19 3e 28 d3 dc bb 9b ed 12 3c
       0.04112737 0.14960407 -0.006739039 0.008967782
0002a0 6a af 23 3e e1 6e 04 be f8 d6 e5 3d 78 6d 5c 3e
       0.15984884 -0.12932922 0.11222643 0.21526134
0002b0 11 c6 44 3e db e5 96 bd 92 cf 70 3e d4 40 a9 be
       0.19216181 -0.0736806 0.23516682 -0.33057272
0002c0 aa 0f 25 be 79 9b 1b be b0 b2 4d 3e d4 aa c6 3b
       -0.16119257 -0.15196027 0.20087695 0.006062845
0002d0 45 53 e0 3d 63 5c 50 be 52 b2 7c bc ea c5 50 be
       0.109533824 -0.20347743 -0.015423374 -0.20387998
0002e0 39 c5 1a be 8b f2 96 3a 69 50 5f 3d a9 cc c0 3c
       -0.15114297 0.0011516375 0.054520044 0.02353509
0002f0 5e 8a 6b 3e f7 77 08 3e 56 d7 51 3d c7 4e ee 3c
       0.23002002 0.13327013 0.05123075 0.029090298
000300 fd 49 d0 3d 06 04 48 bc 42 c7 0d bd 52 c4 28 be
       0.10170362 -0.0122079905 -0.034613855 -0.1648114
000310 1c 88 03 bd 0b d1 96 3e 3b 8e f2 bd 3b cc f4 bb
       -0.032112226 0.29456362 -0.118435346 -0.007470635
000320 25 3c 19 be 03 3d 8e 3e b9 9e cd bd 4d 15 0f 3e
       -0.1496435 0.27780923 -0.100400396 0.1397297
000330 01 93 2f 3d 3e 14 4f bd 35 6a 20 bd 55 41 62 3c
       0.042864803 -0.050556414 -0.039163787 0.013809522
000340 d5 0e a9 bd ea 90 1e 3d 8e fc 10 3d 7e 0e 81 3d
       -0.08254782 0.03871242 0.035397105 0.06301592
000350 23 16 86 3e 24 70 fb 3d 27 a4 da 3b 47 51 0b bd
       0.26188764 0.122772485 0.0066724005 -0.03401306
000360 df 4d d3 3d 1d be 20 3c 21 6c 9e bd 96 8f 14 3e
       0.10317587 0.009810952 -0.07735468 0.14507899
000370 1c 9b 98 3d 9d 99 71 be f5 c1 3d 3e 0a db e7 3d
       0.0745146 -0.23593755 0.1853102 0.11321075
000380 46 60 af bd 64 16 ef bd 44 d8 1e 3d 58 75 3b be
       -0.085632846 -0.116741925 0.038780466 -0.18306482
000390 c6 44 76 3d 1e 15 82 3e fa ba b2 3d ec 32 c9 3d
       0.06012418 0.25406736 0.08727069 0.09824166
0003a0 64 32 06 bb ac cc 69 be 44 bc b1 bc 4c b0 88 be
       -0.0020476812 -0.22831982 -0.021696217 -0.26697004
0003b0 dc 43 85 3e 64 9e 0f 3d cb c8 58 be 5c 76 f3 bd
       0.26028335 0.035063162 -0.21170346 -0.1188781
0003c0 3e da 76 bd 54 5e 73 3e d4 c1 68 3e 89 29 42 bd
       -0.060266726 0.23766452 0.2273019 -0.047402892
0003d0 6f 6c 22 3e 1d 41 56 3d bb c2 a7 bc c1 cd 3d 3d
       0.15861677 0.05230819 -0.020478597 0.0463388
0003e0 4c 21 3a 3e ac 5a f7 bd 50 8d 09 3e ff 9a 7c bc
       0.18176764 -0.12077841 0.13432813 -0.015417813
0003f0 33 39 cf bd 56 b4 8a bd cd f5 06 bd 7a f3 44 3e
       -0.10118332 -0.067726776 -0.032949258 0.19233504

network.4.bias f4 [21]
000000 b3 1b 8d 3d 04 8d 7a 3d 8f 55 a1 3d a7 98 76 3d
       0.06890049 0.06116964 0.07877647 0.060204174
000010 2e 7d 4d 3d 35 ca 84 3d ce d9 ab 3d 3e cf 8f 3d
       0.05016821 0.064838804 0.08391152 0.0702195
000020 b5 5d 87 3d 14 a3 5f 3d 5a 83 82 3d b5 95 74 3d
       0.0660967 0.054598883 0.063727096 0.059713084
000030 a8 6e 4b 3d ae 4b 67 3d 22 88 6e 3d 81 78 60 3d
       0.049666077 0.05646866 0.058235295 0.05480242
000040 75 71 75 3d 73 da 80 3d e3 96 a0 3d ed aa 90 3d
       0.059922654 0.06291666 0.07841279 0.070638515
000050 8e a9 8d 3d
       0.069171056
