model/state_dict/my_qmix2.pt (torch, 248326 bytes, 10 tensors)

cnn.0.weight f4 [5, 5, 3, 3]
000000 02 b6 b2 be 95 8f 48 be 9a 65 36 3e df 2e 29 bd
       -0.34904486 -0.19586022 0.17812195 -0.041304465
000010 e3 d3 2f 3e 51 ea a9 be d6 79 23 3e eb b5 55 bd
       0.17170672 -0.33186582 0.15964445 -0.052175444
000020 84 c3 98 3d c1 7c 80 3d a1 c7 45 3e 09 ae 71 3e
       0.07459167 0.06273795 0.19314434 0.23601545
000030 63 36 d2 3d 85 ac b2 3e 1d 7d 54 3e 96 39 b2 bd
       0.1026428 0.34897247 0.20750852 -0.0870239
000040 79 68 18 3d c5 a5 88 be 06 58 f0 3d dd e7 4e 3d
       0.037209008 -0.26688972 0.11735539 0.05051409
000050 29 68 0b be 8a ba 52 3e 64 1b 56 bd 00 52 77 be
       -0.13613953 0.20578972 -0.052272215 -0.24152374
000060 41 9e 7e bd 9d d4 be 3e e2 e8 b4 bc d2 d3 af 3e
       -0.06216264 0.37271586 -0.022083703 0.34341294
000070 85 0e 6f 3e c4 75 83 ba 82 c2 bd bc 96 1f 87 3d
       0.23345383 -0.0010029604 -0.023164038 0.065978214
000080 88 6e 98 3d 64 87 ac be f8 c9 04 bd 57 2c 93 3d
       0.07442957 -0.33697045 -0.032419175 0.071861915
000090 66 bc af 3b 1f 26 82 3d 0a 46 7a 3d 0b 4a f7 3d
       0.005363035 0.06354927 0.06110195 0.120746695
0000a0 60 b7 cd 3d a9 a7 08 3d 48 61 36 3e 1d 77 a0 bb
       0.10044742 0.03336302 0.17810547 -0.004897012
0000b0 f0 fd e4 3d 64 c4 a2 be 6c 59 b2 39 b3 df 20 3e
       0.11181247 -0.3179046 0.0003401743 0.15710334
0000c0 3c 8b 82 3d a9 38 e0 bc 2e 1b 12 be c7 ce 03 be
       0.06374213 -0.027370768 -0.1426818 -0.12871848
0000d0 2e c1 58 be 6e ab a8 be 7c 89 57 be 9f 76 3d be
       -0.21167442 -0.3294329 -0.2104854 -0.18502282
0000e0 10 42 49 be 30 f8 89 bc 4c bc 6f 3e c0 00 60 3e
       -0.19654107 -0.016841978 0.23411673 0.21875286
0000f0 6e 47 22 3e d2 cb c5 bd 5a 88 73 3e 2b 18 31 be
       0.15847561 -0.09658016 0.23782483 -0.17294376
000100 b8 43 81 3e c2 34 18 bf 9e c2 e8 3d c9 7f b9 3d
       0.25246978 -0.594555 0.11365245 0.09057576
000110 b2 b7 2b be b1 9a b8 bd 32 77 48 3d 42 be 1e 3e
       -0.16769293 -0.0901388 0.0489418 0.15502265
000120 ad 56 0c be 1e 62 81 bb b8 9a ba bd f3 b3 3b 3e
       -0.13704939 -0.003948464 -0.091115415 0.18330364
000130 a8 89 03 3e 57 25 0e 3e e7 56 b8 bd 72 2d 00 3d
       0.1284548 0.13881432 -0.0900095 0.03129334
000140 d3 77 6a 3e a6 88 8a be 15 2e dc 3e 8b 2f b3 be
       0.22897272 -0.2705738 0.43003908 -0.3499721
000150 eb 92 31 be 1f 66 bf 3d ad 9d 20 bf 90 0d 89 3e
       -0.17341201 0.0934565 -0.62740594 0.2676816
000160 d9 02 09 be a8 84 c8 bd a4 66 72 be 56 46 4a 3e
       -0.13379993 -0.09790927 -0.23671967 0.19753394
000170 75 a1 22 be ba 69 3e be 2b c5 fd 3c 3d 28 14 3e
       -0.15881903 -0.18595019 0.030977806 0.14468475
000180 34 ff 84 be 1e 38 8a 3e be ce d2 3d e1 61 48 3d
       -0.25975955 0.2699594 0.10293339 0.04892147
000190 87 54 b7 3e 29 4d 8d bd 10 95 59 3d 5b d2 1f be
       0.35806677 -0.06899483 0.053120673 -0.15607588
0001a0 7c 04 4c 3e 04 68 70 bc 34 3b 6b be f0 d3 2c bd
       0.19923586 -0.014673237 -0.22971803 -0.042194307
0001b0 00 49 56 be 5b 4f 81 be 46 47 e8 bd 50 1c da bd
       -0.20926285 -0.25255856 -0.11341719 -0.106499314
0001c0 d5 20 69 be e6 33 34 3e 58 e3 81 bc cf 41 f5 3c
       -0.2276643 0.17597923 -0.015855476 0.029938607
0001d0 b7 27 b3 3e ee 23 3b 3e 37 57 b7 3d 52 ad bb bd
       0.34991238 0.18275425 0.08952182 -0.091639176
0001e0 5e 78 13 be 44 73 81 be 9c 1e 3f be 56 4a 14 3e
       -0.14401385 -0.25283253 -0.1866402 0.14481482
0001f0 e9 c3 ab 3d 1f 55 89 3d d0 0c 71 3c 4f 7e 82 3e
       0.08386976 0.06705689 0.014712527 0.2548699
000200 3f e4 52 3e 3c 42 25 3e 72 f2 70 3b f2 16 f7 3d
       0.20594881 0.16138548 0.0036765602 0.12064923
000210 06 ad 2c bd 73 c1 ec bd 9a a3 b8 bd 11 d3 3f 3e
       -0.042157196 -0.11560335 -0.090155795 0.18732859
000220 e3 d0 3f be 2a 7f d2 3e 33 c6 4a 3d 71 7c 02 3e
       -0.18732028 0.41112643 0.049505424 0.12742783
000230 94 88 7a be ff 78 e2 bc 86 6e 96 3d 76 f4 d9 3c
       -0.24466163 -0.027645586 0.073452994 0.026605826
000240 c8 23 db 3e 7f 5a ac be ec 63 09 be e2 59 cc bd
       0.42800736 -0.33662793 -0.13417023 -0.09978081
000250 f9 ab c2 bc 42 97 c4 3d d4 d4 f7 bd 83 25 65 3e
       -0.023763644 0.09599163 -0.121011406 0.22377591
000260 b5 1d 8b be fb 7b 8d 3d cb 2b be 3d ef 98 b8 3d
       -0.27171102 0.06908413 0.092856966 0.09013545
000270 76 8d fa bc 1f 37 e6 be f7 c4 5c be 4d 64 15 3e
       -0.030585032 -0.4496393 -0.21559511 0.14589043
000280 c4 24 ae bd de 61 99 3e ac 71 0b be ad 69 fb bd
       -0.08503106 0.2995748 -0.13617581 -0.122760154
000290 82 53 bc 3d d2 55 b3 bc 6f b9 1a bf 6f 55 12 be
       0.09195615 -0.021891508 -0.604392 -0.14290403
0002a0 22 ee 97 bd 22 8c 55 be 61 03 5b 3d 8f 1f 17 be
       -0.07418467 -0.20854238 0.05347002 -0.14758132
0002b0 4e 00 04 be b4 e4 c2 3d 87 a1 84 be 94 f4 ba bd
       -0.12890741 0.09516278 -0.25904486 -0.09128681
0002c0 56 e0 57 be 96 05 84 bc c0 ba 78 3d da 76 4f be
       -0.21081671 -0.016115945 0.060724974 -0.20260182
0002d0 08 dd ce 3d 7c 1e 2b 3e c7 f5 c9 3d 2c fc 77 3e
       0.10100752 0.16710848 0.098613314 0.2421729
0002e0 39 23 42 3d 42 74 e4 bd 20 fa 4e 3e d0 46 b2 3e
       0.047396872 -0.11154987 0.20212603 0.3481965
0002f0 db 3a 90 3e 1a cc b9 3d b9 58 10 3e ad a9 b3 3d
       0.28169903 0.090721324 0.14096345 0.087725975
000300 5a 43 bb 3c f1 d5 76 3e 5e 99 18 be 61 6f 71 3d
       0.022859264 0.2410505 -0.14902255 0.05894411
000310 11 7b 45 bb 32 9d 74 3e 7f 9c 91 3e 55 75 0d be
       -0.0030133168 0.2388809 0.2843971 -0.1381429
000320 b8 20 72 be 73 6d b3 bd 21 65 44 be 67 fa f3 3e
       -0.23645294 -0.0876111 -0.19179203 0.4765198
000330 eb 07 76 be 1a 12 a9 be 2b f6 1a 3e 30 64 3d 3d
       -0.24026458 -0.33021623 0.15132968 0.046238124
000340 46 46 82 3d 3b f4 7a 3c 90 d7 40 be 1d b9 53 3e
       0.0636106 0.015317018 -0.1883223 0.20676084
000350 a5 e7 cb 3c 60 14 a9 be 8c 4c c2 bd 3b ac 48 be
       0.02489073 -0.33023357 -0.094872564 -0.1959695
000360 ce 2f 1a 3e 8e 7c d9 3e ce 40 cf 3d 3c c7 aa 3a
       0.15057299 0.4247784 0.101197824 0.0013029347
000370 97 d2 c4 bc fc e7 33 3e d7 c3 2c bd 6b 11 5c bd
       -0.024026198 0.17568964 -0.042178955 -0.05372755
000380 85 4f e2 3c
       0.027625808

cnn.0.bias f4 [5]
000000 ae 69 4c 3d 63 06 8f 3d c2 14 81 bb 18 cf cd 3d
       0.04990547 0.0698364 -0.003939242 0.100492656
000010 14 22 c3 3c
       0.02381996

cnn.2.weight f4 [5, 5, 3, 3]
000000 72 71 66 be 22 0e 5d 3b 3f 4c 25 3e 69 02 00 3e
       -0.22504213 0.0033730348 0.16142367 0.1250092
000010 cd 92 e6 3d 4b eb b0 3e a6 41 6e 3d 4f 61 ab 3d
       0.11258469 0.34554514 0.058168076 0.083681695
000020 5c 22 ea 3e 36 e4 e8 3e a7 d6 8b 3d a1 0e 20 bc
       0.4572934 0.4548661 0.06828051 -0.009769113
000030 c7 42 a0 be bb f1 1b be d7 62 df 3c d6 27 4b 3d
       -0.31300947 -0.15228932 0.02726881 0.049598537
000040 98 42 8d 3e df 0c 65 3e af 52 9a be 41 10 b4 3e
       0.2758987 0.22368191 -0.30141208 0.3516865
000050 69 cf 9e bd c8 e8 f9 bc 83 2d 3b bd e7 bb d0 3d
       -0.07754404 -0.030506507 -0.0456977 0.101920895
000060 7b b8 94 bc e8 a0 b7 be 16 27 76 bc be 5f 73 3e
       -0.018154373 -0.3586495 -0.015023967 0.23766991
000070 6c 0c 18 3e b9 e4 68 3e 4a 39 35 bd 0e d6 87 3e
       0.14848489 0.22743501 -0.04424409 0.26530498
000080 bc 00 1f be 73 68 a5 3e e8 a5 03 be 91 6f 75 bd
       -0.15527624 0.3230625 -0.12856257 -0.05992085
000090 ec b9 8f 3e 02 1a 99 3e d8 e5 4d be d6 c5 4c 3e
       0.28071535 0.29902655 -0.2010721 0.19997343
0000a0 28 98 e6 bd 8d 06 27 3e 72 75 04 3e 4b f9 79 be
       -0.1125949 0.16311093 0.12935427 -0.24411504
0000b0 58 fc 8f 3e 57 b5 76 be c5 7d ff 3e c6 3c 3b be
       0.2812221 -0.24092613 0.49900642 -0.18284902
0000c0 70 4d 01 bd 2b 03 5d be 99 b3 0d bd c1 40 40 be
       -0.03156799 -0.2158324 -0.034595106 -0.18774702
0000d0 1d 92 70 bd cc 62 90 be fc 67 5d 3e 71 fa f2 3e
       -0.058733094 -0.28200376 0.21621698 0.47456697
0000e0 6b 39 8a be 9d 5a eb bd 18 86 8c 3e 03 63 8e bd
       -0.2699693 -0.114918925 0.27446055 -0.06952479
0000f0 ee b5 16 be de 52 64 be f1 00 e5 3b 67 0d 09 3f
       -0.14717838 -0.22297236 0.0069886376 0.53536075
000100 44 b3 cb bd dc c7 20 bb 1e 3b c1 3c d2 5a a2 bd
       -0.099463016 -0.0024533188 0.02358776 -0.07927479
000110 8c 41 5e 3e 88 e0 5e 3e 51 77 60 be eb b8 89 3e
       0.21704692 0.2176534 -0.21920516 0.26898894
000120 48 aa 07 be de 5c 2d 3e 45 84 08 be b9 74 e1 be
       -0.13248551 0.16929957 -0.13331707 -0.44034365
000130 6c da f6 3e 54 72 dc bd 18 39 c9 3e 12 5b b5 3e
       0.48213518 -0.10763994 0.39301372 0.35421044
000140 d6 23 b9 bd aa 2b 5c be a4 9f 01 be 21 18 a5 be
       -0.09040038 -0.21501032 -0.12658554 -0.3224497
000150 3e 04 36 3d 70 df f1 3d e3 9e 33 3e 58 4d 41 3d
       0.04443764 0.118101954 0.17541079 0.0471929
000160 38 c0 2e 3e dc ec de 3c 1a c8 d9 3d 59 70 b1 3e
       0.17065513 0.027212553 0.106338695 0.34656027
000170 41 1b fd 3d 2a cd cd be 58 10 03 bd 0d 2e 7c bd
       0.12358714 -0.4019559 -0.03199801 -0.061567355
000180 d7 65 c9 be 1a 3c 96 3e e1 18 29 3d 1c a6 1d 3e
       -0.3933551 0.2934273 0.041283492 0.15395397
000190 79 9b 5a 3e f4 81 60 3d 30 c5 70 be 14 1d c1 bd
       0.2134837 0.054811433 -0.23512721 -0.09429374
0001a0 8d 14 5b 3d 54 65 a2 bd 78 43 b2 3d 0f 03 8b 3d
       0.053486396 -0.07929483 0.08704275 0.06787693
0001b0 1f 1a 22 3e b2 b5 f8 3d 41 9c 92 3c 47 79 ee bd
       0.15830277 0.12144031 0.017896773 -0.116442256
0001c0 b7 72 89 3d cf 3d 43 3d 16 42 0b bf fa 1b 04 be
       0.06711333 0.047666367 -0.54397714 -0.12901297
0001d0 29 33 13 3e a5 b4 e8 3d 21 88 fc bd 1e 1f 8b 3e
       0.14374985 0.1136258 -0.12330652 0.27172178
0001e0 f2 80 8b 3e 36 60 8e 3d 15 45 c8 bd 6c fa 58 3c
       0.27246815 0.069519445 -0.09778801 0.013243299
0001f0 fb 86 12 3d 44 35 19 3d ce 08 cf be 4e 22 0c bd
       0.03577326 0.037404314 -0.40436405 -0.034212403
000200 24 d3 fe 3c 64 1b 64 3c 06 b2 4f 3c 29 09 6d be
       0.03110654 0.013922546 0.012676721 -0.23148026
000210 74 c8 2f be b9 c1 ba 3c 16 5f 56 3e d2 4c 60 3e
       -0.1716631 0.022797452 0.2093471 0.21904305
000220 f4 9e 73 be dc 85 9f 3c 1b 9c 3f 3e a3 1a 10 3f
       -0.23791105 0.019473009 0.18711893 0.56290644
000230 6c ff 19 be 87 f9 f5 3d a3 80 05 3e 20 1c da bc
       -0.15038842 0.12010484 0.13037352 -0.02662474
000240 0a a3 bc bd 83 61 06 3e bb f2 4f 3e 97 ad 8f 3e
       -0.09210785 0.13123135 0.20307438 0.28062126
000250 ee 90 0a bd 1a 88 d0 bd 40 c5 63 be c0 fa dd 3d
       -0.033829622 -0.10182209 -0.22243214 0.108388424
000260 30 0a 2a 3d 0f 28 9b bd 05 0b fe bd 5c bd c7 3d
       0.04151362 -0.07576 -0.124044456 0.09752914
000270 7e 1e 09 bb 84 49 7d bd 67 35 71 be ca 03 8b 3e
       -0.0020922716 -0.061837688 -0.23555528 0.27151328
000280 d0 5b c2 be ec db d5 3d da f8 b5 3e f1 8a a4 bd
       -0.37960672 0.104423374 0.3554142 -0.080343135
000290 40 c2 93 3e 5c fc 5b 3d 3d c6 4c 3e f3 21 2f 3c
       0.28859138 0.053707466 0.19997497 0.0106892465
0002a0 cd 57 2e be df e8 c1 bc 9a 0e 96 3d 79 b3 83 be
       -0.17025681 -0.023670612 0.07327004 -0.25722864
0002b0 d8 06 eb bd 25 71 e2 3d dc de 0a 3e b6 32 5d bd
       -0.11475915 0.11056737 0.13561577 -0.05400344
0002c0 c0 6d 38 bc a4 77 84 3e 23 96 22 bd 78 df 1b be
       -0.011256635 0.2587253 -0.039693963 -0.15221965
0002d0 db 65 0c bd 33 58 06 3e 9f 87 c3 3d 82 31 31 3e
       -0.034276824 0.13119583 0.09547352 0.17304042
0002e0 4b 5d 85 bc e3 66 46 3e 55 3c 21 3e bf cd 5e be
       -0.016279837 0.19375186 0.15745671 -0.21758173
0002f0 c2 da 24 be e2 27 07 bd 5b 90 5f be 6c 8b d2 3d
       -0.16099074 -0.03299702 -0.21832411 0.10280499
000300 7d 63 62 3e a4 9f e0 bd 0d 45 bd be 6c d9 3e 3e
       0.22108264 -0.10967949 -0.36966744 0.18637627
000310 92 6c 34 3e 20 1f a0 3e 7b b8 55 3d 13 15 45 be
       0.17619541 0.31273746 0.052177887 -0.1924632
000320 e9 3a 28 3d 5d 69 39 3e e6 ad e6 bc 9c b1 ab 3d
       0.041071806 0.18106599 -0.028159093 0.08383486
000330 b2 39 90 3e c7 7b 41 3e fe 38 93 3e 1f 2b a5 3d
       0.28169018 0.18894874 0.2875442 0.08064865
000340 21 a4 63 3d 62 88 a9 3e 12 99 f5 bd 62 7f 47 be
       0.055576447 0.33111864 -0.119920865 -0.19482186
000350 29 9c 17 3e 0f 84 a5 bb 86 50 34 be 57 01 c9 3e
       0.14805664 -0.005051143 -0.17608842 0.39258835
000360 7c 61 15 bd 08 ce de bb 8b f7 7a 3e 73 4e 58 3c
       -0.03646992 -0.006799463 0.24508493 0.0132022975
000370 f0 75 87 bd 63 37 7f bd 44 09 11 3e 56 c4 79 3e
       -0.06614292 -0.06230868 0.14163691 0.24391302
000380 5f 94 09 bd
       -0.033588763

cnn.2.bias f4 [5]
000000 86 89 6c 3d a5 3d 89 3d 7c f3 c9 3d 2b 08 50 3d
       0.05774834 0.06701211 0.09860894 0.05078904
000010 e0 dd 54 3d
       0.05196941

network.0.weight f4 [120, 405]
000000 eb 12 81 3d 14 38 3c 3e 53 49 46 3d f4 17 fa 3d
       0.063024364 0.18380767 0.04840977 0.122116
000010 2f 91 1a 3c e5 fb 9a 3c 4d 1a 2d 3d 6e 58 3e 3d
       0.0094340285 0.01891894 0.04226141 0.046471052
000020 06 bf 8f 3d 18 ea 3a bd f1 2e 6f 3c 75 bc d8 3d
       0.07018857 -0.045633405 0.014598594 0.1058282
000030 f3 ac 88 3d af 29 7d bb a5 cc c8 3c 94 50 72 bb
       0.066736124 -0.0038629582 0.024511645 -0.0036974298
000040 35 63 e4 3c f3 a2 fe 3d 06 bf a2 3b d8 86 9d 3d
       0.027879337 0.12433424 0.0049666194 0.07691735
000050 d1 6e 16 3e 95 7b 4c 3d 19 e4 4b 3d 71 a1 73 bd
       0.1469071 0.049922545 0.049778078 -0.059480134
000060 ab 28 29 3d 36 26 05 3e 96 a1 8c 3d 00 57 15 bd
       0.04129855 0.13002858 0.068667576 -0.036459923
000070 74 a4 74 3c 8f d7 06 3d 36 67 e6 bc 65 f0 6d bd
       0.014931787 0.032920416 -0.028125387 -0.058090586
000080 78 09 d1 3d d6 f6 92 3a 41 70 09 bd 48 a4 e8 3c
       0.10206884 0.0011212479 -0.03355432 0.028398648
000090 ee af 7f ba 9e b7 45 bc 84 88 6b 3d c3 30 57 3d
       -0.00097536936 -0.0120677035 0.05750324 0.052536737
0000a0 21 3c ab 3d 07 ae e7 bd 93 37 9a 3b a6 20 cc 3c
       0.08361078 -0.1131249 0.004706332 0.024917912
0000b0 0d 4f 1f 3d 2a 1d 1f 3e b8 32 77 bd 2b 62 0b 3e
       0.038893748 0.15538469 -0.060351104 0.13611667
0000c0 13 89 c9 3d 08 be 96 bc c4 1b 06 bd 54 d9 b0 bd
       0.09840598 -0.01840116 -0.032741323 -0.08635202
0000d0 e5 9a 81 3d cb a9 87 3c a1 2e 67 3d 87 cd 34 bb
       0.06328372 0.016560456 0.056440953 -0.0027588324
0000e0 d1 e5 c6 3d 71 0c 6f bd 91 c2 32 bd 45 63 1d 3e
       0.09711803 -0.058361474 -0.043642584 0.153699
0000f0 59 7f b3 3c b3 e8 44 3d ac e7 84 3d 75 65 d6 3d
       0.02191131 0.04807348 0.064895004 0.1046857
000100 fe b4 9a 3d 0c 49 f7 3d 54 8b fd 3d 60 18 8b 3b
       0.07554053 0.120744795 0.1238009 0.004244849
000110 e9 60 8d bd 1b 60 ad bc 27 48 60 bb ad 18 8d bc
       -0.0690325 -0.02116399 -0.0034222694 -0.01722368
000120 cc a7 c4 3d 60 9b a6 3d 97 4e 37 3d 0e 03 e4 bc
       0.09602317 0.08135104 0.044752683 -0.027833488
000130 fc 2c 12 3d d2 72 bb 3d fd e9 85 3d ef e6 98 3d
       0.03568743 0.091527596 0.0653877 0.07465922
000140 aa b0 55 3d b4 97 2f 3d e1 30 66 bc 80 ed ec 3c
       0.052170433 0.042869285 -0.01404974 0.028921843
000150 90 32 10 3d 31 03 31 3d 58 5a c5 bd 31 42 22 3d
       0.03520447 0.043215934 -0.09636372 0.039613906
000160 f6 0a 70 bd a2 a7 4f 3d 30 f0 6d bc f9 9d 0f be
       -0.058604203 0.050696976 -0.014522597 -0.14025106
000170 91 d2 1b 3d 1e 28 d2 3d 8e 0c 18 bb 33 3b b5 bc
       0.03804261 0.10261558 -0.0023200843 -0.022122955
000180 d2 39 d0 bc 4b 1e c6 3d 35 21 b2 3d 35 5f cd 3d
       -0.025418196 0.09673747 0.0869774 0.10027925
000190 c8 0e 3b 3d 35 fc 88 3d d5 4e b7 bd 6d d6 8e bd
       0.045668393 0.0668873 -0.08950583 -0.06974492
0001a0 a3 39 d9 bd 7c 4a 2b bd 46 0d 14 bc 75 be 73 bb
       -0.106066965 -0.04181908 -0.009036368 -0.0037192379
0001b0 d1 a4 b6 bd a9 6b d2 bb a9 49 22 3d 55 ad 9f bd
       -0.08918155 -0.0064215255 0.03962103 -0.07796732
0001c0 1f 88 94 3d b6 37 9f bd e8 eb 01 3e 53 3d f1 3d
       0.072525255 -0.07774298 0.12687647 0.11779275
0001d0 34 29 1d 3d 7b 55 cd bd 93 91 1a 3a 4d cd d9 bc
       0.038369372 -0.1002607 0.0005896326 -0.026587153
0001e0 45 02 d2 3a 91 3e 1c 3d 44 f8 3e 3c 01 94 47 bc
       0.0016022405 0.038145605 0.011655871 -0.012181283
0001f0 2e c6 92 3d e7 53 dd bd ff 72 8b bd 3b f3 06 3d
       0.07166706 -0.10807019 -0.06809043 0.032946806
000200 16 b4 24 be d9 4c 7c bd d9 b8 66 3d a0 da c8 3d
       -0.16084322 -0.061596725 0.05632863 0.098073244
000210 87 1e d7 bc a1 3e fc 3d 95 a3 52 3c 3d e3 ae 3d
       -0.026259674 0.12316633 0.012856384 0.08539436
000220 aa 2a 2c bd 0b c7 00 bd 4c 0e 20 bd a8 6c 11 3d
       -0.042032875 -0.031439822 -0.039076135 0.035504013
000230 9d 88 96 bc 3b e5 7d 3c 0f 8b 25 3d dc a1 4c bc
       -0.01837569 0.015496547 0.04041582 -0.012489762
000240 aa 47 19 3e 0b 16 6e bd e0 98 14 3b c7 8f 99 bd
       0.14968744 -0.05812649 0.0022674128 -0.074981265
000250 c5 13 a9 3c 5f 99 a8 3d 7f 65 84 3c 98 e6 7d 3c
       0.02063931 0.08232378 0.016161678 0.015496872
000260 bf e4 19 bd 7f 56 7d 3d 4b 73 2a 3d c8 e3 e0 bd
       -0.037571665 0.061850067 0.04161386 -0.10980946
000270 17 6a 62 3d 80 20 2b be 5d 92 a9 3c a8 28 b5 bc
       0.055276956 -0.16711617 0.020699674 -0.022114113
000280 b2 6f 0e 3d 03 e8 7e 3c 95 9b 2c bd 9f a1 5f 3d
       0.03477449 0.015558246 -0.042140562 0.054597493
000290 e0 6e 18 3e 5c e8 f5 3c 2d ae 93 3d 8e 16 b9 bc
       0.14886045 0.030018024 0.07210956 -0.022593763
0002a0 75 09 4f 3d c0 fe 62 3d b5 c4 22 3d 2a 55 21 3d
       0.05054613 0.05541873 0.039738376 0.03938786
0002b0 f5 6e e1 bd 51 9d 89 bd 14 ca a6 3d fb 18 a8 bd
       -0.110074915 -0.06719459 0.08144012 -0.0820789
0002c0 1b 31 b9 3d 48 02 db 3d 4a ad dd bc d2 ef 1f bd
       0.09042569 0.106937945 -0.02706017 -0.03904707
0002d0 8c 13 38 3d ec d5 03 3d ff 3a 95 3d 16 76 a6 bd
       0.044940516 0.032186434 0.07286643 -0.08127992
0002e0 dc 1f 82 3c 17 5c 4c be ce b2 f9 3d 63 8c 29 3c
       0.015884332 -0.19957004 0.121923074 0.010348412
0002f0 ef f8 06 3c 54 b6 6a 3d 91 65 c5 3d 06 ec 49 bc
       0.008238061 0.057302788 0.09638513 -0.012324339
000300 77 3e 27 bd f4 b0 26 bc 2c bb 99 3a 75 59 2c 3a
       -0.040831055 -0.010174025 0.0011728755 0.00065746094
000310 7d d0 b5 3d e6 a1 56 3d d0 86 3f 3d b7 80 e7 bc
       0.088776566 0.052400492 0.046759427 -0.028259618
000320 f6 3e 1a bd 7a a8 a0 3d 26 55 86 3d 58 c5 cd ba
       -0.0376577 0.07844634 0.065592095 -0.0015699072
000330 13 e2 4f 3d 95 47 d4 3d e3 38 9e bd b7 c6 76 3e
       0.05075271 0.10365216 -0.07725694 0.24099241
000340 1f 9d 0c 3e 70 dc 81 3d b3 4b 48 bd 86 83 86 bc
       0.13731812 0.06340873 -0.048900317 -0.016420137
000350 d3 bd df bd db 1d 88 bc 4b 93 35 3d d6 7e e6 3c
       -0.10924878 -0.016615799 0.044329923 0.028136652
000360 67 28 2e 3d 1e a5 d7 3d 5b d6 4a bd 7d 08 2e 3d
       0.042519 0.105295405 -0.04952083 0.042488564
000370 ce 95 08 3e 76 75 a5 3d d5 2a 61 3d 9f c1 9a 3d
       0.13338396 0.080790445 0.05497249 0.075564615
000380 7d da 09 3d 01 b1 22 bb a5 fe 54 3c d7 86 fb bb
       0.033655632 -0.002482474 0.013000165 -0.0076759863
000390 f9 45 17 3e 31 3a 26 3e a5 49 50 3d 1f 94 0c 3d
       0.14772786 0.16233136 0.050851483 0.034320947
0003a0 f3 85 87 bc fb 4a 02 bd 1b 66 1f bc 80 11 0a 3d
       -0.016543364 -0.03180979 -0.009728934 0.033708096
0003b0 ec 69 0f 3e 21 00 c3 3c 3b 40 b9 3c d2 e2 e8 bc
       0.1400525 0.023803772 0.022613635 -0.028428469
0003c0 2f 4b d7 3d f9 42 9d 3d c1 3f 15 3e 97 d6 f7 3d
       0.10512387 0.0767879 0.14575101 0.12101477
0003d0 f3 79 40 3d 63 74 16 3e 1c 01 6c 3d a3 d8 93 bc
       0.0469913 0.14692836 0.057618245 -0.018047636
0003e0 51 0e c7 bc 3b 04 ec 3b b8 98 86 bd 3f e8 aa bd
       -0.024298819 0.0072026527 -0.065720975 -0.08345079
0003f0 f0 b7 00 bc b3 28 b8 3d dc 16 02 3e e6 91 0e 3e
       -0.007856354 0.08992138 0.12704033 0.13922843

network.0.bias f4 [120]
000000 42 80 9c 3d d4 e8 67 3d 55 07 95 3d da 2f a2 3d
       0.07641651 0.056618527 0.07276789 0.07919283
000010 a8 fe 13 3d 51 09 87 3d a1 f7 56 bc 2d b4 6b 3d
       0.03613153 0.06593574 -0.013120563 0.057544876
000020 ac 8d ca bb bc 2e ca 3d 25 64 19 3d da 4c 5a bc
       -0.0061814394 0.09872195 0.03744902 -0.013323987
000030 0a d1 9d 3d 16 17 36 bc 00 16 4c 3d 16 ed 80 bc
       0.07705887 -0.011113903 0.04982567 -0.015738051
000040 23 23 9a bc 8c 7d 8c bc 8d 2a 60 bb 14 29 53 3d
       -0.018815583 -0.01714971 -0.003420505 0.051552847
000050 10 b7 87 3d 0d 22 91 bc ea a9 bc 3a 7e de 8c 3d
       0.06626713 -0.017716432 0.00143939 0.068783745
000060 63 1e c1 3d 40 5f 91 3d 6c dd 65 3d dc e9 9f 3d
       0.09429624 0.070982456 0.056119367 0.07808277
000070 fc 7a c3 3d b3 7f b2 3d b5 9e 99 3d ae 6d 86 bc
       0.09544942 0.08715763 0.07500974 -0.016409721
000080 9f 93 73 bc d0 72 97 bc d3 7f 7f 3d 7c df ad 3d
       -0.014866739 -0.018487364 0.062377762 0.08489892
000090 94 b5 22 3d dd 9a 4b bc 81 ef 99 3d 5a 43 83 bc
       0.039723948 -0.012427059 0.07516385 -0.016023327
0000a0 6d 2f 00 3d da 4d 9e 3c 47 5b 81 3d f2 02 95 3d
       0.03129523 0.019324232 0.06316238 0.072759524
0000b0 1d 22 02 bc f4 db 38 3d 98 65 7f 3d 2a 2e 5e bc
       -0.007942704 0.04513164 0.062352747 -0.013560811
0000c0 f5 79 e8 3c bc 9e 73 3d 89 e1 a2 3d f0 49 43 bc
       0.028378466 0.059477553 0.07953174 -0.011919484
0000d0 b6 2e c0 3c ef 52 81 3d 0d 38 57 bc 43 d6 37 bc
       0.023459774 0.063146465 -0.013135922 -0.011220518
0000e0 c7 9b 4e bc f7 99 a2 3d 7f 32 a5 3d b4 ec 9c 3d
       -0.012610382 0.07939523 0.08066272 0.07662335
0000f0 1c 37 ac bb bc 67 82 bc 92 17 4d 3d 67 78 73 bc
       -0.005255593 -0.015918605 0.050071307 -0.014860249
000100 90 84 94 bc 55 f6 95 3d fc 6a 0e bc a4 d4 85 bb
       -0.018129617 0.07322375 -0.008692499 -0.0040841866
000110 fe cf 39 bc af 2f ea bb 34 39 f2 3d 28 3c 26 bc
       -0.011341093 -0.0071467976 0.11827317 -0.010146178
000120 b4 2b bf 3d 65 69 a2 3d 18 06 73 bc d3 81 42 ba
       0.093345076 0.07930259 -0.014832996 -0.0007419858
000130 2b bc b7 3d e2 66 66 bc c3 d9 b1 3d 98 60 28 3d
       0.08971437 -0.014062615 0.08684113 0.041107744
000140 ca 7e ba 3d 5d 8c 98 3d 43 7d 40 bc 91 29 a1 3d
       0.09106214 0.07448647 -0.011748615 0.07869256
000150 d7 43 ad 3d e3 4b 71 bc ab 35 48 bc 60 f8 86 3d
       0.08460205 -0.014727565 -0.012219827 0.065903425
000160 cf 0e 92 3d df f3 92 3d c3 f2 91 bb 98 5f 5e bc
       0.07131731 0.07175421 -0.0044539883 -0.013572596
000170 f9 5d f7 ba 6b b7 5d bc f5 9c 88 bc b8 cc 81 3d
       -0.001887261 -0.0135325 -0.016676405 0.06337875
000180 1a c8 15 bb a5 83 5a 3c 19 97 9b 3d 94 5f 8b 3d
       -0.0022854866 0.013337051 0.07597179 0.068053395
000190 0d 7a b4 bb c0 20 33 bc 25 3f c3 3d 31 67 b4 3d
       -0.0055077136 -0.010933101 0.09533528 0.08808745
0001a0 b3 86 1e 3d 0d 8f 95 3d 95 21 75 bc a2 01 25 3d
       0.038702678 0.073026754 -0.01496162 0.04028476
0001b0 16 52 5d bc f9 d0 bf 3c 39 61 53 bc 34 88 c3 3c
       -0.01350834 0.023415076 -0.012901598 0.023868658
0001c0 a6 bb 8e 3d 4a af 2c 3d e9 27 9a 3d 74 3c ef bb
       0.06969385 0.042159356 0.075271435 -0.0073009077
0001d0 61 10 ee 3d 77 e7 95 3d 87 63 86 3d d6 f6 5e bc
       0.11624218 0.07319539 0.06561952 -0.013608655

network.2.weight f4 [84, 120]
000000 4e 8a e7 3d 82 4f 9d bc a1 ac c6 bd f5 da b8 3c
       0.113056764 -0.019202951 -0.09700895 0.022565344
000010 87 6d cb 3d 42 e1 0f 3e d4 5b db bd 22 93 95 3d
       0.09933 0.14050773 -0.10710874 0.07303454
000020 7a c2 02 3e d8 59 05 3e 8a bc 8b be 9e 48 d1 3d
       0.127695 0.13022554 -0.2729228 0.10218929
000030 11 0a 46 3d 0e 57 61 3d 48 c8 cc bd fb c7 d7 bb
       0.048349444 0.055014662 -0.09999138 -0.006585119
000040 41 1e df 3d 55 a8 6c 3d f4 2c a9 3d 84 17 0c 3e
       0.10894442 0.05777772 0.08260527 0.13680845
000050 59 63 bd 3d ab 4d 38 be 69 48 0c bd 53 e7 67 be
       0.09247465 -0.17998378 -0.034248743 -0.22646837
000060 6f d4 68 bd 31 37 69 3c 64 5f a7 bd 47 45 96 bc
       -0.056843217 0.01423435 -0.08172491 -0.01834358
000070 e1 fc 0e be 8f fc 0f be 3e e4 a1 3d 5b 0e ba bd
       -0.13963653 -0.14061187 0.07904862 -0.09084769
000080 13 4e 28 3e fa b4 db bd 9e 3d 14 3e 98 44 f3 bc
       0.16436033 -0.10727878 0.1447663 -0.029695794
000090 22 8b b7 bd 4e 20 e8 bd ee 3a 0c be 54 c1 de 3d
       -0.08962084 -0.11334287 -0.13694355 0.10876718
0000a0 3f ce 8d be 39 2a 78 bd a9 76 77 3d ed 7b d5 bc
       -0.27696416 -0.06058714 0.060415898 -0.026060069
0000b0 44 3b 11 bd 23 91 26 3e 48 fc 36 3e 56 cb 9f bc
       -0.03545691 0.16266303 0.17869675 -0.019506138
0000c0 35 76 a5 bd da 85 11 3d c5 cc 96 bd 32 43 39 3e
       -0.08079187 0.03552804 -0.073632754 0.18092039
0000d0 27 e2 31 be 97 8a 00 3e e6 1d 92 3d f8 ec 83 bc
       -0.17371427 0.12552868 0.07134609 -0.016104206
0000e0 b7 16 92 be 68 c7 ef 3b b9 33 32 ba b1 69 08 bd
       -0.28532955 0.0073174722 -0.00067978684 -0.03330392
0000f0 7e f8 28 bd 8b 79 ea 3c 11 8d 89 3d cc 03 bc bd
       -0.041252606 0.02862241 0.067163594 -0.09180412
000100 b6 7e 57 be 4f 91 18 3d 18 ea 56 be 4d 30 53 3e
       -0.2104443 0.037247952 -0.20987737 0.20623894
000110 76 d3 64 bd 93 5e 1c bd ff a8 fe 3c 7b 73 a9 bd
       -0.055865727 -0.03817613 0.031086443 -0.08273979
000120 98 c2 94 bc 99 94 69 3e 47 7e 35 3e 19 95 bd bd
       -0.018159196 0.22810592 0.17723952 -0.09256954
000130 7e fb 8a bd 76 ad 5a be a7 06 8f be 52 ed 2a be
       -0.067862496 -0.21355233 -0.27934763 -0.16692093
000140 04 16 41 be 4a c4 d9 bd de b6 00 3e 30 57 98 bc
       -0.18856055 -0.10633142 0.12569758 -0.018596262
000150 97 06 95 3d 26 20 1f 3e ea ff 22 be ee e3 ac be
       0.072766475 0.15539607 -0.15917936 -0.33767647
000160 00 b4 18 3e cc 7a 8e bd aa 9c c7 bd d7 63 22 bd
       0.14912415 -0.069570154 -0.09746678 -0.039645996
000170 78 5d 26 3d fc 14 d5 3d 05 02 e4 3d e6 60 a8 3d
       0.040616482 0.10404393 0.11133198 0.08221607
000180 c5 fb 0c be 69 2d 56 bc e9 59 1a 3e 6d 87 c9 bc
       -0.13767917 -0.01307235 0.1507336 -0.024600709
000190 17 f1 0d 3d 87 7c fa 3d a7 18 08 be b1 33 87 bd
       0.03465375 0.12230783 -0.13290654 -0.06601656
0001a0 c7 14 3d 3e b0 4e 6c bd 33 de 61 be 56 e7 ac bd
       0.18464957 -0.05769223 -0.22057419 -0.08442561
0001b0 28 60 a2 bc 1a 47 e1 bb 07 e0 a4 3c 49 2c 17 be
       -0.019821241 -0.006874931 0.020126356 -0.14762987
0001c0 a5 e5 a8 bd ff 55 75 bb d5 bf c0 3d b0 8e 32 3e
       -0.08246926 -0.003743529 0.09411589 0.17437243
0001d0 ae 57 e8 bd 9f 2f 79 be e1 82 96 3d c2 93 c2 bd
       -0.113448486 -0.24334572 0.07349182 -0.09500839
0001e0 67 a3 01 be b4 de c5 bd 74 f1 1e be ea bd 32 be
       -0.1265999 -0.09661618 -0.15521795 -0.17455259
0001f0 f9 91 d9 3c 95 55 02 be 8b 11 91 be 18 9b 35 be
       0.026558863 -0.1272796 -0.28333697 -0.17734945
000200 11 99 a0 be a5 56 5f 3d 3e 02 0e be 08 69 81 bc
       -0.3136678 0.05452599 -0.13868043 -0.015797153
000210 ce c3 1c 3d a0 e5 9e 3d 8b 72 d5 3d d6 58 e7 3c
       0.03827267 0.07758641 0.10422238 0.028240602
000220 cc 92 de 3b d5 55 32 be ac 58 97 3d e3 b4 13 bd
       0.006792402 -0.17415555 0.0738996 -0.03606118
000230 df cc ef 3d 7d 8f 05 3e d9 c9 24 3e bb 43 58 be
       0.11708998 0.13043018 0.16092624 -0.21119587
000240 84 c8 8e bd 65 05 09 be 63 28 93 bd 36 17 80 be
       -0.06971839 -0.13380964 -0.071854375 -0.2501771
000250 2a 86 1d 3d c0 74 ae 3d ff cc 92 3e 32 27 e1 bd
       0.038458027 0.08518362 0.28672025 -0.10993804
000260 ae 79 ed bd c7 2f 15 be 06 f9 20 3e 36 5b 44 3e
       -0.11595474 -0.14569007 0.15719995 0.19175419
000270 f7 e2 ec bc 6c bd ef bc 97 00 bd 3c 1e 1e 1c 3e
       -0.028916819 -0.029265128 0.02307157 0.15245864
000280 da 9d 12 be 57 c8 8f 3e 21 b9 b3 bd 1f b0 a6 bd
       -0.14318028 0.28082535 -0.08775545 -0.08139061
000290 65 2b 64 be 1d ef 57 3e 2d 68 83 be 80 29 78 3d
       -0.22282179 0.21087308 -0.25665417 0.060586452
0002a0 97 e8 c2 bd 44 a1 05 3e 3c 3e 01 be e0 a0 b1 3c
       -0.09517019 0.13049799 -0.12621397 0.021683156
0002b0 06 07 a7 bd 8b ff b4 3d 7d ec 65 3a db 55 01 3d
       -0.081556365 0.088378035 0.0008770896 0.03157602
0002c0 d9 aa fd bd 87 8d fa 34 b8 6e 03 be e9 e4 fc 3d
       -0.12386102 4.6669103e-07 -0.12835205 0.12348349
0002d0 88 25 1c 3d d9 1a 8a bd 0a c9 23 3e 2e fb 66 bd
       0.03812173 -0.06743402 0.15994659 -0.056391887
0002e0 c3 20 04 ba 4b e4 9b 3d f9 9d 81 3d 39 74 db 3d
       -0.0005040282 0.07611903 0.06328959 0.10715527
0002f0 1a ad c7 3d 90 01 eb bd 05 7f e0 3c 4f a0 02 bd
       0.097498134 -0.114749074 0.027404318 -0.031891163
000300 cf 95 85 3d 37 1e 2f be 3b 93 de 3c 8f ff aa be
       0.06522714 -0.1710137 0.027169814 -0.333981
000310 a3 24 70 bc 15 97 0e bc 6c b6 ea 3d c9 8e c8 bd
       -0.014657172 -0.008703013 0.114605755 -0.09792859
000320 03 1a b5 bd fa 65 77 3e 51 7d 76 bd b3 fa a4 bd
       -0.08842852 0.24159995 -0.060178105 -0.080556296
000330 ab c4 44 3d e2 ed 16 be a8 88 cf bd ca ba eb 3d
       0.04803912 -0.14739183 -0.10133487 0.115102366
000340 f9 92 bf bc 8e 7a f3 bd 5d 54 b3 3d 4a 42 89 ba
       -0.023385512 -0.1188861 0.087563254 -0.0010472026
000350 fc 16 15 3e e6 4a cc 3d d9 42 ae 3c a0 c8 5e 3d
       0.14559549 0.09975223 0.02127211 0.05439055
000360 a6 35 3f 3d c2 cf 48 be 0a a5 5d 3d 59 fb 10 3e
       0.046682023 -0.19610503 0.05411247 0.14158382
000370 20 07 8a be 69 f4 2d be 3f a1 b1 bb bb 9b dc bd
       -0.2695856 -0.16987766 -0.0054208334 -0.10771891
000380 47 45 09 bd a9 48 db 3d 51 fc cb 3d 6a 97 bb bc
       -0.033513334 0.10707218 0.09960235 -0.022899348
000390 cd 76 92 bd d6 5b cf 3d 23 ce a0 3d 36 50 df 3d
       -0.07151566 0.10124938 0.078518175 0.10903971
0003a0 6e bc 01 3d d1 ad 99 3c 55 57 87 bb 08 ae 9b bc
       0.03167384 0.01875964 -0.004130284 -0.019003883
0003b0 14 d9 76 be 90 2b 0a 3e 64 76 7f be c4 d5 c6 bd
       -0.24106246 0.1349318 -0.24947506 -0.09708741
0003c0 b9 c5 3b 3e 34 f0 70 3e 9b 2e 2f 3d 37 70 78 bc
       0.18337144 0.2352913 0.042769056 -0.015163473
0003d0 29 1d b1 bd 41 01 18 bd 7d 9c 26 3c ea 8c 09 3d
       -0.0864814 -0.03711057 0.010169146 0.03358165
0003e0 cd 8b 17 3e 1f 94 92 be af 33 28 3d 3a 1d 01 3e
       0.14799424 -0.28628632 0.041064914 0.12608805
0003f0 78 e2 54 be 4d ff 58 3c ec 14 97 3d d7 95 24 be
       -0.20789516 0.013244462 0.073770374 -0.16072784

network.2.bias f4 [84]
000000 c5 7c 5c bc 5c 5c 85 bc eb 43 59 bc 8d 67 92 3d
       -0.013457482 -0.016279392 -0.013260822 0.07148657
000010 dc 1a 02 3e 0c 14 ac 3b b6 06 67 bc 3a f8 27 3c
       0.12705559 0.005251413 -0.014100721 0.010252053
000020 8c 59 a9 3d 2f 12 c3 bc cc 56 ab 3d 8e e4 5e bc
       0.08269033 -0.023812382 0.083661646 -0.013604296
000030 7b e1 09 3c 7a 2a bf 3d 8c f4 b7 bb 0d a5 99 3d
       0.008415575 0.09334274 -0.005613869 0.07502184
000040 cd 8e eb bb e3 0d 8c 3d 7c 6d ef b8 3c 20 b0 3d
       -0.007188654 0.06838586 -0.00011416801 0.08599898
000050 54 9f 71 bc de ce 31 bc 6e 78 71 bc 34 da 20 3d
       -0.014747459 -0.010852544 -0.014738185 0.039270595
000060 a0 c7 b4 3d 25 ae 5f 3a 94 2d 3d bc aa c8 88 3c
       0.08827138 0.00085327245 -0.011546511 0.016697247
000070 e3 fc 81 3d 54 90 9c 3b 87 fe ee bc 76 93 5f bc
       0.063470624 0.0047779474 -0.029174102 -0.013645997
000080 0b 74 c3 bb 35 44 2b 3d 57 2a bc 3b 13 3b c5 3d
       -0.005964761 0.041813094 0.005742352 0.09630408
000090 95 d2 6c bc 54 b8 b4 3d 44 e8 92 3d a8 ff cf bc
       -0.014454504 0.0882422 0.071732074 -0.025390461
0000a0 84 cb 75 bc d3 9a bd bc aa 03 31 bc 21 e8 aa 3d
       -0.015002135 -0.023145115 -0.010804096 0.08345056
0000b0 c6 9d de bc fb 6f 2b 3c c5 f0 97 3d 7d 2e b7 3d
       -0.027174842 0.01046371 0.0741897 0.08944414
0000c0 14 2e 9c 3d cc cd d9 bb 75 06 bb 3d b4 c7 1e bc
       0.07625976 -0.0066468474 0.09132091 -0.009691168
0000d0 92 4d 3b bc eb 91 ce 3d 35 7c 43 bc f0 86 87 3d
       -0.011432068 0.100864254 -0.011931469 0.06617534
0000e0 ad 85 06 3d f8 63 46 bc 4a 14 06 3d ab 62 b3 3d
       0.032842327 -0.012108795 0.032734193 0.08759054
0000f0 0c 85 bd bc 07 fc 69 bc c2 90 b4 bb e6 76 71 bc
       -0.02313473 -0.014281279 -0.0055104205 -0.01473782
000100 38 b7 96 3d a7 85 b4 3d f1 9c 40 bb 95 43 93 bc
       0.07359165 0.08814555 -0.002939042 -0.017976562
000110 5f ba 8e 3d 3c 34 b7 3d ca 84 5b bc 7b 0d c9 bc
       0.06969141 0.0894551 -0.013398359 -0.02454256
000120 71 46 ae 3d 93 e8 69 3d 0c 01 88 bc cd 21 79 bc
       0.085095294 0.057106566 -0.016602062 -0.015205813
000130 c5 0f 8d bc af d0 6d 3c 57 db 38 3c e0 a1 b4 bc
       -0.017219434 0.014515086 0.011282763 -0.022049844
000140 e5 52 86 3d de 95 12 3c 40 0e b3 3d c0 4e 79 bc
       0.065587796 0.008946864 0.08742952 -0.015216529

network.4.weight f4 [21, 84]
000000 83 6a 8a bd ab 95 f9 3b 7d 10 af bb d1 2d 2f be
       -0.06758597 0.0076167188 -0.0053425417 -0.17107321
000010 82 0b 48 be 40 bc 1d be eb 8f d5 bd 01 55 51 3d
       -0.1953564 -0.15403843 -0.10427841 0.051106457
000020 06 9d 94 bd 1e c6 8c bc e3 17 e1 bd 8d 14 f2 bd
       -0.07256512 -0.017184313 -0.10990884 -0.11820326
000030 20 eb 3c 3e 09 67 b1 3e 7a c8 48 b9 a1 2b e7 3b
       0.18449068 0.34648922 -0.0001914817 0.0070547615
000040 19 a8 0a be 1a c3 ed bc b8 3e 90 bd b3 d7 87 3e
       -0.13540687 -0.029023696 -0.07043213 0.26531753
000050 6a dc b5 3e 56 f3 bf 3e 7c 29 de 38 06 a4 80 3e
       0.35519725 0.37490338 0.00010593512 0.2512514
000060 cf 96 b6 3e 97 2e 64 be 56 a8 30 3e e9 8c d1 3d
       0.35661933 -0.22283398 0.17251715 0.102319546
000070 48 3d ca bd 35 99 74 3e a4 f1 e1 3d 36 5b 3e bd
       -0.0987497 0.23886569 0.110324174 -0.046473704
000080 de dd 61 bd 63 71 3f bc 7b 87 30 3e fc 5d d8 bd
       -0.05514323 -0.011684748 0.17239182 -0.10564801
000090 33 12 2d bd db e7 52 3e c3 90 0b 3d 11 75 45 3e
       -0.042253684 0.20596258 0.034073602 0.19282939
0000a0 be 1b b2 3d de 0a 62 be 77 c5 bb bc a5 e7 f1 3d
       0.08696698 -0.22074458 -0.022921307 0.11811761
0000b0 9d 91 e0 bd fb cd 97 bd 25 cc ac bd bc a4 c0 bd
       -0.109652735 -0.074123345 -0.08437375 -0.094064206
0000c0 a7 8f 97 3c bc 5c 02 3e 04 0f c0 3d eb 24 5d 3e
       0.018501116 0.12730688 0.09377864 0.21596114
0000d0 11 59 dd bd 6f ed be 3d 47 1c 1c be 8a 3c fe bc
       -0.10808004 0.093226306 -0.15245162 -0.031034727
0000e0 2a 1e 42 3e 0c ef 1f bd d1 14 a5 bd a1 b0 eb 3c
       0.18956819 -0.039046332 -0.08060611 0.028770747
0000f0 13 a4 c9 bc c4 c9 84 be 60 c6 8b 3d af e1 d0 bd
       -0.02461437 -0.25935185 0.068249464 -0.10199296
000100 b6 f3 0c 3e 6d 7a a8 39 fb d2 df 3d e9 c7 1d 3e
       0.13764843 0.0003213467 0.10928913 0.15408291
000110 04 af e4 bd 96 e3 08 bd 10 a7 1d bd 35 c2 78 bc
       -0.11166194 -0.033420168 -0.0384894 -0.015183021
000120 f2 cb ba bd c9 b1 b2 3d 8d 52 dc be 48 b1 83 3e
       -0.09120931 0.08725316 -0.4303173 0.25721192
000130 d0 11 55 3d 97 e3 09 3e c0 31 76 3d 2b 32 40 bd
       0.05201894 0.13465725 0.06010604 -0.046922844
000140 d0 b5 15 bd cb 09 41 3e 53 df 46 3e af 2f b3 be
       -0.036550343 0.18851392 0.19421129 -0.34997317
000150 a3 f8 e5 3d ba bf c2 bd f2 c2 02 3e 23 1a 8b bd
       0.11229064 -0.09509225 0.12769678 -0.067920946
000160 1a ad 05 3e 28 8e 09 be 89 99 40 3e 14 64 b1 be
       0.13054314 -0.13433135 0.18808569 -0.34646666
000170 e1 e7 51 3d 74 4f 39 be 6b 87 56 3d 64 35 54 3e
       0.051246528 -0.18096715 0.05237524 0.20723492
000180 b8 c9 a5 be 62 15 a0 3d 97 6c b3 be 06 ac b8 3d
       -0.32380462 0.078165784 -0.35043785 0.09017186
000190 6c 83 fd bd 9d dc 92 be 5c 41 2a be 56 68 8d bd
       -0.12378582 -0.2868394 -0.16626495 -0.06904666
0001a0 5c 3b 38 3d f1 dc a8 3e f3 9e c1 3e f6 45 39 3d
       0.044978485 0.32981065 0.3781658 0.045232736
0001b0 2d 2b 27 3d 78 d9 a8 be 4f c6 14 be a4 10 8e bc
       0.04081266 -0.32978415 -0.14528774 -0.01734192
0001c0 6f ce a2 3e 0a d0 77 3e 7d 1b 2a be 46 48 c9 bd
       0.3179812 0.24200454 -0.16612048 -0.09828238
0001d0 54 a7 81 3c 8f 9b 8f bd 52 dc 8a 3e cb 8a 2e be
       0.015826859 -0.07012092 0.27121216 -0.17045133
0001e0 fb 3d 41 3d b9 8c 88 bc 9c cd 63 3c b8 b4 0b 3d
       0.04717825 -0.016668664 0.013904002 0.034107894
0001f0 52 80 66 be 8d 35 05 3e 24 9a ae bd 1d 13 d9 bc
       -0.22509888 0.13008709 -0.08525494 -0.026498372
000200 98 6a b8 bd a8 a9 02 bd 22 4a 0d bd 1d 0c 5b 3e
       -0.09004706 -0.031900078 -0.034494527 0.2139134
000210 e0 8e 07 be fe ec 86 bc db db 38 3e fd 08 5e be
       -0.13238096 -0.016470429 0.18052618 -0.21683116
000220 a3 62 d6 bd 7e dd a9 3e 91 68 4a 3e cd 2a 02 3e
       -0.10468032 0.33176798 0.19766451 0.1271164
000230 f3 f5 03 3d 3e c5 cf bb 82 30 cb 3e d2 11 d3 3d
       0.032216977 -0.006340652 0.39685446 0.10306133
000240 7d a8 ac 3d cf ad 7a be 79 6c 86 3d fb d9 1b bd
       0.08430574 -0.24480365 0.06563658 -0.03804968
000250 43 3b 2f 3e 50 09 6b be 63 3f 9c 3d c1 a2 5a 3d
       0.1711245 -0.22952771 0.076292776 0.05337787
000260 ea 28 eb 3c 24 e3 0d 3e d7 cb 0c 3e d4 c8 fd bd
       0.028706033 0.13856179 0.13749634 -0.123918205
000270 e5 b5 d0 3d cc c5 56 3e 43 44 21 bd 6a 41 be be
       0.10190944 0.20973891 -0.03937174 -0.37159282
000280 79 7b e5 3d 4c 4e b0 3d f0 81 10 3c 43 93 6c 3d
       0.11205191 0.08608684 0.008820042 0.057757627
000290 8b 18 c6 be 15 72 70 3e 2c 27 30 3e a4 e5 aa 3e
       -0.386906 0.23481019 0.17202443 0.33378327
0002a0 c7 b4 c4 be b4 cb af 3d 8d 68 e3 bc bf fb 52 bc
       -0.38419172 0.08583775 -0.027759815 -0.012877404
0002b0 bf f1 0f 3d 42 a8 ee bd 78 1f 3b be 1d 2c 52 3d
       0.035142656 -0.116531864 -0.18273723 0.0513116
0002c0 3d bf b6 3d af 45 69 3e 8a 0f 49 3e 06 04 27 be
       0.089231946 0.22780488 0.19634834 -0.16310129
0002d0 f5 9f 8a be 09 3e 17 3e f2 9e e9 bd 14 b0 a9 3d
       -0.27075163 0.14769758 -0.114072695 0.08285537
0002e0 6d 81 40 3e 45 bb 3f 3e ba df 3e bd 60 b7 32 3e
       0.18799372 0.18723781 -0.04660008 0.17452765
0002f0 47 58 ab bd ff 65 44 be ef 07 a3 bc 66 48 bf 3d
       -0.08366447 -0.19179533 -0.019901244 0.09339981
000300 c1 d8 90 bc 4c 90 27 bd ee 9a 1f 3d 2b 54 84 3e
       -0.017681481 -0.040909097 0.03896611 0.25845465
000310 63 02 f2 bd 72 1a 3f bd 1e ec f1 3c a3 11 01 3e
       -0.118168615 -0.04665608 0.029531535 0.12604384
000320 b1 d7 70 bb a1 07 43 3d 2d 4d c9 bc 58 9b df bd
       -0.0036749656 0.047614697 -0.024572933 -0.10918301
000330 65 eb 12 3e 70 b1 d0 3d 15 a6 01 be 14 be 93 3d
       0.14347608 0.101900935 -0.12661012 0.07213989
000340 9a 8c 82 bc af 26 85 bd 29 2e a2 3e bc 39 55 be
       -0.015936185 -0.06501519 0.31675842 -0.20822805
000350 63 e0 61 3c ca 79 89 3e 35 9b 33 bd 5d 1f 9b 3d
       0.013786408 0.2685073 -0.04384919 0.075743414
000360 89 85 bf 3d 61 cf b2 be a9 8b c3 bd 74 f9 96 be
       0.09351642 -0.34923843 -0.095481224 -0.29487193
000370 fa d2 4a 3e 41 56 36 3e e9 3b 39 be 38 1e 6e bd
       0.19807044 0.17806341 -0.1808926 -0.058134288
000380 5f 13 db bc 64 6e 6c 3c 2a 40 a3 bc d5 24 2e be
       -0.026742635 0.014430616 -0.019928057 -0.17006238
000390 0b a2 4f bb bb b1 87 be a6 f1 0b be 2b 9c a7 bd
       -0.0031682278 -0.26502785 -0.136664 -0.081840836
0003a0 b5 02 14 3e 82 1a 46 3c a9 db cc 3d 8e a2 23 ba
       0.14454158 0.012091281 0.10002834 -0.0006242179
0003b0 78 7b 6f be e5 1b 5f 3e 0b ab 9f bc 65 db d4 bd
       -0.23386943 0.21787985 -0.01949074 -0.10393409
0003c0 8c c3 70 3e f2 52 77 be 28 85 45 3d 62 94 b0 bd
       0.23512095 -0.24152735 0.04822269 -0.08622052
0003d0 0e e5 0d be ec 56 46 3e 18 45 f7 3a 78 71 0d 3e
       -0.13856909 0.19369096 0.0018865196 0.13812816
0003e0 b0 5f ba bc 54 44 af 3e 60 f8 89 bb 77 2e f4 bb
       -0.022750705 0.34231818 -0.004210517 -0.007451828
0003f0 37 cb 38 3d dd 99 1f be b3 af 8f be 98 f9 53 be
       0.045115676 -0.15586038 -0.28063735 -0.20700681

network.4.bias f4 [21]
000000 a2 dc b2 3d b3 b5 db 3d f4 64 cc 3d 93 31 ca 3d
       0.087334886 0.10728016 0.09980193 0.09872737
000010 aa f3 d0 3d 47 7e 87 3d 2b 04 bf 3d 86 ff d4 3d
       0.10202725 0.06615882 0.09326967 0.104003
000020 1b ac b3 3d bf 43 d0 3d 09 24 ab 3d 49 4f d7 3d
       0.08773061 0.101691715 0.083564825 0.10513169
000030 44 49 a7 3d a7 48 ad 3d a4 8f a8 3d e9 7a bb 3d
       0.08168271 0.08461123 0.08230522 0.091543026
000040 30 81 c0 3d 17 67 a1 3d c1 64 bd 3d 1d 52 ca 3d
       0.093996406 0.07880991 0.09247733 0.09878943
000050 a5 17 ac 3d
       0.08402947
