model/state_dict/my_random2.pt (torch, 248354 bytes, 10 tensors)

cnn.0.weight f4 [5, 5, 3, 3]
-0.01005069 -0.13826402 0.09014271 0.0054240106 0.0764165 0.044173066 -0.12268795 0.032272086
0.016393365 -0.03931969 -0.06674226 -0.0877678 0.031104635 -0.023004867 -0.07585629 0.015000985
0.043872137 -0.0035175069 0.05350936 -0.12623732 -0.04122828 -0.069146305 -0.017200721 -0.03957285
-0.04600527 -0.13541721 -0.09848248 0.08423932 0.5800794 0.4403403 0.049586643 0.06878135
0.15172398 0.21590787 -0.084405094 0.19773202 -0.15562776 -0.34138718 -0.36240366 0.008355735
-0.24989077 0.22490028 -0.19563133 0.09064253 -0.18648618 -0.102029845 -0.026791703 0.06248448
0.057905857 0.003630461 -0.1062969 -0.0093278475 -0.026201759 -0.014227657 -0.12762238 -0.053941544
-0.113241725 0.024194546 0.006191675 -0.36867824 -0.022994308 0.0510745 0.053819973 0.12682895
0.06798224 0.05264863 0.006514599 -0.034674063 -0.27649394 0.012363222 -0.03012442 0.013078111
0.05346119 -0.0795872 0.3852211 -0.14552473 -0.26557043 0.5624893 -0.11554581 0.049879055
0.2931958 -0.09171728 0.14074828 -0.48783484 -0.262051 0.094900616 -0.14737847 -0.03688692
-0.34199214 -0.33898622 -0.062088124 0.048285358 -0.043992575 -0.036530793 -0.019962553 0.06813508
0.026806822 -0.018193465 0.007933476 -0.037764847 -0.019015163 -0.1502503 -0.021156766 -0.14238167
0.0280267 -0.014986011 0.043498848 -0.08445496 0.0947452 0.020329203 0.0899979 0.015188594
0.13928099 -0.007531559 0.01743997 0.028401623 0.04264585 0.18494914 -0.13311589 0.59725004
0.19042121 0.46554026 -0.05908756 0.07202067 -0.1605118 0.1618931 0.1282407 0.015771091
-0.23384114 -0.24622704 -0.18229295 -0.08458365 -0.22515011 0.08081276 -0.2153241 0.016749498
-0.06763705 -0.028410854 -0.013221271 -0.041477975 -0.020840472 -0.12215836 0.08112059 -0.166388
-0.21726006 -0.0457432 -0.044758245 -0.11943638 -0.12801132 -0.10812393 0.009536515 -0.12318282
-0.17521892 0.07957077 -0.07829283 -0.098619215 -0.047131788 -0.00695706 -0.033343095 -0.11535886
-0.08767218 -0.11196346 0.3886324 -0.09845179 0.37017116 0.10976392 0.35558537 0.43118152
0.27387208 0.30799103 -0.020714197 -0.57043165 0.036479697 -0.682636 -0.1065006 -0.34512615
-0.6286025 -0.4121111 -0.40956122 0.09135887 -0.03363498 0.0062115025 -0.0036848213 0.05137357
-0.18258382 -0.09866351 0.038137905 -0.16824797 -0.015656069 -0.25723198 0.07316942 -0.014709549
-0.0012661236 -0.061573844 -0.19891661 -0.027080977 -0.10036918 -0.044016827 0.013571873 -0.028179988
-0.21363226 -0.1198533 0.022966262 -0.25134978 -0.079950996 0.10701915 -0.0968023 0.36758575
0.23545235 0.08863796 -0.14197023 0.50317883 -0.35058793 -0.098517485 -0.13958782 -0.2928018
-0.20985301 -0.5731166 -0.112856366 -0.012640634 -0.85143846 -0.1748985 -0.086757936 0.2607165
-0.1498619
00000000: a6ab 24bc 1595 0dbe be9c b83d e6bb b13b
00000010: 4180 9c3d d1ee 343d d243 fbbd bc2f 043d
00000020: 614b 863c af0d 21bd 2ab0 88bd 9bbf b3bd
00000030: 26cf fe3c b474 bcbc 8b5a 9bbd b1c6 753c
00000040: 45b3 333d f985 66bb a12c 5b3d 5b44 01be
00000050: fcde 28bd 949c 8dbd 87e8 8cbc 2417 22bd
00000060: 0670 3cbd cfaa 0abe 2fb1 c9bd aa85 ac3d
00000070: 1580 143f 4974 e13e 5d1b 4b3d 3ddd 8c3d
00000080: 885d 1b3e f416 5d3e 94dc acbd 437a 4a3e
00000090: e25c 1fbe 4dca aebe f98c b9be 7ee6 083c
000000a0: 5ee3 7fbe 424c 663e 9453 48be caa2 b93d
000000b0: 3cf6 3ebe 06f5 d0bd 467a dbbc baef 7f3d
000000c0: b12e 6d3d 07ed 6d3b 30b2 d9bd d4d3 18bc
000000d0: 12a5 d6bc 1e1b 69bc 71af 02be cff1 5cbd
000000e0: 47eb e7bd a433 c63c 89e3 ca3b 65c3 bcbe
000000f0: 8f5e bcbc 7f33 513d 5572 5c3d 73df 013e
00000100: 463a 8b3d 17a6 573d 6b78 d53b 6406 0ebd
00000110: 9d90 8dbe 1d8f 4a3c 7dc7 f6bc 9345 563c
00000120: 1ffa 5a3d 9dfe a2bd b33b c53e 6f04 15be
00000130: d9f8 87be 4cff 0f3f 48a3 ecbd fb4d 4c3d
00000140: c31d 963e 45d6 bbbd 5120 103e 7dc5 f9be
00000150: 8c2b 86be 415b c23d 62ea 16be bd16 17bd
00000160: 9819 afbe 9a8f adbe 1e50 7ebd dec6 453d
00000170: 8f31 34bd 50a1 15bd 8288 a3bc 688a 8b3d
00000180: fb99 db3c 760a 95bc 69fb 013c 50af 1abd
00000190: b0c5 9bbc 37db 19be f450 adbc 80cc 11be
000001a0: 4098 e53c e387 75bc d92b 323d b9f6 acbd
000001b0: c509 c23d 6e89 a63c d250 b83d 95d9 783c
000001c0: ad9f 0e3e 4ccb f6bb 45de 8e3c 85aa e83c
000001d0: 6aad 2e3d 4f63 3d3e 884f 08be 61e5 183f
000001e0: c7fd 423e 4b5b ee3e cc05 72bd 937f 933d
000001f0: 355d 24be 4ec7 253e 8851 033e 6032 813c
00000200: 0d74 6fbe f122 7cbe 01ab 3abe 313a adbd
00000210: c08d 66be 2981 a53d ec7d 5cbe 3e36 893c
00000220: 4b85 8abd e1bd e8bc 089e 58bc cfe4 29bd
00000230: a3b9 aabc 2a2e fabd 8d22 a63d 9e61 2abe
00000240: 6c79 5ebe 395d 3bbd 6c54 37bd 109b f4bd
00000250: 6615 03be 1470 ddbd 0b3f 1c3c 4647 fcbd
00000260: 976c 33be 00f6 a23d fe57 a0bd dff8 c9bd
00000270: 430d 41bd 0df8 e3bb c592 08bd 4441 ecbd
00000280: 798d b3bd 194d e5bd d3fa c63e 18a1 c9bd
00000290: 1387 bd3e e8cb e03d 490f b63e d3c3 dc3e
000002a0: f638 8c3e 00b1 9d3e d2b0 a9bc cf07 12bf
000002b0: bc6b 153d 3cc1 2ebf fd1c dabd 60b4 b0be
000002c0: 18ec 20bf 3a00 d3be 02b2 d1be 5c1a bb3d
000002d0: d5c4 09bd dc89 cb3b 0b7d 71bb 186d 523d
000002e0: 41f7 3abe 1810 cabd 7e36 1c3d 3249 2cbe
000002f0: 2841 80bc e9b3 83be d9d9 953d 5200 71bc
00000300: 0ff4 a5ba db34 7cbd ccb0 4bbe edd8 ddbc
00000310: 5b8e cdbd fd4a 34bd 905c 5e3c b8d9 e6bc
00000320: 6ac2 5abe a675 f5bd be23 bc3c ebb0 80be
00000330: 59bd a3bd db2c db3d 4940 c6bd 3334 bc3e
00000340: 6c1a 713e d287 b53d a560 11be 54d0 003f
00000350: 4380 b3be 89c3 c9bd 1cf0 0ebe 1eea 95be
00000360: b5e3 56be c5b7 12bf 3d21 e7bd a91a 4fbc
00000370: dff7 59bf 9818 33be 25ae b1bd a27c 853e
00000380: 6675 19be

cnn.0.bias f4 [5]
0.051795483 -0.082332544 -0.08058683 0.024620011 -0.0340384
00000000: 8027 543d f79d a8bd b50a a5bd e8af c93c
00000010: d96b 0bbd

cnn.2.weight f4 [5, 5, 3, 3]
0.1985228 -0.046426136 0.18364368 0.124015026 -0.05196131 -0.08729607 0.008982929 0.19025958
0.07786732 0.10203187 -0.084130734 -0.13163206 -0.0046722414 -0.07807578 -0.33790213 -0.0046892967
-0.13604663 -0.03069968 0.13125424 -0.20062691 -0.08802216 -0.089933336 -0.019603444 0.017168289
-0.15949266 -0.19414105 -0.15391858 0.078881375 0.07318857 0.20293677 0.16011712 0.23785728
0.074961826 0.11294679 -0.10028898 0.27914536 0.26867604 0.016397579 0.11905154 0.0039179153
0.28874654 -0.3090009 0.098300286 0.123964615 0.06407766 -0.16211319 -0.3579056 -0.24542613
-0.2541547 0.075692154 -0.26937965 -0.20770116 -0.45134816 0.086555466 -0.08896613 -0.113855705
-0.023793282 -0.10373105 0.06370521 0.018522855 0.08092584 0.24756786 0.20487432 -0.032818977
-0.095577545 -0.0842731 -0.09152173 0.15145731 -0.13634022 -0.16198222 -0.032999825 0.21447176
-0.15447876 -0.07339896 -0.122237846 -0.14639883 -0.19903645 -0.0199466 -0.1677805 -0.052613296
-0.32379016 -0.025044283 0.07399681 0.074998535 0.13156897 -0.055634122 -0.009788363 -0.1721669
-0.05499684 0.1737029 -0.07935654 0.1161006 -0.037735183 -0.029096993 -0.25937706 0.02532772
-0.19536775 0.040244088 0.20126975 -0.16664374 0.07328724 0.0407712 -0.0011411054 0.29690748
-0.17823264 0.08126806 0.25428343 -0.08318945 -0.046929102 0.002580832 -0.021769086 -0.09842842
-0.19659214 0.008585495 -0.15470943 0.25557944 0.19551297 -0.12110805 -0.35735834 0.15286371
-0.3907939 0.30006602 0.26993737 0.13989824 0.3780999 0.15004309 -0.10675023 -0.10702484
-0.25006065 0.046174552 -0.5342998 0.12210213 -0.3461618 0.1763222 0.33152014 -0.076586716
-0.26226404 -0.18464649 -0.17844823 0.29467273 0.24652526 -0.26472592 -0.22483636 0.049797215
0.035126723 0.3158861 -0.18723837 -0.3408868 0.29487166 -0.04511434 -0.19222018 -0.0035306218
-0.032502066 0.044730436 -0.06658059 0.09528676 -0.058637816 0.37229845 -0.23236953 -0.12365692
-0.1590048 -0.012618719 -0.006252017 0.36083612 0.06542083 -0.14565052 0.3949782 -0.013315563
-0.34821597 0.2985527 0.0064284718 0.17457576 -0.43580186 0.27662742 0.161938 -0.074246675
0.20431194 0.0011037403 -0.07487924 0.061151292 -0.27058852 -0.103685975 -0.21932046 0.025848964
0.15917447 0.044399135 -0.031900562 -0.22415254 -0.14655982 0.10711177 -0.20819026 -0.12424957
0.15793021 0.13179137 -0.0048851236 -0.057101127 -0.16904554 -0.0025820916 -0.054474548 0.0028275275
0.031957317 0.18748383 -0.15971285 -0.022544479 -0.110507414 -0.10813068 -0.09804518 0.062239073
-0.24858662 -0.14510423 0.051296223 -0.18796895 0.268178 -0.07967907 -0.33265767 -0.30386153
-0.1663062 0.2932959 -0.1997949 -0.15830673 0.1058419 -0.044212036 0.021869823 -0.120438024
-0.1741005
00000000: 9049 4b3e 5529 3ebd 170d 3c3e 97fb fd3d
00000010: 62d5 54bd 48c8 b2bd 232d 133c 68d3 423e
00000020: e778 9f3d 16f6 d03d bc4c acbd 8eca 06be
00000030: 9a19 99bb 32e6 9fbd 8201 adbe aca8 99bb
00000040: cf4f 0bbe e57d fbbc 8367 063e 2471 4dbe
00000050: f644 b4bd f82e b8bd 6797 a0bc 83a4 8c3c
00000060: 0b52 23be e9cc 46be d59c 1dbe 8f8c a13d
00000070: e4e3 953d a8ce 4f3e bef5 233e dc90 733e
00000080: 9685 993d a650 e73d 4f64 cdbd 24ec 8e3e
00000090: e88f 893e 3754 863c 4bd1 f33d db61 803b
000000a0: 96d6 933e 5e35 9ebe a951 c93d 29e1 fd3d
000000b0: 263b 833d 0001 26be 673f b7be fd50 7bbe
000000c0: 9120 82be 7d04 9b3d 21ec 89be 9daf 54be
000000d0: 1b17 e7be fe43 b13d e033 b6bd 2e2d e9bd
000000e0: 21ea c2bc f270 d4bd e177 823d 3ebd 973c
000000f0: 72bc a53d 6e82 7d3e 93ca 513e 316d 06bd
00000100: 29be c3bd 6097 acbd bf6f bbbd a017 1b3e
00000110: c59c 0bbe abde 25be d32a 07bd 7c9e 5b3e
00000120: ae2f 1ebe 3252 96bd d657 fabd 93e9 15be
00000130: 36d0 4bbe 0d67 a3bc a7ce 2bbe 0a81 57bd
00000140: d3c7 a5be ab29 cdbc a48b 973d d598 993d
00000150: 04ba 063e 9be0 63bd 5f5f 20bc 854c 30be
00000160: 5e44 61bd 2cdf 313e af85 a2bd 27c6 ed3d
00000170: 3590 1abd d15c eebc 12cd 84be 147c cf3c
00000180: 7c0e 48be fcd6 243d a819 4e3e a8a4 2abe
00000190: 9f17 963d b4ff 263d 2591 95ba 4204 983e
000001a0: 9e82 36be de6f a63d 7031 823e 3b5f aabd
000001b0: bb38 40bd 2d23 293b 1555 b2bc d794 c9bd
000001c0: 734f 49be 2daa 0c3c 266c 1ebe 4fdb 823e
000001d0: 8d34 483e 7f07 f8bd acf7 b6be 4e88 1c3e
000001e0: 2316 c8be 41a2 993e 3b35 8a3e 7c41 0f3e
000001f0: 4f96 c13e e5a4 193e dd9f dabd d72f dbbd
00000200: f307 80be 8721 3d3d dfc7 08bf ae10 fa3d
00000210: 1f3c b1be cf8d 343e 02bd a93e 7fd9 9cbd
00000220: 7947 86be f813 3dbe 22bb 36be 58df 963e
00000230: 1e71 7c3e 288a 87be 813b 66be 2af8 4b3d
00000240: 0ae1 0f3d d3bb a13e 6abb 3fbe b788 aebe
00000250: 6bf9 963e d0c9 38bd 5ed5 44be 0162 67bb
00000260: e320 05bd 4337 373d 685b 88bd b425 c33d
00000270: 352e 70bd e79d be3e 47f2 6dbe d73f fdbd
00000280: 27d2 22be bebe 4ebc b8dd ccbb 83bf b83e
00000290: 5bfb 853d 6925 15be 953a ca3e 8529 5abc
000002a0: 5d49 b2be e6db 983e eea5 d23b fdc3 323e
000002b0: 6c21 dfbe 1ca2 8d3e 13d3 253e a40e 98bd
000002c0: 2637 513e 61ab 903a 495a 99bd c779 7a3d
000002d0: 948a 8abe 5059 d4bd 8b95 60be 35c1 d33c
000002e0: a2fe 223e dedb 353d 2aaa 02bd 3e88 65be
000002f0: c713 16be 6a5d db3d d42f 55be 8f76 febd
00000300: 75b8 213e 51f4 063e 6313 a0bb dfe2 69bd
00000310: 461a 2dbe 4f38 29bb b420 5fbd 0a4e 393b
00000320: ade5 023d c3fb 3f3e c48b 23be 33af b8bc
00000330: b651 e2bd 9e73 ddbd e9cb c8bd 66ee 7e3d
00000340: 7e8d 7ebe 3496 14be fd1b 523d ef7a 40be
00000350: a04e 893e c82e a3bd 1b52 aabe bd93 9bbe
00000360: 2c4c 2abe e12a 963e 0997 4cbe 291b 22be
00000370: a3c3 d83d ae17 35bd 5828 b33c 36a8 f6bd
00000380: 6747 32be

cnn.2.bias f4 [5]
-0.10428141 -0.15190433 -0.04639105 -0.07710361 -0.07491026
00000000: 7e91 d5bd cf8c 1bbe 8b04 3ebd 7fe8 9dbd
00000010: 8d6a 99bd

network.0.weight f4 [120, 405]
-0.13922854 0.1367593 0.09175648 -0.11821555 -0.09611153 -0.074179575 -0.1755995 0.019270616
0.084939495 0.058892857 -0.052699737 0.06738199 0.022486908 -0.17631261 0.105287 0.19172327
0.025970738 -0.060392242 -0.02237125 -0.15690295 -0.06076786 -0.1339531 -0.10577399 0.072713256
0.0024366733 0.0672025 -0.02066211 0.05727427 -0.033184867 -0.11739679 0.030564023 -0.05613127
-0.15740258 -0.02900079 0.063656315 0.060006797 0.02824341 -0.01791076 -0.018820625 -0.061220285
0.063787416 -0.0774585 0.040384747 -0.08630234 0.04910113 -0.019646721 0.08781651 -0.04712641
0.017366305 -0.015392972 0.10297809 -0.030968752 0.0030108318 0.06906225 -0.022700153 -0.026521245
0.047499053 0.08172691 -0.035135094 -0.011248933 0.25155857 0.22326426 -0.0645929 -0.013838421
0.028432408 -0.07207893 -0.0030426315 -0.08185604 -0.025777562 -0.09627919 0.09972832 -0.015960887
0.031876024 -0.097732306 -0.08023855 -0.019564927 0.0018713557 -0.115376316 0.066876575 0.09050135
0.073166385 0.12870814 0.10770178 -0.014582977 -0.13138616 -0.07188338 0.057233125 0.040153652
0.111640096 -0.119965956 0.16080423 0.053768486 -0.096433945 -0.07739225 -0.06331217 0.010633191
-0.06625369 0.0654649 -0.18388607 0.10919341 -0.063992895 -0.07710575 -0.077529564 -0.059093855
-0.096031725 0.0025258318 -0.09333255 -0.026590956 0.021407586 0.14368883 -0.106320225 -0.05899852
-0.18556137 -0.061193615 -0.07954434 -0.038583543 -0.025470756 0.08804877 0.038441498 0.08486282
-0.086652316 0.15285003 -0.10688907 -0.038881104 -0.004769708 0.03760411 0.028401554 0.06051801
0.10375235 0.008776418 0.02255096 -0.026020808 -0.12693575 0.053027164 -0.09966979 0.04057199
-0.012844722 -0.031856865 0.102108 0.09142898 -0.07967856 0.025246898 0.058302913 0.01956259
0.08513227 0.036864985 -0.09952783 0.05724791 -0.09578994 0.09380835 0.19667538 0.035193723
0.01630945 0.11342479 -0.026663108 0.040389434 -0.018563347 0.00733618 -0.028544584 -0.14694925
-0.020337874 -0.04739446 0.020700775 -0.039188188 0.06337158 -0.061003968 -0.24246767 0.08385274
-0.037029244 -0.06344335 -0.11924184 -0.042219415 -0.1100449 -0.17637661 -0.20450954 -0.09258154
0.040615804 -0.17367674 -0.026407685 -0.010101554 -0.17053118 -0.043169077 -0.12575765 -0.034815416
-0.11187736 0.037941888 -0.056007303 -0.047605854 0.025105754 -0.091438524 -0.09320913 0.025855362
-0.12527321 -0.063330576 0.0775902 0.034639925 -0.049147014 -0.13324909 -0.026799098 -0.13355058
-0.024738895 0.037666235 0.038303833 0.13298756 -0.03727468 -0.21320376 -0.13441549 -0.013979068
-0.18197371 -0.05955389 -0.016752148 0.100981556 0.048836768 0.014762912 0.027387636 0.007280053
-0.09168801 -0.114777155 -0.08476252 -0.09013981 0.0321959 -0.012085773 0.003269764 -0.19737753
-0.2578551 -0.013343313 -0.011882914 -0.22473432 0.08978766 -0.04727254 -0.08584735 -0.10730812
-0.08750384 -0.050824717 0.071363844 -0.1712859 -0.18590373 -0.07762494 -0.18605354 -0.026312392
-0.14907469 -0.07421601 -0.07542063 0.14004518 0.088438325 0.15595749 -0.087902695 -0.10063943
0.070487544 0.011615041 0.05107738 0.04317862 -0.13716745 -0.09961462 0.010979167 0.040870093
00000000: ed91 0ebe a10a 0c3e d2ea bb3d ff1a f2bd
00000010: 1fd6 c4bd 76eb 97bd 5bd0 33be 69dd 9d3c
00000020: c2f4 ad3d a339 713d aedb 57bd 92ff 893d
00000030: 7736 b83c 4b8b 34be b6a0 d73d 1b53 443e
00000040: 96c0 d43c db5d 77bd e943 b7bc 2bab 20be
00000050: b8e7 78bd 002b 09be 09a0 d8bd b0ea 943d
00000060: 98b0 1f3b 77a1 893d 9643 a9bc 6d98 6a3d
00000070: dbec 07bd ba6d f0bd 6761 fa3c e7e9 65bd
00000080: 242e 21be 1193 edbc 3e5e 823d b0c9 753d
00000090: b95e e73c 96b9 92bc b62d 9abc 1fc2 7abd
000000a0: faa2 823d 90a2 9ebd 7a6a 253d 48bf b0bd
000000b0: 441e 493d 29f2 a0bc 24d9 b33d 9f07 41bd
000000c0: c843 8e3c ce32 7cbc 2de6 d23d 2eb2 fdbc
000000d0: 6051 453b 8270 8d3d acf5 b9bc 1543 d9bc
000000e0: 5e8e 423d 7060 a73d d1e9 0fbd 724d 38bc
000000f0: 49cc 803e 639f 643e 4849 84bd 8bba 62bc
00000100: 15eb e83c 1e9e 93bd e366 47bb 24a4 a7bd
00000110: 772b d3bc 062e c5bd 5d3e cc3d 68c0 82bc
00000120: 6f90 023d e027 c8bd 1c54 a4bd a046 a0bc
00000130: 4748 f53a 6b4a ecbd 96f6 883d c658 b93d
00000140: 42d8 953d 11cc 033e c092 dc3d 70ed 6ebc
00000150: 188a 06be 9837 93bd 486d 6a3d 2878 243d
00000160: 90a3 e43d b6b0 f5bd dda9 243e 583c 5c3d
00000170: 297f c5bd d47f 9ebd d0a9 81bd d636 2e3c
00000180: 04b0 87bd 7612 863d a14c 3cbe cba0 df3d
00000190: b50e 83bd 9fe9 9dbd d2c7 9ebd 660c 72bd
000001a0: 48ac c4bd 6d88 253b 2325 bfbd 47d5 d9bc
000001b0: f65e af3c 2a23 133e 6bbe d9bd 6fa8 71bd
000001c0: cd03 3ebe 28a6 7abd 25e8 a2bd c709 1ebd
000001d0: 0ca8 d0bc ea52 b43d d574 1d3d 8fcc ad3d
000001e0: c576 b1bd b884 1c3e a8e8 dabd cb41 1fbd
000001f0: 364b 9cbb c406 1a3d 60aa e83c bce1 773d
00000200: 1d7c d43d f7ca 0f3c cabc b83c 9729 d5bc
00000210: 72fb 01be 0333 593d ad1f ccbd d12e 263d
00000220: ab72 52bc 587c 02bd 001e d13d 1e3f bb3d
00000230: 832e a3bd 95d2 ce3c 09cf 6e3d ba41 a03c
00000240: d459 ae3d bdff 163d 3fd5 cbbd c97c 6a3d
00000250: 842d c4bd 981e c03d 4565 493e 4b27 103d
00000260: 659b 853c 424b e83d 976c dabc 646f 253d
00000270: 2912 98bc 5764 f03b 55d6 e9bc dd79 16be
00000280: 9d9b a6bc b120 42bd ac94 a93c cb83 20bd
00000290: f5c8 813d 4cdf 79bd 7249 78be fcba ab3d
000002a0: faab 17bd 96ee 81bd 1135 f4bd 44ee 2cbd
000002b0: 385f e1bd 129c 34be f36a 51be 649b bdbd
000002c0: c25c 263d 51d8 31be ee54 d8bc fd80 25bc
000002d0: ba9f 2ebe 0fd2 30bd 9dc6 00be 9c9a 0ebd
000002e0: f51f e5bd f468 1b3d ea67 65bd 5bfe 42bd
000002f0: 95aa cd3c 1f44 bbbd 6ee4 bebd a0ce d33c
00000300: 9f47 00be 76b3 81bd 9ce7 9e3d 98e2 0d3d
00000310: 614e 49bd 7372 08be c889 dbbc 7cc1 08be
00000320: 39a9 cabc e947 1a3d 7be4 1c3d e42d 083e
00000330: 56ad 18bd 1652 5abe 37a4 09be 7608 65bc
00000340: 5157 3abe c8ee 73bd cd3b 89bc 6bcf ce3d
00000350: 1009 483d 24e0 713c 095c e03c 838d ee3b
00000360: ecc6 bbbd 4910 ebbd f997 adbd 399b b8bd
00000370: d9df 033d 6803 46bc 8949 563b 561d 4abe
00000380: 9505 84be e99d 5abc 8eb0 42bc c120 66be
00000390: 98e2 b73d daa0 41bd bcd0 afbd 5cc4 dbbd
000003a0: 3735 b3bd 942d 50bd 3527 923d 9265 2fbe
000003b0: 8c5d 3ebe d3f9 9ebd d284 3ebe 168d d7bc
000003c0: 09a7 18be 90fe 97bd 2276 9abd 0168 0f3e
000003d0: 271f b53d 52b3 1f3e 5406 b4bd 0c1c cebd
000003e0: c65b 903d 034d 3e3c 8436 513d 11dc 303d
000003f0: a075 0cbe c002 ccbd f7e1 333c 6667 273d

network.0.bias f4 [120]
-0.14121532 -0.18432026 -0.10697691 0.025319936 -0.041585166 -0.17879891 -0.15995497 -0.07951098
-0.02042962 -0.11087075 -0.02420217 0.017389445 -0.16115578 -0.15673763 -0.067028224 -0.06898063
-0.0008862814 0.19867827 0.067123 -0.06101337 0.011793708 0.10923006 -0.21181521 -0.16608259
-0.06363481 -0.11740826 -0.07609374 -0.14814822 -0.22567312 0.22635862 -0.11149253 -0.056217633
-0.068877645 -0.22372752 -0.12715712 -0.15336937 0.11664231 -0.0615182 0.055169225 -0.11584547
-0.22864372 -0.00990083 -0.03583907 0.028444143 0.06797314 0.090461075 -0.063726574 0.11237214
-0.30467382 -0.022010196 -0.178217 -0.018580774 -0.07589304 -0.06897392 -0.05344184 0.02203096
0.010856183 -0.21575257 -0.13575485 -0.03776938 -0.26374575 -0.07139012 -0.11843167 -0.07674361
-0.09201887 -0.16239521 -0.22441983 -0.09186399 0.083092965 -0.16545843 0.05225364 -0.16166207
-0.14903718 -0.06502469 -0.13292642 0.0067870165 0.029215928 -0.039827205 0.011714165 -0.11070686
0.052283127 0.11818531 -0.14800808 -0.001117575 -0.14685783 -0.058573823 -0.16162834 -0.009631771
-0.050354768 -0.010429398 -0.12834392 0.018404752 -0.0008778222 0.18949884 0.042518564 0.052543927
-0.10031402 0.09885963 -0.1013686 0.0038682846 0.008115889 -0.07073504 0.019803368 -0.041086756
-0.065778196 0.0014096157 -0.2068544 -0.15732926 0.0037146371 -0.23098461 -0.12641509 0.058331583
-0.25257683 0.07729978 0.011105355 -0.22109231 -0.024919664 -0.08391594 -0.05603036 -0.0793285
00000000: c09a 10be 73be 3cbe b616 dbbd c16b cf3c
00000010: 3555 2abd 1017 37be 3ccb 23be a7d6 a2bd
00000020: 055c a7bc 3410 e3bd a143 c6bc 4f74 8e3c
00000030: 0506 25be d47f 20be 1846 89bd b745 8dbd
00000040: 5755 68ba 5172 4b3e c977 893d 28e9 79bd
00000050: 663a 413c 02b4 df3d 16e6 58be 8e11 2abe
00000060: f852 82bd be73 f0bd 09d7 9bbd 2bb4 17be
00000070: db16 67be 8eca 673e 3256 e4bd 7644 66bd
00000080: b90f 8dbd d418 65be 7a35 02be dc0c 1dbe
00000090: 2ae2 ee3d 82fa 7bbd 20f9 613d 6440 edbd
000000a0: 9421 6abe 1737 22bc fdcb 12bd b103 e93c
000000b0: 8035 8b3d a843 b93d 1483 82bd 5d23 e63d
000000c0: 35fe 9bbe ba4e b4bc 847e 36be b536 98bc
000000d0: cf6d 9bbd 3342 8dbd d5e5 5abd 467a b43c
000000e0: 22de 313c 3eee 5cbe 5203 0bbe 11b4 1abd
000000f0: af09 87be fc34 92bd 4e8c f2bd c12b 9dbd
00000100: 6474 bcbd ee4a 26be 50ce 65be 3023 bcbd
00000110: a52c aa3d ef6d 29be ea07 563d be8a 25be
00000120: 349d 18be aa2b 85bd dd1d 08be 9f65 de3b
00000130: 3e56 ef3c da21 23bd c5ec 3f3c 47ba e2bd
00000140: d526 563d 240b f23d 6e8f 17be 987b 92ba
00000150: e661 16be 1beb 6fbd e681 25be 93ce 1dbc
00000160: cd40 4ebd 11e0 2abc 976c 03be 90c5 963c
00000170: a71d 66ba fc0b 423e f227 2e3d 4d38 573d
00000180: 7071 cdbd eb76 ca3d 579a cfbd 0c83 7d3b
00000190: 81f8 043c 88dd 90bd ac3a a23c 964a 28bd
000001a0: b8b6 86bd dbc2 b83a a4d1 53be ec1a 21be
000001b0: 4571 733b 3b87 6cbe f572 01be 19ed 6e3d
000001c0: c051 81be 594f 9e3d 3cf3 353c 0666 62be
000001d0: 5324 ccbc 1fdc abbd 1780 65bd fb76 a2bd

network.2.weight f4 [84, 120]
0.0030907604 0.009720685 -0.07054471 -0.0928943 -0.016427765 -0.020757025 0.029761875 0.017778538
-0.07227924 -0.0038157045 -0.09890774 0.04773803 0.08856265 0.00981227 0.026559463 -0.032646254
-0.084496826 -0.049004413 -0.020962497 0.046633154 -0.016420083 0.08610477 -0.06385507 -0.025869766
-0.0001852734 0.036290877 0.006530526 -0.074211 -0.0018058473 -0.06536561 -0.06263785 -0.05327059
-0.03008103 0.053974085 0.030662796 0.0059957933 -0.07186978 0.007660236 0.019560508 0.029852731
-0.0041402793 0.028693104 0.01740681 0.04537591 -0.078891456 -0.097151935 -0.05602187 0.07446779
0.06648416 -0.03735168 0.029908568 0.05288357 0.035227224 -0.076577365 0.03412065 -0.08927295
-0.037489288 -0.045312952 0.02368034 -0.07891974 -0.047111932 -0.014319315 -0.08231058 -0.05865183
-0.022375666 0.023015205 -0.06869517 0.013920871 -0.050922595 -0.051445622 0.07136621 -0.01719762
-0.03915052 0.0716287 0.055516932 0.050584268 -0.044906337 0.08310932 -0.0055737677 0.050156053
-0.021178508 -0.07484891 -0.034040816 0.06209412 -0.0603251 0.010364705 -0.06510992 0.024968369
0.07029386 -0.088894114 -0.0076854397 -0.08260371 0.0067352634 -0.072326094 -0.08615491 -0.013628541
-0.028498074 -0.061207037 0.06783499 -0.10899342 -0.087985374 -0.002256221 0.009878489 -0.09881064
-0.053607028 -0.016852854 0.032777417 0.08193549 -0.08723954 -0.076795325 -0.08384276 -0.0036413597
-0.0018169145 0.050603062 -0.093099624 -0.090809286 0.017103827 0.053834435 0.013127041 0.020302648
-0.087057896 -0.10275395 0.043134883 0.073110886 0.049338903 0.0007217159 0.0014485365 -0.059539117
0.118230514 -0.06250705 -0.03300143 0.33179715 0.087092884 -0.055330567 -0.1458282 0.12969202
-0.123482205 -0.35857344 -0.6420606 0.009809424 0.0031930201 0.08698421 -0.005299546 -0.032659154
0.01931022 -0.025194686 -0.058130838 -0.14602597 -0.025596928 -0.5794689 -0.03256713 0.0067744344
-0.059038967 -0.12083625 0.08423302 -0.008322694 -0.34620947 0.024566686 -0.07094547 -0.11807602
0.043970663 0.29001248 0.051234715 0.09365604 -0.14293821 -0.022839332 -0.085609406 0.102476425
0.034587093 0.23358111 -0.08124073 0.121103786 0.09554655 0.18924242 -0.017517535 0.16919573
0.232304 -0.21965557 -0.09232022 0.084408805 -0.022177383 0.057118896 -0.036024857 0.14455515
0.08583343 -0.013992045 -0.025202869 0.017445594 -0.004298146 0.07502487 0.22910371 -0.036582574
0.07122744 0.044382878 0.034580667 0.3386033 0.07372629 0.06680728 -0.09231143 -0.036699638
0.17332101 -0.34423536 0.072901666 0.0075131804 -0.01206215 0.07561334 -0.07211723 0.1458779
0.08206339 -0.12926672 0.17363115 0.17238832 0.12121523 0.08102092 -0.32417613 -0.25742704
0.066928245 -0.46600437 -0.054711647 0.15098383 -0.30190527 -0.0532224 -0.23800194 0.0080387285
0.09898377 0.16918834 -0.06463127 0.051630292 -0.039545033 -0.084439024 0.051771525 -0.27295497
-0.037163854 -0.029002424 -0.13845527 -0.036571845 -0.14762768 0.08307061 0.08945579 -0.04033232
-0.10804022 0.10790429 0.051473524 0.07954391 0.018536963 -0.022747764 -0.011208657 -0.030867752
-0.031812888 -0.03193777 0.003587948 0.25467744 0.04840596 -0.11004968 -0.015693873 0.011358487
00000000: 5b8e 4a3b 8243 1f3c bf79 90bd 5e3f bebd
00000010: 8593 86bc a30a aabc 2dcf f33c 4ca4 913c
00000020: 2307 94bd e610 7abb 2490 cabd f488 433d
00000030: 5660 b53d a5c3 203c 3b93 d93c 14b8 05bd
00000040: ac0c adbd dab8 48bd 8bb9 abbc 6802 3f3d
00000050: 6983 86bc b357 b03d 72c6 82bd d5ec d3bc
00000060: f345 42b9 bea5 143d 06fe d53b f0fb 97bd
00000070: 2eb2 ecba 68de 85bd 4648 80bd 4332 5abd
00000080: 7e6c f6bc ee13 5d3d 8b30 fb3c 5c78 c43b
00000090: 7730 93bd b802 fb3b 5c3d a03c b78d f43c
000000a0: 2eab 87bb cd0d eb3c ba98 8e3c 17dc 393d
000000b0: d891 a1bd 98f7 c6bd 3077 65bd 9282 983d
000000c0: d928 883d 13fe 18bd d002 f53c 719c 583d
000000d0: 6c4a 103d 98d4 9cbd 18c2 0b3d bdd4 b6bd
000000e0: 5e8e 19bd 139a 39bd 46fd c13c aca0 a1bd
000000f0: 71f8 40bd 8f9b 6abc 7392 a8bd e73c 70bd
00000100: 2c4d b7bc 628a bc3c 0eb0 8cbd 5d14 643c
00000110: 3694 50bd a5b8 52bd 7328 923d 06e2 8cbc
00000120: 4c5c 20bd 11b2 923d b965 633d 7331 4f3d
00000130: b5ef 37bd 3835 aa3d 27a4 b6bb 6f70 4d3d
00000140: 8d7e adbc 634a 99bd 626e 0bbd 6756 7e3d
00000150: 7417 77bd b9d0 293c 5a58 85bd 778a cc3c
00000160: 3af6 8f3d 1e0e b6bd 24d6 fbbb 222c a9bd
00000170: 7cb3 dc3b b41f 94bd fc71 b0bd 3e4a 5fbc
00000180: cb74 e9bc 3bb4 7abd 12ed 8a3d f137 dfbd
00000190: ad31 b4bd 1bdd 13bb 63d9 213c 3c5d cabd
000001a0: 0b93 5bbd ff0e 8abc 9d41 063d cbcd a73d
000001b0: a5aa b2bd de46 9dbd c1b5 abbd e1a3 6ebb
000001c0: 8925 eeba 2845 4f3d 04ab bebd 38fa b9bd
000001d0: 531d 8c3c 7f81 5c3d cd12 573c bd51 a63c
000001e0: 694b b2bd aa70 d2bd 34ae 303d 29bb 953d
000001f0: 9717 4a3d 8931 3d3a d2dc bd3a 4adf 73bd
00000200: d722 f23d b203 80bd 822c 07bd 51e1 a93e
00000210: c15d b23d 4ea2 62bd fd53 15be fccd 043e
00000220: 3de4 fcbd f096 b7be 155e 24bf b5b7 203c
00000230: fd41 513b c724 b23d d0a7 adbb 9bc5 05bd
00000240: 7730 9e3c 1665 cebc 9a1a 6ebd d587 15be
00000250: a6b0 d1bc 1358 14bf 1c65 05bd 13fc dd3b
00000260: d8d2 71bd ff78 f7bd 5d82 ac3d e95b 08bc
00000270: 5e42 b1be 1340 c93c dc4b 91bd d7d1 f1bd
00000280: 951a 343d 847c 943e 7edb 513d bdce bf3d
00000290: 655e 12be 8d19 bbbc fc53 afbd 29df d13d
000002a0: 32ab 0d3d e32f 6f3e 8a61 a6bd 4305 f83d
000002b0: e9ad c33d c4c8 413e ef80 8fbc a541 2d3e
000002c0: 1ae1 6d3e 64ed 60be 6212 bdbd 86de ac3d
000002d0: 58ad b5bc 81f5 693d cd8e 13bd 4406 143e
000002e0: 70c9 af3d e43e 65bc 3f76 cebc 10ea 8e3c
000002f0: 76d7 8cbb a4a6 993d 2a9a 6a3e 9cd7 15bd
00000300: b1df 913d d2ca 353d 75a4 0d3d 695d ad3e
00000310: cffd 963d 41d2 883d c60d bdbd 5c52 16bd
00000320: 107b 313e 9e3f b0be 784d 953d 2031 f63b
00000330: 53a0 45bc 2bdb 9a3d 33b2 93bd 0461 153e
00000340: da10 a83d 7f5e 04be 5dcc 313e 9086 303e
00000350: b13f f83d 4cee a53d 6afa a5be 7acd 83be
00000360: ad11 893d 2098 eebe 5219 60bd 819b 1a3e
00000370: 5493 9abe bbff 59bd c8b6 73be dfb4 033c
00000380: 01b8 ca3d b53f 2d3e 665d 84bd 497a 533d
00000390: f9f9 21bd 5eee acbd 610e 543d c1c0 8bbe
000003a0: 2039 18bd 7e96 edbc 38c7 0dbe 5ccc 15bd
000003b0: b62b 17be ed20 aa3d 9934 b73d 8133 25bd
000003c0: 3144 ddbd edfc dc3d e7d5 523d ebe7 a23d
000003d0: d4da 973c 8559 babc 84a4 37bc 5ede fcbc
000003e0: 3b4e 02bd 2ed1 02bd c723 6b3b 1565 823e
000003f0: 5445 463d ba61 e1bd 7090 80bc f318 3a3c

network.2.bias f4 [84]
-0.06847306 0.32309023 0.3218711 0.119818754 0.12493267 0.099497095 0.13230017 -0.084831245
-0.06760431 0.06225665 -0.066139035 0.11926806 0.29866284 -0.0066189272 -0.05769197 0.24122874
-0.032577496 0.13146177 0.01884988 -0.069666766 0.20643875 0.17413472 0.123885624 0.1778052
0.17894131 -0.15329704 -0.2201403 -0.064571574 -0.11591542 -0.14632896 0.16096057 0.070409775
-0.07529909 -0.1051364 -0.009634978 -0.11929398 -0.12700923 -0.057219017 0.15758736 0.16034938
0.114315614 -0.109610565 -0.0860818 0.10118284 -0.14035946 0.043467756 -0.039641675 -0.08463885
0.16939966 -0.06586215 0.31871262 0.21753006 -0.13966282 -0.07110042 -0.15205698 -0.00864205
0.074418776 0.052057803 0.003861306 -0.16232409 0.19778338 0.16986994 0.18037093 0.1089256
0.018035986 0.19600853 0.21734162 0.13104336 -0.07682945 -0.12082471 -0.15101838 -0.007441705
-0.24402985 0.1408053 -0.11839991 0.23971575 0.09394331 0.08074789 -0.0039685853 0.1134604
0.10430329 0.1578868 0.10763647 -0.05579748
00000000: 9b3b 8cbd 156c a53e 4acc a43e 8963 f53d
00000010: b3dc ff3d 22c5 cb3d b279 073e 01bc adbd
00000020: 2174 8abd d400 7f3d e773 87bd d042 f43d
00000030: 56ea 983e 96e3 d8bb 6a4e 6cbd ab04 773e
00000040: fb6f 05bd ea9d 063e 106b 9a3c 73ad 8ebd
00000050: ae64 533e 5f50 323e bfb7 fd3d 9112 363e
00000060: 643c 373e e6f9 1cbe 756c 61be 1a3e 84bd
00000070: 1065 edbd 42d7 15be d9d2 243e 0033 903d
00000080: 6936 9abd c151 d7bd 07dc 1dbc 6750 f4bd
00000090: b50e 02be 7d5e 6abd 955e 213e a132 243e
000000a0: 4e1e ea3d 817b e0bd a84b b0bd f338 cf3d
000000b0: 64ba 0fbe 3f0b 323d 4f5f 22bd 2257 adbd
000000c0: 1b77 2d3e bce2 86bd 4d2e a33e 33c0 5e3e
000000d0: c503 0fbe 199d 91bd d3b4 1bbe 6397 0dbc
000000e0: df68 983d 903a 553d f70d 7d3b 4938 26be
000000f0: ba87 4a3e 63f2 2d3e 28b3 383e 6314 df3d
00000100: 34c0 933c 76b6 483e cd8e 5e3e 3b30 063e
00000110: c258 9dbd f272 f7bd 90a4 1abe 8cd9 f3bb
00000120: f6e2 79be 442f 103e a77b f2bd 0c78 753e
00000130: 5a65 c03d 265f a53d e80a 82bb ed5d e83d
00000140: f79c d53d 14ad 213e 8270 dc3d e68b 64bd

network.4.weight f4 [21, 84]
0.08944299 0.07696624 -0.080270305 0.004651075 -0.09279536 0.03953921 -0.05438381 0.09760409
0.037281822 -0.00035661637 -0.05574738 -0.085947804 -0.034459952 0.14437363 0.08690969 -0.22288445
-0.16456631 -0.0009858148 -0.089590445 -0.020472338 -0.04933316 0.050581444 -0.056474045 -0.19179557
0.07893372 0.0049194605 -0.13675073 -0.077060215 -0.06646673 0.025183693 -0.1316603 -0.22985947
-0.077661686 -0.038708292 -0.0985342 0.083727024 0.04839526 -0.22440836 0.1292664 -0.07801206
0.092651755 -0.013690622 0.070307516 0.138145 -0.10196043 -0.08149072 -0.0387484 -0.0609849
-0.08015244 0.03274839 -0.004888193 -0.09953544 -0.04988979 -0.029046513 -0.016963456 0.020701254
-0.056584626 0.04150065 0.07522785 0.015208968 -0.045434747 -0.06218999 0.11639966 -0.048798498
-0.06560948 -0.087941624 0.0076573966 0.015234397 0.0058909175 0.07084618 0.04628488 -0.060626727
0.12424108 -0.07559094 0.008723671 0.23243967 0.037430644 -0.05620567 -0.115758516 -0.316664
0.015844667 0.24234208 0.0017916174 -0.013389401 0.058231406 0.11249211 -0.09652375 -0.09547056
-0.20009309 -0.047352012 -0.07003828 0.09861235 -0.11200639 0.0201827 0.09261417 -0.005393684
-0.067650564 0.087989286 -0.057248794 -0.025698828 -0.01980272 0.065773666 0.011265773 -0.043679215
0.019708846 0.07292817 -0.0704304 0.06325667 0.08309664 -0.03953086 0.042027388 0.030594096
-0.09994843 0.028528506 0.1302705 -0.19255072 -0.13602194 -0.101573415 -0.11923393 -0.064277224
0.03802021 -0.1298875 0.04128012 0.041275438 -0.024061292 0.023634722 0.12637694 0.062159687
-0.08072618 0.12209839 -0.11743659 -0.059525445 -0.0070162117 -0.06815724 -0.028429395 0.04171006
-0.0256731 0.02739266 0.031847008 -0.011449132 0.10605295 -0.09726362 -0.053786278 0.15683658
0.032544002 -0.0389151 0.0915583 -0.055764716 0.03895853 0.000919723 0.060282152 0.086481296
-0.104675956 0.02247034 -0.13703132 -0.075963914 -0.043405052 0.052884955 0.0006903146 0.10231406
0.05172543 0.07439115 0.0010626654 -0.21649426 -0.040752538 0.16930914 0.016801724 0.018639194
-0.027530089 0.13169634 -0.059214495 -0.08919616 -0.1542255 0.025190212 0.015415794 -0.007842346
0.057762116 0.014873003 -0.01605315 -0.059419464 -0.022276266 0.012973395 -0.08975897 -0.091368444
0.0050075375 0.03150188 -0.09329138 -0.08813374 0.054002658 0.018859068 0.038272884 0.033658527
0.109009825 -0.00081250444 -0.0070858034 -0.112647295 0.10390327 0.058090564 -0.007970666 -0.19843128
0.0006445628 -0.0009977232 0.016981004 -0.00268573 -0.05669827 0.0033552344 0.09627545 -0.008200924
0.08275524 0.085245766 0.09212269 0.15437421 -0.04103077 0.033836607 0.18436122 0.027383743
-0.13611314 0.06268283 0.07471461 -0.03814944 0.104509145 -0.02621721 -0.07152455 -0.04725574
0.08364407 -0.036362823 -0.12610821 -0.12437898 -0.071619526 -0.047998596 0.09412231 -0.06599126
-0.050200935 0.07623843 -0.14717537 0.052922133 -0.059108023 0.05941141 -0.050347436 -0.14316374
-0.12301683 0.09179422 -0.15363634 0.097257465 0.016213791 -0.09978785 -0.13088135 -0.299522
-0.022573574 0.06035827 -0.015184881 0.07374805 0.05685263 0.10633217 -0.10754686 0.058840692
00000000: e32d b73d 7aa0 9d3d c264 a4bd 0c68 983b
00000010: 7e0b bebd def3 213d 8fc1 5ebd a7e4 c73d
00000020: d3b4 183d 3df8 bab9 5d57 64bd 6705 b0bd
00000030: e125 0dbd aed6 133e b5fd b13d d23b 64be
00000040: 1284 28be 7536 81ba 327b b7bd 9bb5 a7bc
00000050: 9111 4abd 7d2e 4f3d 5451 67bd 0f66 44be
00000060: 01a8 a13d 6d33 a13b 6208 0cbe bfd1 9dbd
00000070: b51f 88bd 084e ce3c f5d1 06be 4860 6bbe
00000080: 170d 9fbd 968c 1ebd 4ccc c9bd 1379 ab3d
00000090: 1c3a 463d 4ecb 65be 695e 043e c9c4 9fbd
000000a0: 34c0 bd3d a14e 60bc 63fd 8f3d e275 0d3e
000000b0: a1d0 d0bd 9be4 a6bd a4b6 1ebd 4dcb 79bd
000000c0: f626 a4bd 2d23 063d 232d a0bb 3dd9 cbbd
000000d0: 3d59 4cbd f4f2 edbc f2f6 8abc ad95 a93c
000000e0: 48c5 67bd 96fc 293d 0f11 9a3d 092f 793c
000000f0: c919 3abd eeba 7ebd f262 ee3d efe0 47bd
00000100: 435e 86bd bd1a b4bd e6ea fa3b b199 793c
00000110: 9908 c13b cd17 913d 3795 3d3d bb53 78bd
00000120: 1b72 fe3d 6ccf 9abd baed 0e3c aa04 6e3e
00000130: e050 193d eb37 66bd cd12 edbd c921 a2be
00000140: adcc 813c 8628 783e b4d4 ea3a 385f 5bbc
00000150: 0e84 6e3d 4362 e63d 3eae c5bd 1286 c3bd
00000160: 34e5 4cbe 2ff4 41bd 3b70 8fbd 46f5 c93d
00000170: 9b63 e5bd 3156 a53c 7fac bd3d 80bd b0bb
00000180: 618c 8abd ba33 b43d b67d 6abd 5986 d2bc
00000190: 5039 a2bc 58b4 863d 1494 383c fae8 32bd
000001a0: 7274 a13c 5d5b 953d d03d 90bd b78c 813d
000001b0: 922e aa3d 1ceb 21bd e924 2c3d 78a0 fa3c
000001c0: c3b1 ccbd 9db4 e93c a165 053e 042c 45be
000001d0: 5649 0bbe b905 d0bd eb30 f4bd c7a3 83bd
000001e0: 14bb 1b3d 3b01 05be 5815 293d 6f10 293d
000001f0: 301c c5bc 9b9d c13c f568 013e 289b 7e3d
00000200: c453 a5bd b80e fa3d 9882 f0bd f4d0 73bd
00000210: 40e8 e5bb 0696 8bbd c3e4 e8bc 2bd8 2a3d
00000220: 6550 d2bc 9266 e03c 0272 023d 2495 3bbc
00000230: 4a32 d93d 2632 c7bd 004f 5cbd c599 203e
00000240: dc4c 053d 7165 1fbd eb82 bb3d 8b69 64bd
00000250: fb92 1f3d 9119 713a 6bea 763d 1b1d b13d
00000260: 5960 d6bd b813 b83c f051 0cbe f892 9bbd
00000270: 7fc9 31bd e59d 583d 3bf6 343a 098a d13d
00000280: 0bde 533d 635a 983d 2249 8b3a acb0 5dbe
00000290: 22ec 26bd 605f 2d3e c5a3 893c 39b1 983c
000002a0: c886 e1bc 68db 063e e68a 72bd 7aac b6bd
000002b0: 4aed 1dbe b45b ce3c 8792 7c3c 2f7d 00bc
000002c0: f897 6c3d e5ad 733c e581 83bc d361 73bd
000002d0: b77c b6bc 5d8e 543c 8dd3 b7bd 611f bbbd
000002e0: 4516 a43b 1e08 013d 8d0f bfbd 767f b4bd
000002f0: e431 5d3d 557e 9a3c 07c4 1c3d 86dd 093d
00000300: 8b40 df3d 40fe 54ba 0730 e8bb a0b3 e6bd
00000310: 3dcb d43d 5ff0 6d3d 6597 02bc 9231 4bbe
00000320: e1f7 283a 09c6 82ba bf1b 8b3c 1303 30bb
00000330: 723c 68bd 7ee3 5b3b 102c c53d 2b5d 06bc
00000340: 947b a93d 5595 ae3d d2aa bc3d 4614 1e3e
00000350: e10f 28bd 4198 0a3d 30c9 3c3e df53 e03c
00000360: 3e61 0bbe db5f 803d f903 993d 9642 1cbd
00000370: e408 d63d 79c5 d6bc 777b 92bd 3c8f 41bd
00000380: 954d ab3d 2ff1 14bd 8322 01be 68ba febd
00000390: 42ad 92bd 2d9a 44bd 33c3 c03d 6d26 87bd
000003a0: 7f9f 4dbd e522 9c3d 24b5 16be e1c4 583d
000003b0: 411b 72bd 6159 733d 1d39 4ebd 8499 12be
000003c0: 3ff0 fbbd 9cfe bb3d d852 1dbe ec2e c73d
000003d0: c9d2 843c 935d ccbd c305 06be f35a 99be
000003e0: 37ec b8bc 3c3a 773d 02ca 78bc 3809 973d
000003f0: 4ede 683d aec4 d93d 8741 dcbd f002 713d

network.4.bias f4 [21]
0.19016992 0.094833285 0.20662148 0.15010007 0.11205165 0.13961476 0.13511282 0.08765642
0.20990999 0.11783748 0.123036645 0.13909233 0.14667101 0.15934552 0.16580647 0.21427892
0.15582176 0.17023419 0.20832208 0.22470511 0.20375508
00000000: e7bb 423e f437 c23d 9594 533e d5b3 193e
00000010: 567b e53d 2cf7 0e3e 045b 0a3e 3685 b33d
00000020: a5f2 563e c754 f13d a3fa fb3d 386e 0e3e
00000030: ed30 163e 792b 233e 2cc9 293e ef6b 5b3e
00000040: bd8f 1f3e df51 2e3e 6252 553e 1919 663e
00000050: 2ca5 503e
