model/state_dict/my_random3.pt (torch, 248354 bytes, 10 tensors)

cnn.0.weight f4 [5, 5, 3, 3]
0	0xbdbeaaa3	-0.0930989
1	0xbd172b76	-0.036906682
2	0x3d0a103b	0.033706885
3	0xbd6c5349	-0.057696614
4	0x3bd31396	0.006441544
5	0x3d8dc744	0.069227725
6	0x3b49bdcf	0.00307833
7	0xbc51ba25	-0.012800728
8	0xbe095c94	-0.13414222
9	0xbd3704f3	-0.044682454
10	0xbe3d3b3a	-0.18479624
11	0xbe3167e7	-0.17324792
12	0xbdeb3d60	-0.11486316
13	0xbe597b84	-0.21238524
14	0xbe0216ea	-0.12704054
15	0xbdc5cd0b	-0.096582495
16	0xbdf2a696	-0.1184818
17	0xbdd67916	-0.10472314
18	0x3d3f5720	0.04671395
19	0x3d02b4c4	0.031910673
20	0xbdc3fe59	-0.09569997
21	0x3d22b36b	0.039721888
22	0xbbc2bf41	-0.0059432094
23	0x3cfef436	0.031122308
24	0x3d573782	0.05254317
25	0x3d2c04ef	0.041996893
26	0x3a397874	0.0007075139
27	0x3eda3917	0.4262168
28	0x3d672cc3	0.056439172
29	0x3ed0ebc6	0.4080488
30	0xbe04555e	-0.1292319
31	0x3e8db8be	0.2768001
32	0x3e8be112	0.27320153
33	0xbe13c857	-0.14431892
34	0xbdc14ab5	-0.09438077
35	0xbcd6e604	-0.026232727
36	0xbf127647	-0.57211727
37	0xbd2b7e0a	-0.041868247
38	0xbf06e191	-0.5268794
39	0x3dcc725c	0.0998275
40	0xbec0879f	-0.3760347
41	0xbf0c7ae7	-0.54875034
42	0x3b0c110d	0.0021372468
43	0x3e87c254	0.26515448
44	0x3e0a7587	0.13521396
45	0xbd12daee	-0.03585332
46	0x3d85b997	0.06529539
47	0x3d603caf	0.054745372
48	0x3cbe0d32	0.023199651
49	0x3d09bc1e	0.03362667
50	0x3dacd885	0.08439735
51	0x3cf470b5	0.0298389
52	0xbbca2eda	-0.006170136
53	0xbcec730f	-0.028863458
54	0x3c76a1c1	0.015053214
55	0x3d0b392d	0.033990074
56	0x3d1417c1	0.036155466
57	0x3ca2f4f0	0.019892186
58	0xbc860873	-0.01636145
59	0xbcec020a	-0.028809566
60	0x3df4e739	0.11958165
61	0x3e0345c4	0.12819582
62	0xbbfc2c80	-0.0076957345
63	0x3e21a736	0.15786442
64	0x3d82a818	0.063797176
65	0x3dfde541	0.12397242
66	0x3e3c05fb	0.18361656
67	0x3e2a3315	0.16621049
68	0x3e6c1785	0.23055847
69	0xbc9a6874	-0.018848635
70	0xbc6d4170	-0.014480934
71	0x3e2b1492	0.16707066
72	0x3e71b580	0.23604393
73	0x3edfefd5	0.43737665
74	0xbcc8ac64	-0.024496265
75	0xbe95364c	-0.29142988
76	0xbe57ee81	-0.21087076
77	0xbe8b2627	-0.27177545
78	0xbe1c9ae0	-0.15293455
79	0xbe77c804	-0.24197394
80	0x3e398374	0.18116552
81	0xbec75f1a	-0.38939744
82	0xbef3bb36	-0.47603768
83	0xbdfbe4d2	-0.122995034
84	0xbdcbf225	-0.09958295
85	0xbeab2f60	-0.33434582
86	0xbc828c4a	-0.015936036
87	0xbccc38a8	-0.02492936
88	0xbe3ec16b	-0.1862847
89	0xbe42532b	-0.18977039
90	0x3ca4fce3	0.020140117
91	0xbe115c13	-0.1419528
92	0xbd753ea1	-0.05987418
93	0xbe2c73a7	-0.16840993
94	0xbc86b873	-0.016445374
95	0x3bbac356	0.0056995554
96	0xbe0d44b2	-0.13795736
97	0xbe28a07b	-0.16467468
98	0xbdc37265	-0.095433034
99	0xbdcc7571	-0.09983338
100	0x3c844ee1	0.016150894
101	0xbe1b3406	-0.15156564
102	0xbe1b1f51	-0.15148665
103	0xbe584785	-0.21121033
104	0xbdac55fc	-0.08414838
105	0xbe66e1bd	-0.2254705
106	0xbdd27996	-0.10277097
107	0xbd455f92	-0.048186846
108	0xbe1cfc1e	-0.1533055
109	0x3db8aedb	0.09017726
110	0xbe045733	-0.12923889
111	0xbd8abe4b	-0.06774577
112	0xbe2537db	-0.16134588
113	0x3d77efc2	0.060531385
114	0xbe03043f	-0.12794589
115	0x3e137906	0.14401636
116	0x3d3358bb	0.04378579
117	0x3e8b9fd0	0.27270365
118	0xbd72fb39	-0.059321616
119	0xbe9406ea	-0.28911525
120	0x3e57ad8d	0.21062298
121	0xbc1e6761	-0.009668202
122	0xbda2ed25	-0.07955388
123	0xbe3e6c7f	-0.18596075
124	0xbc75f6a5	-0.015012418
125	0xbdbe3af3	-0.092885874
126	0xbeadf20f	-0.3397374
127	0xbda78ea8	-0.081815064
128	0xbbaad40d	-0.0052132667
129	0xbe2fbf74	-0.17162877
130	0xbe1da638	-0.15395439
131	0xbdf374fa	-0.11887546
132	0xbdaab390	-0.0833503
133	0x3c1b7240	0.009487689
134	0xbc80bd39	-0.015715228
135	0xbca8a769	-0.02058764
136	0xbd1143ed	-0.03546517
137	0x3d1310b6	0.03590461
138	0x3ccfa39f	0.025346575
139	0x3d80d675	0.062909044
140	0x3cbb03c1	0.022828938
141	0xbdbf7058	-0.093476
142	0x3cb93db9	0.02261244
143	0xbdf5937d	-0.11991022
144	0xbc5ed1f7	-0.013599864
145	0x3c9fba16	0.019497912
146	0x3e187326	0.14887676
147	0x3bcd93dd	0.00627373
148	0xbc580d30	-0.013186738
149	0x3d0a0ae0	0.033701777
150	0xbd8254dc	-0.06363842
151	0x3ba1d624	0.0049388576
152	0x3c9d55be	0.019205924
153	0x3db8ee85	0.09029869
154	0x3dffe9bf	0.124957554
155	0xbe0730c6	-0.132022
156	0x3df2b351	0.11850608
157	0x3e68cce1	0.22734405
158	0x3cd0caeb	0.025487384
159	0x3e410814	0.18850738
160	0x3df5d624	0.12003735
161	0x3d987086	0.07443337
162	0xbe2b8af2	-0.16752222
163	0xbe3511dd	-0.17682596
164	0x3edaf58f	0.4276547
165	0x3e49f8ba	0.19723788
166	0xbdb1ae7a	-0.08675857
167	0xbe99074f	-0.2988839
168	0x3f0b8916	0.5450605
169	0xbde5d437	-0.112221174
170	0xbde6d8e5	-0.11271838
171	0x3dc814e2	0.09769608
172	0x3ce1d183	0.027565723
173	0xbe917b82	-0.2841454
174	0xbe43d5c6	-0.19124517
175	0x3c9451ed	0.018105472
176	0xbddd284c	-0.10798702
177	0xbec92a11	-0.39289907
178	0xbcd3ac45	-0.02583898
179	0x3de629ed	0.112384655
180	0xbce57a04	-0.028012283
181	0xbcbdd210	-0.023171455
182	0xbd79f3cf	-0.06102353
183	0xbdd1acaf	-0.10238015
184	0xbd1dc845	-0.03852107
185	0xbdd7875c	-0.105238646
186	0x3cc059de	0.023480352
187	0xbdacb106	-0.08432202
188	0x3d8335d5	0.06406752
189	0xbd3b6939	-0.045754645
190	0xbd8e628a	-0.069523886
191	0xbdcc068e	-0.09962188
192	0xbcbc2c56	-0.02297036
193	0xbe1cb7c7	-0.1530448
194	0xbe02a2f1	-0.1275747
195	0xbdad546f	-0.0846337
196	0xbe20a52f	-0.15688013
197	0xbd96726d	-0.07346044
198	0xbc33a4ae	-0.010964556
199	0x3de11d9b	0.10991975
200	0x3e0a066d	0.13479014
201	0x3d6daa4f	0.058023747
202	0x3e633aea	0.22190443
203	0xbbe52134	-0.0069924835
204	0xbce1df98	-0.027572438
205	0x3e390409	0.18067946
206	0x3d8db29c	0.06918833
207	0xbd0b4384	-0.033999935
208	0xbccb2017	-0.024795575
209	0x3e36f0d5	0.17865308
210	0xbd9eae83	-0.07748129
211	0x3ebc9d17	0.368386
212	0x3f053082	0.5202714
213	0x3f0b227c	0.54349494
214	0x3de65ed2	0.11248554
215	0x3ec8bbfb	0.39205918
216	0x3dd2756d	0.102763034
217	0xbd089549	-0.033345494
218	0xbe73e2da	-0.23817006
219	0x3ccb89f0	0.024846047
220	0xbf1cb6d3	-0.6121647
221	0xbec8c445	-0.39212242
222	0xbec070d7	-0.3758609
223	0xbe4c8206	-0.19971475
224	0xbee16fb2	-0.4403053

cnn.0.bias f4 [5]
0	0xbc1ab929	-0.00944356
1	0x3dbf6fd0	0.093474984
2	0xbde447f7	-0.11146539
3	0x3c93d874	0.018047549
4	0xbd2c32b4	-0.04204054

cnn.2.weight f4 [5, 5, 3, 3]
0	0xbcd78de5	-0.026312778
1	0xb9adeb76	-0.00033172563
2	0xbdeed7f7	-0.11662286
3	0xbea198e1	-0.3156195
4	0xbe653558	-0.2238363
5	0xbdf9450f	-0.12171375
6	0x3e06babb	0.1315717
7	0x3e4eef3a	0.20208445
8	0xbe4c3f9d	-0.19946142
9	0xbdaf637c	-0.08563897
10	0x3d3d7e0e	0.046262793
11	0x3e317ba3	0.1733232
12	0x3e799fec	0.24377412
13	0xbe16b2f1	-0.14716698
14	0xbe0ce947	-0.13760863
15	0xbdf8e51d	-0.12153075
16	0xbf1ec5ec	-0.62020755
17	0xbd965bd3	-0.07341733
18	0x3e3468f2	0.17618158
19	0x3d74b736	0.059745036
20	0xbdd902d5	-0.10596243
21	0xbe054c30	-0.13017344
22	0x3d4124fa	0.047154404
23	0x3d43cf13	0.047804903
24	0x3cd762a2	0.026292149
25	0xbc97c399	-0.018525885
26	0x3db785d7	0.08961075
27	0x3cb34a59	0.021886038
28	0xbd17fde4	-0.037107363
29	0xbd9e573b	-0.07731482
30	0x3dbec6ff	0.09315299
31	0xbdf3e10b	-0.11908158
32	0x3e91bda2	0.2846499
33	0xbe3a3209	-0.1818315
34	0x3d47c058	0.048767418
35	0x3eac21ec	0.3361963
36	0xbe93c70b	-0.28862795
37	0xbcf5401c	-0.029937796
38	0xbeb7c6e0	-0.35893917
39	0x3e676d9e	0.2260041
40	0x3d7ebd85	0.06219246
41	0x3e8f1026	0.27942008
42	0x3eaa0d96	0.3321349
43	0x3e8cc728	0.27495694
44	0x3d9258f4	0.07145873
45	0x3dab7872	0.083725825
46	0x3e8e90a4	0.27844727
47	0xbd284846	-0.04108455
48	0xbd2f08fe	-0.042733185
49	0xbe078210	-0.13233209
50	0xbe7cb382	-0.24677852
51	0xbe3c1182	-0.18366054
52	0xbdb9e498	-0.09076804
53	0xbe27d8a6	-0.16391239
54	0x3da2f253	0.07956376
55	0x3d619a47	0.05507877
56	0x3e4861ee	0.19568607
57	0xbcd80944	-0.026371606
58	0x3d06aad1	0.032877747
59	0xbcdd6bb0	-0.027028888
60	0xbc0434cc	-0.008069228
61	0x3d818ac8	0.063252985
62	0xbc345a67	-0.011007882
63	0xbd4416fb	-0.04787348
64	0xbb7858d3	-0.003789474
65	0xbd8aeb24	-0.06783131
66	0x3cd6c4ab	0.026216825
67	0xbddd6972	-0.10811128
68	0x3d6b27b9	0.05741093
69	0xbd5fb38a	-0.05461458
70	0x3d8f68fc	0.07002446
71	0x3e0e5a14	0.1390155
72	0xbdc6cf2f	-0.09707486
73	0xbdbc7573	-0.09202089
74	0xbe1d3c63	-0.15355067
75	0x3da19e7c	0.078915566
76	0xbda24215	-0.079227604
77	0xbdd6b1dc	-0.10483143
78	0xbd09e69d	-0.033667196
79	0x3c7f2e15	0.015574952
80	0xbcf0ff71	-0.029418679
81	0xbe870032	-0.26367337
82	0xbea91792	-0.33025795
83	0xbe82f70f	-0.25579116
84	0xbe407aee	-0.18796894
85	0xbe516a3f	-0.20450686
86	0xbeaf1ac3	-0.34200105
87	0xbec1cc8c	-0.3785137
88	0x3e9e0076	0.30859727
89	0xbe771e8e	-0.2413275
90	0x3f0139e0	0.50478935
91	0x3d202ce9	0.03910533
92	0xbdb01100	-0.085969925
93	0x3ea0aacc	0.31380308
94	0x3e14511a	0.14484063
95	0x3ea799f5	0.32734647
96	0xbe6aae5e	-0.22918078
97	0xbdb534b9	-0.08847947
98	0xbdfd4df9	-0.12368388
99	0xbe8f3808	-0.27972436
100	0xbde2b66a	-0.11069949
101	0xbe4afe3e	-0.19823548
102	0x3e1c0ca2	0.15239194
103	0x3eae810c	0.3408283
104	0x3e042bd1	0.1290734
105	0xbe88b136	-0.266977
106	0x3d352432	0.04422397
107	0xbe21558c	-0.1575529
108	0x3e25ef68	0.16204607
109	0x3dc95cb1	0.098321326
110	0x3e270ed2	0.16314247
111	0xbdb1c4e7	-0.08680134
112	0x3dd59d54	0.104303986
113	0x3e23695b	0.15958159
114	0x3e4bba0b	0.19895189
115	0xbd856dab	-0.06515058
116	0xbdd628db	-0.10457011
117	0xbea7d508	-0.32779717
118	0xbd42dc60	-0.047573447
119	0x3e144623	0.1447988
120	0x3ef59bfc	0.4797057
121	0xbea4918c	-0.32142293
122	0xbd39c953	-0.045358013
123	0xbd732e8d	-0.059370566
124	0x3dff62fb	0.12470051
125	0xbe109cb7	-0.14122282
126	0x3eb25933	0.3483368
127	0x3d30eb47	0.043193128
128	0xbe89a60a	-0.2688449
129	0x3ed17841	0.4091206
130	0xbb6d98b5	-0.003625435
131	0xbdf62389	-0.120184965
132	0xbe89996b	-0.2687486
133	0x3ea477aa	0.32122546
134	0x3d8ed00f	0.06973278
135	0xbe22121a	-0.15827218
136	0x3ec245bd	0.3794383
137	0x3e640439	0.22267236
138	0xbe159713	-0.14608411
139	0x3e64f02c	0.22357243
140	0x3ebafdab	0.36521658
141	0xbe94b7bd	-0.2904643
142	0x3dd4d849	0.103928156
143	0xbd399015	-0.045303423
144	0x3e264484	0.16237074
145	0x3e811b44	0.25216115
146	0xbf2672e1	-0.6501904
147	0x3e0bda9e	0.13657615
148	0xbe07581d	-0.13217206
149	0x3d1e032b	0.03857724
150	0x3af0496a	0.0018332426
151	0xbe208e43	-0.15679269
152	0xbcc6e996	-0.024281304
153	0xbbff103a	-0.007783917
154	0x3ec14288	0.37746072
155	0x3d8826fd	0.066480614
156	0x3e081a71	0.13291337
157	0xbe1e05c2	-0.15431884
158	0xbdb22940	-0.08699274
159	0x3c92aff9	0.017906176
160	0x3d984cc8	0.0743652
161	0xbe84fbfd	-0.25973502
162	0xbdc58e85	-0.09646324
163	0xbe920f08	-0.28527093
164	0xbe6859b9	-0.22690476
165	0xbd98fa71	-0.07469643
166	0x3e12cd5e	0.14336154
167	0xbd128f9c	-0.035781488
168	0xbd58f999	-0.05297241
169	0x3dff8ca4	0.12477997
170	0xbe59ffe3	-0.2128902
171	0xbeb3ff23	-0.3515559
172	0x3e46bd57	0.19408165
173	0x3eabf5ac	0.3358587
174	0xbe108da2	-0.14116529
175	0x3e108870	0.14114547
176	0x3e56c3bf	0.20973109
177	0xbe23f539	-0.16011514
178	0x3e11909b	0.14215319
179	0xbd848e7b	-0.064724885
180	0xbe6ae85e	-0.22940204
181	0xbd86cb3f	-0.06581735
182	0x3c1fa515	0.0097439485
183	0xbe85aa94	-0.26106703
184	0xbd29f0d2	-0.04148943
185	0x3d5949f7	0.053049054
186	0xbe2201c7	-0.1582099
187	0x3e0e88f7	0.13919435
188	0x3c3ce1f7	0.011528484
189	0x3d96e1fd	0.073673226
190	0xbdcbf75a	-0.09959288
191	0xbdc14ffe	-0.094390854
192	0x3dc0fb62	0.094229475
193	0x3d826336	0.06366579
194	0xbe311aef	-0.1729543
195	0xbccfac81	-0.025350811
196	0xbe82c9eb	-0.25544676
197	0x3d01c528	0.031682163
198	0x3d9b9d97	0.07598417
199	0x3c727351	0.014798001
200	0xbdfc6e7e	-0.12325762
201	0xba0c84cc	-0.00053603644
202	0xbc34d718	-0.0110376105
203	0x3db1e819	0.08686847
204	0xbe0c7842	-0.1371775
205	0xbdcb6a3e	-0.099323735
206	0xbe2d149a	-0.1690239
207	0x3e11a815	0.14224274
208	0x3d1191a5	0.035539288
209	0xbe37501f	-0.17901658
210	0xbca936f8	-0.020656094
211	0xbdf57926	-0.11985998
212	0xbd3867ca	-0.045020856
213	0xbd1edbb8	-0.03878376
214	0xbcd84fad	-0.02640518
215	0xbe1f24b2	-0.15541342
216	0xbd7ad455	-0.06123765
217	0x3d4c8d4c	0.04993944
218	0xbd518f78	-0.051162213
219	0xbc7abfa7	-0.015304483
220	0xbdf16a1c	-0.11787817
221	0x3c98d12d	0.01865443
222	0xbe49ead4	-0.19718486
223	0x3d46e472	0.048557706
224	0xbe4ceedb	-0.20012991

cnn.2.bias f4 [5]
0	0x3b814291	0.003944703
1	0xbc510124	-0.01275662
2	0x3bad56ce	0.005289889
3	0xbd917d8b	-0.071040235
4	0xbe6cd739	-0.23128976

network.0.weight f4 [120, 405]
0	0x3cc1c3fc	0.023653023
1	0xbd507689	-0.050894294
2	0xbd312697	-0.043249693
3	0xbd4fc391	-0.050723616
4	0x3c889ffa	0.016677845
5	0xbbce3137	-0.006292488
6	0xbd038482	-0.03210879
7	0x3ba7f0d7	0.005125146
8	0x3cab530d	0.020913625
9	0xbd827b6e	-0.063711986
10	0x3c62340f	0.013806357
11	0xbad9e664	-0.0016624448
12	0xbd198d7e	-0.037488453
13	0xbb6b4ef1	-0.0035905207
14	0xbd71d986	-0.059045337
15	0xbc091f94	-0.008369345
16	0xbd5f06e9	-0.05444995
17	0xbd9ed4b1	-0.077554114
18	0x3d11f86f	0.035637315
19	0x3c86a5cf	0.016436486
20	0xbcaf7992	-0.021420274
21	0xbba33233	-0.0049803494
22	0x3a849873	0.0010116234
23	0xbd11cd4b	-0.035596173
24	0xbd69dede	-0.05709731
25	0xbd728023	-0.059204232
26	0xbc7a3724	-0.015271936
27	0xbb9db88a	-0.0048132585
28	0xbd49f40a	-0.049305
29	0xbcfd014c	-0.030884407
30	0x3c3e9a64	0.011633489
31	0x3c038fc1	0.008029879
32	0xbcff98e7	-0.03120084
33	0xbca5b5f1	-0.020228358
34	0xbcd8716a	-0.026421268
35	0xbd279d2e	-0.040921383
36	0x3c454081	0.012039305
37	0xbc346fa9	-0.01101295
38	0xbcd39ddb	-0.025832107
39	0x3d21053d	0.039311636
40	0x3c04d270	0.008106813
41	0xbd5a33ef	-0.053272184
42	0xbb95fc3c	-0.004577188
43	0xba607c93	-0.0008563485
44	0xbc978986	-0.018498193
45	0xbc20c55a	-0.009812677
46	0xbd05b64e	-0.032644562
47	0xbd27137f	-0.040790077
48	0xbd5c3fe0	-0.053771853
49	0xba792593	-0.0009504195
50	0xbc321efa	-0.010871643
51	0x3cf7d84a	0.030254502
52	0xb9bb9701	-0.00035779926
53	0xbc9ad72a	-0.018901426
54	0xbd8372f4	-0.0641841
55	0x3cc234a6	0.023706745
56	0x3c8f05f9	0.017458903
57	0x3c03350e	0.008008255
58	0xbb7b5c0f	-0.0038354432
59	0xbca0ab0a	-0.019612808
60	0x3b2c4a35	0.0026289348
61	0xbc6400ac	-0.013916176
62	0x3b9e2294	0.0048258994
63	0xbcf9076a	-0.030399043
64	0xbd3c4f6e	-0.045974188
65	0xbda3336c	-0.07968792
66	0x3cf885b2	0.030337188
67	0xbd189635	-0.037252624
68	0xbd81389c	-0.063096255
69	0xbc95dfc8	-0.018295184
70	0x3b3ec9a1	0.002911188
71	0xbc28332f	-0.010266109
72	0xbd26e1c3	-0.040742647
73	0xbcadcbb5	-0.0212153
74	0xbd483379	-0.048877213
75	0x3c94af30	0.018149942
76	0x3c07f706	0.008298641
77	0xbd0e1375	-0.034686524
78	0xbcbed7de	-0.023296293
79	0xbd3c4d37	-0.045972075
80	0xbc0d45ac	-0.008622568
81	0xb9c73b9d	-0.00038000653
82	0xbc66ff5f	-0.014098971
83	0x3cf8ddac	0.030379139
84	0xbc927fd1	-0.017883213
85	0x3c7a8f02	0.015292885
86	0x3ba0b2a2	0.004904107
87	0x3cac092d	0.02100047
88	0xbd82b143	-0.06381466
89	0xbd291c6e	-0.04128688
90	0x3c4ebb34	0.012617875
91	0xbd423975	-0.047418077
92	0xbb48a620	-0.0030616596
93	0xbd28b5d6	-0.041189037
94	0xbd2bcf5c	-0.0419458
95	0xbd778823	-0.060432564
96	0xbd15d964	-0.036584273
97	0xbd2b8bb1	-0.041881267
98	0xbce6841e	-0.02813917
99	0xbd27a455	-0.040928204
100	0xbd475a88	-0.04867032
101	0xbd4b31e1	-0.049608115
102	0xbd5d8277	-0.0540795
103	0x3c63afb5	0.013896872
104	0xbcad5101	-0.02115679
105	0xbd4a2d30	-0.0493595
106	0xbca62d56	-0.02028529
107	0xbd12c41c	-0.035831556
108	0xbcc74276	-0.024323683
109	0xbd71b39a	-0.059009172
110	0x3c7ef158	0.0155604705
111	0xbd1552cd	-0.036455918
112	0x3d1df302	0.03856183
113	0x3d6a772f	0.05724257
114	0xbd81940e	-0.06327067
115	0xbd28fcff	-0.0412569
116	0xbd2c3502	-0.04204274
117	0x3cac029d	0.02099734
118	0xbd26d00a	-0.040725745
119	0xbc3d5e61	-0.011558146
120	0xbc9a6166	-0.018845271
121	0xbd4fba6c	-0.050714895
122	0x3d01c049	0.031677518
123	0xbd67a692	-0.05655534
124	0xbae2b9d7	-0.0017297816
125	0x3bf531e7	0.0074827555
126	0xbd746dc2	-0.059674986
127	0xbcef0397	-0.029176516
128	0xbc8f7d3a	-0.017515767
129	0x3d1dcba8	0.0385243
130	0xbc93c4fb	-0.018038264
131	0xbcc9bd39	-0.024626361
132	0x3cc0ddc0	0.023543239
133	0x3c971d55	0.018446604
134	0x3c8a1422	0.016855303
135	0xbcc52990	-0.02406767
136	0xbd3a51cd	-0.045488168
137	0xbd73c7dd	-0.059516776
138	0x3c98a380	0.01863265
139	0xbc407a6b	-0.011747937
140	0xbd9152fe	-0.07095908
141	0xbcab4b76	-0.020910006
142	0xbbab8c36	-0.0052352203
143	0x3bfcff0a	0.0077208327
144	0x3c91a924	0.017780848
145	0xbd55ddd5	-0.05221351
146	0xbd1256fa	-0.03572748
147	0xbc88ccf4	-0.016699292
148	0xbd80bbdc	-0.06285831
149	0xbbe41026	-0.006959933
150	0x3c0ea7fe	0.008707045
151	0xbd80129b	-0.06253549
152	0xbc597675	-0.013272871
153	0xbd4244f2	-0.047429033
154	0xbd1c95f2	-0.038228936
155	0xbd2b76f7	-0.0418615
156	0x3c4878b3	0.012235808
157	0x3b6c2f7c	0.0036039045
158	0x3c8bfafa	0.017087448
159	0x3ca63434	0.020288564
160	0xbd43a969	-0.047768984
161	0x3c9c1a33	0.019055462
162	0xbc436157	-0.011925063
163	0xbc90e55a	-0.017687488
164	0x3ca358f1	0.019939872
165	0x3d2990ad	0.04139774
166	0x3be88109	0.0070954603
167	0x3c63e55e	0.013909666
168	0xbd30077b	-0.042975884
169	0xbd2c3a60	-0.04204786
170	0xbd5e497f	-0.05426931
171	0xbd5d7dea	-0.05407516
172	0xbc06fb84	-0.008238677
173	0xbd27f86f	-0.04100841
174	0xbcfae676	-0.03062747
175	0x3c0a1ea2	0.008430155
176	0xbcd97af8	-0.026547894
177	0xbd3a114a	-0.045426644
178	0xbb1236bf	-0.0022310463
179	0x3cbb49b9	0.022862302
180	0xbccebfcc	-0.02523794
181	0xbce76d1f	-0.028250275
182	0xbd15255c	-0.03641258
183	0xbcc97337	-0.024591072
184	0xbd6b3447	-0.057422902
185	0xbd29d102	-0.04145909
186	0xbd1c41af	-0.03814858
187	0x3cb3d773	0.02195332
188	0xbc700776	-0.014650216
189	0x3ba28215	0.0049593546
190	0xbd0e35c0	-0.03471923
191	0x3b8ba174	0.00426119
192	0xbad26fe9	-0.001605508
193	0xbc0f838e	-0.008759392
194	0xbc39336b	-0.011303763
195	0xbc519cef	-0.012793764
196	0xbc8b58bf	-0.01701009
197	0xbd5eda70	-0.054407537
198	0x3b8e5a92	0.004344293
199	0xbcef4e3e	-0.029212113
200	0x3cb98062	0.022644226
201	0xbcd2c8f5	-0.02573059
202	0xbd59bc2f	-0.05315798
203	0xbd38856f	-0.045049127
204	0xbd17817a	-0.036988713
205	0x3c0def6d	0.008663041
206	0x3bb3e1e3	0.0054895743
207	0x3abc371b	0.0014359684
208	0xba6cc027	-0.00090313185
209	0xbd348cb8	-0.044079512
210	0x3bf0abc0	0.007344693
211	0xbcb6be0f	-0.022307424
212	0x3c02a4d0	0.007973865
213	0x3cdd7de8	0.027037576
214	0x39a5be55	0.0003161306
215	0x3d21e1e5	0.03952207
216	0xbd2bd7f7	-0.041954007
217	0xbc61c43c	-0.013779696
218	0xbb93816b	-0.004501512
219	0x3c4220a2	0.011848601
220	0xbc8c4904	-0.01712466
221	0xbd036290	-0.03207642
222	0xbbfd6b05	-0.007733705
223	0xbc10fcfb	-0.008849378
224	0xbc7e5cd5	-0.015525063
225	0x3c841cad	0.016126955
226	0xbd1d2542	-0.03836561
227	0xbbe43e43	-0.00696543
228	0x3c4ca34d	0.012490106
229	0xbd0c2490	-0.034214556
230	0x3b94913e	0.004533916
231	0x3cb463ea	0.022020299
232	0xbd4d8682	-0.050177105
233	0x3b7b8ecb	0.0038384672
234	0xbd7bf5f1	-0.061513845
235	0x3a008d3a	0.0004903857
236	0x3cbbdfc2	0.022933844
237	0xbd87dcb5	-0.066338934
238	0xbd49008c	-0.049072787
239	0x3cf866aa	0.030322392
240	0x3a8abfb3	0.0010585695
241	0xbd2938d3	-0.041313957
242	0x3c509111	0.012729899
243	0xbd0f4030	-0.034973323
244	0xbd3e2dbf	-0.046430346
245	0xbd77f614	-0.060537413
246	0x3ccacc63	0.024755662
247	0x3d09d230	0.033647716
248	0xbdc93377	-0.09824269
249	0xbcc64ad4	-0.024205603
250	0xbcd3712b	-0.025810799
251	0x3cd99716	0.026561301
252	0x3cfa423b	0.03054916
253	0xbd5f748b	-0.054554503
254	0x3d25edd3	0.04051001
255	0xbd2c7d72	-0.04211182

network.0.bias f4 [120]
0	0xbd8e0b68	-0.06935769
1	0x3c6bd703	0.0143945245
2	0xbd42c44e	-0.047550492
3	0xbd285fa9	-0.041106854
4	0xbd3a5ffc	-0.045501694
5	0xbd8e677a	-0.0695333
6	0xbd287920	-0.04113114
7	0xbe23967f	-0.15975378
8	0x3c1faa66	0.009745216
9	0xbd09d334	-0.033648685
10	0xbd937d17	-0.07201593
11	0xbd9e8826	-0.07740812
12	0x3d7b1afa	0.061305024
13	0x3db2d970	0.08732879
14	0x3d8849b1	0.066546805
15	0xbaa094d0	-0.0012251381
16	0xbc2fad30	-0.010722443
17	0xbda3d617	-0.07999819
18	0xba1e2c76	-0.0006033847
19	0xbd463bbd	-0.048396815
20	0xbd694ed4	-0.056959942
21	0xbe107958	-0.14108789
22	0xbd3d5018	-0.04621896
23	0xbd8b8b78	-0.06813711
24	0x3d304e9f	0.04304373
25	0x3c4b1108	0.012394197
26	0xbc356b01	-0.011072875
27	0x3cfd8c17	0.03095059
28	0xbd594686	-0.053045772
29	0x3d37277a	0.044715382
30	0x3d24c112	0.04022319
31	0x3d2a20c1	0.041535143
32	0xbab1a0d1	-0.0013551955
33	0x3de61efe	0.1123638
34	0xbcb0e309	-0.021592634
35	0x3dab5d30	0.083673835
36	0x3e023928	0.12717116
37	0xbd503721	-0.050833825
38	0xbd2c6e98	-0.042097658
39	0x3e221f71	0.15832306
40	0x3d7e969a	0.062155344
41	0xbdada92a	-0.08479531
42	0xbd96ed25	-0.073694505
43	0x3c629a57	0.013830743
44	0x3d88c820	0.06678796
45	0x3e36d86f	0.17856
46	0xbdfa48aa	-0.12220891
47	0x3d8bc7c3	0.06825211
48	0x3d266f37	0.040633406
49	0xbda23b69	-0.07921488
50	0x3ddad883	0.106858276
51	0x3c80c70a	0.01571991
52	0x3c9fd777	0.019511921
53	0xbd94a2d2	-0.07257618
54	0x3d8bbab9	0.06822724
55	0xbcfc22db	-0.03077834
56	0x3d2e54e4	0.042561427
57	0x3b8ef2ef	0.004362456
58	0xbc5db903	-0.01353288
59	0x3db209ae	0.086932525
60	0xbd50b3c8	-0.050952703
61	0xbd652a6c	-0.05594866
62	0xbc870465	-0.016481588
63	0xbcaeeb26	-0.021352362
64	0xbd4bc17e	-0.049745075
65	0xbd2a7068	-0.041611105
66	0xbd2e6809	-0.042579684
67	0xbd8bb050	-0.06820738
68	0xbe04d2a0	-0.12970972
69	0xbb6e7a34	-0.0036388757
70	0x3d048082	0.032349117
71	0xbd2455ee	-0.04012101
72	0xbd787e86	-0.060667537
73	0x3dc959cb	0.0983158
74	0x3beb22b3	0.0071757673
75	0xbd813c53	-0.06310334
76	0xbd8d9c20	-0.06914544
77	0x3d483362	0.048877127
78	0xbd4628a3	-0.048378598
79	0xbd6af52a	-0.057362713
80	0xbd8e4282	-0.06946279
81	0x3d0e51be	0.034745924
82	0xbd3076c3	-0.04308201
83	0xbba52458	-0.005039733
84	0xbd28aab4	-0.04117842
85	0x3dd0d9cd	0.10197792
86	0xbbf7b497	-0.00755937
87	0xbd8d496b	-0.06898769
88	0xbcd86ceb	-0.026419124
89	0xbd366808	-0.044532806
90	0xbdecdfab	-0.11566099
91	0xbdb32bbd	-0.08748577
92	0xbd1c134d	-0.038104344
93	0x3d5e09d1	0.05420858
94	0x3e867745	0.2626287
95	0xbd83d0b0	-0.06436288
96	0xbd27ff35	-0.04101487
97	0x3d42c682	0.047552593
98	0xbcac03f5	-0.02099798
99	0x3dfb686d	0.12275777
100	0x3ca348e6	0.019932222
101	0x3d963c27	0.07335692
102	0xbd29491c	-0.04132949
103	0xbcfa84af	-0.030580847
104	0xbd91e0af	-0.07122933
105	0xbdb1b3f4	-0.086769015
106	0xbe18da94	-0.14927131
107	0xbdba486b	-0.09095844
108	0x3da42498	0.08014792
109	0xbdf18716	-0.11793344
110	0x3d0702d8	0.032961696
111	0xbd132721	-0.035925988
112	0xbd0dbdd1	-0.03460485
113	0xbd7db721	-0.061942223
114	0xbe15117a	-0.14557448
115	0x3c2e8d71	0.010653839
116	0xbc6e3b4c	-0.014540505
117	0xbdba15f6	-0.0908622
118	0xbd484c9f	-0.048901197
119	0x3dea2bdf	0.11434149

network.2.weight f4 [84, 120]
0	0x3d43d9d7	0.04781517
1	0x3e0907ac	0.13381833
2	0x3b5a77f3	0.0033335655
3	0x3d002e4e	0.03129416
4	0xbd13dba3	-0.036098134
5	0x3cce65df	0.02519506
6	0xbb9ab7e7	-0.00472163
7	0xbd23d54b	-0.039998334
8	0xbddf2ec8	-0.10897595
9	0xbd10027b	-0.035158616
10	0x3bb5d097	0.0055485475
11	0x3ce199a2	0.027539078
12	0x3deef9cb	0.11668738
13	0xbe9e9fc1	-0.30981258
14	0xbc73d91c	-0.014883306
15	0x3c98500a	0.018592853
16	0xbd9d08da	-0.07667704
17	0xbd262c1b	-0.040569406
18	0xbdeb49db	-0.11488696
19	0xbd4caa02	-0.04996682
20	0xbd5e2172	-0.054231115
21	0x3da3de35	0.08001367
22	0xbd14a6a0	-0.03629172
23	0xbdb6efbf	-0.08932447
24	0xbca249d0	-0.019810587
25	0xbe400524	-0.18751961
26	0xbe4f7fd2	-0.20263603
27	0xbd64e77e	-0.05588483
28	0xbe03bda5	-0.12865312
29	0xbc81c5f5	-0.015841464
30	0x3d866eef	0.06564128
31	0xbb7ac3cb	-0.0038263674
32	0xbea28290	-0.31740236
33	0xbb0a0436	-0.0021059639
34	0xbd198fce	-0.03749066
35	0xbdc9802a	-0.098388985
36	0xbe506ffc	-0.20355219
37	0xbd6466b2	-0.055762
38	0xbd61fbe9	-0.05517188
39	0xbe824bd2	-0.2544847
40	0xbe394907	-0.18094264
41	0x3d7f85e3	0.062383544
42	0xba2628dd	-0.00063384866
43	0x3e3b29e9	0.18277706
44	0x3dffd191	0.124911435
45	0xbe451edf	-0.19250058
46	0xbdbd692c	-0.092485756
47	0xbe8facc3	-0.28061494
48	0x3dda7792	0.106673375
49	0xbd8a0534	-0.06739274
50	0xbe2d4fcf	-0.16924976
51	0x3cf8720e	0.030327823
52	0xbe059ecd	-0.13048859
53	0x3d0c9992	0.034326144
54	0x3e2517b5	0.16122325
55	0xbbed931f	-0.007250204
56	0x3d223745	0.03960349
57	0xbdb08ece	-0.08620988
58	0x3dfb8f1d	0.12283156
59	0xbeadf3e3	-0.33975133
60	0x3d7b0b39	0.06129
61	0xbd60f8c7	-0.054924753
62	0xbd231dd8	-0.039823383
63	0xbd805d1e	-0.06267761
64	0x3d841381	0.064490326
65	0xbd3f3b71	-0.046687547
66	0x3d974e48	0.07387978
67	0xbd86362f	-0.065533035
68	0x3da8af3b	0.082365476
69	0xbdeb0cd9	-0.1147706
70	0x3d9ccd0c	0.07656297
71	0xbd3eef69	-0.046615038
72	0x3cbfc901	0.023411276
73	0xbe085544	-0.13313776
74	0x3da8d3b9	0.08243508
75	0x3cef5420	0.029214919
76	0xbd107751	-0.03527004
77	0x3d9121b6	0.07086508
78	0xbda44309	-0.080205984
79	0xbddca219	-0.10773105
80	0xbe0ded9b	-0.1386017
81	0xbe3bff0c	-0.18359011
82	0xbdabacaf	-0.08382546
83	0x3c9d0f64	0.019172378
84	0xbd975226	-0.073887154
85	0x3dfb70bb	0.12277361
86	0x3d5e30bf	0.054245707
87	0x3d66f0a1	0.056381825
88	0xbdbc2f13	-0.09188666
89	0xbcdacb51	-0.026708277
90	0xb95d728a	-0.00021118872
91	0x3db6553f	0.08902978
92	0x3d4a74ba	0.049427725
93	0xbe849541	-0.25895122
94	0x3de66ac3	0.11250832
95	0x3ddd0156	0.107912704
96	0x3cc94e59	0.024573492
97	0x3de55837	0.11198466
98	0x3d4887a1	0.04895747
99	0x3c15b17b	0.009136553
100	0xbcea797c	-0.028622381
101	0x3e452678	0.19252956
102	0xbd493961	-0.049126986
103	0x3d69aa8f	0.057047423
104	0x3c5bc5be	0.013413845
105	0xbdb44841	-0.08802844
106	0xbb125622	-0.0022329171
107	0x3c5e45cc	0.013566446
108	0x3dbeb548	0.093119204
109	0xbd6acd0b	-0.05732445
110	0x3d712915	0.05887707
111	0x3d8482ae	0.06470238
112	0x3da99470	0.08280265
113	0xbd8ccd25	-0.06875066
114	0x3b32afbb	0.0027265388
115	0xbd15e2dd	-0.036593307
116	0x3ce45481	0.027872326
117	0x3d92b614	0.07163635
118	0x3bb12ce9	0.005406965
119	0xbe8fce64	-0.2808715
120	0xbdba1a41	-0.09087039
121	0xbca1cb8e	-0.019750383
122	0x3c010fb8	0.007877283
123	0x3c56f5bb	0.01312011
124	0xbab4e47b	-0.0013801003
125	0xbdb0378b	-0.08604344
126	0xbd8b98dd	-0.06816266
127	0x3d885386	0.06656556
128	0x3d28e0ec	0.041230127
129	0xbda6dd4c	-0.08147678
130	0xbc8f9944	-0.017529137
131	0x3da96685	0.08271507
132	0x3d07d1de	0.03315913
133	0xbda6c9f4	-0.08143988
134	0x3d01911b	0.031632524
135	0x3d18c235	0.037294585
136	0x3c88b845	0.016689429
137	0xbc43c0eb	-0.011947851
138	0x3cba4837	0.022739513
139	0x3dad15d7	0.08451431
140	0xbcc85f9c	-0.024459653
141	0x3da4560b	0.08024224
142	0xbca8baf4	-0.020596959
143	0xbd89b27b	-0.067234956
144	0xbdad29c7	-0.08455234
145	0x3d72a888	0.059242755
146	0xbdc0d7ae	-0.09416138
147	0xbd8ab3dd	-0.067725874
148	0xbd56415c	-0.052308425
149	0xbded6049	-0.115906306
150	0xbc88628f	-0.016648559
151	0xbda136b6	-0.078717634
152	0xbd73051c	-0.059331045
153	0xbd89f50e	-0.067361936
154	0xbdc5e1e6	-0.09662227
155	0x3d57c58f	0.05267864
156	0xbd9c371e	-0.076277
157	0x3cf8330e	0.030297782
158	0xbda98d41	-0.08278895
159	0xbdbe923a	-0.09305234
160	0xbd9d8825	-0.07691983
161	0x3d1a4947	0.03766754
162	0xbd76be17	-0.060239878
163	0xbda42b3e	-0.0801606
164	0xbcc4b1be	-0.024010535
165	0x3d173d55	0.036923725
166	0x3cfb4661	0.030673208
167	0xbd877554	-0.066141754
168	0x3b629f18	0.003457969
169	0xbba843ea	-0.005135049
170	0xbd8281b8	-0.06372398
171	0xbd8189c7	-0.06325107
172	0xbdbf1363	-0.093298696
173	0xbd105075	-0.03523298
174	0xbdd4224b	-0.10358103
175	0x3af77652	0.0018879867
176	0x3d569dc1	0.05239654
177	0xbde82a2e	-0.1133617
178	0x3cdcdc16	0.026960414
179	0xbda2f957	-0.07957714
180	0x3d98dc8a	0.074639395
181	0x3d0db1d1	0.034593407
182	0x3d8bb69d	0.0682194
183	0x3d9cec28	0.07662231
184	0x3c82efe4	0.01598353
185	0x3cf3593b	0.029705634
186	0x3d44982b	0.04799668
187	0xba4ec9c0	-0.00078883395
188	0x3dacb745	0.084333934
189	0xbd14ee48	-0.036360055
190	0xbbb65cf5	-0.0055652806
191	0xbd3bf85f	-0.045891162
192	0x3d6c995a	0.057763435
193	0x3af8d638	0.0018984741
194	0xbdd3b68e	-0.10337554
195	0x3996093a	0.00028617104
196	0x3a529165	0.000803253
197	0xbd2fa11b	-0.04287825
198	0xbdabb6de	-0.083844885
199	0xbd84638c	-0.064642996
200	0xbcda8aef	-0.026677577
201	0xbd39e957	-0.045388546
202	0x3d7ed44c	0.06221418
203	0xbbba451e	-0.005684509
204	0x3dba90d0	0.09109652
205	0xbdb09ba9	-0.0862344
206	0xbc984f4d	-0.018592501
207	0x3d8f0119	0.06982631
208	0x3d46fd84	0.048581615
209	0x3cbde855	0.023182074
210	0x3d4bc663	0.049749743
211	0xbc889d74	-0.016676642
212	0xbce817ea	-0.028331716
213	0xbc74fc52	-0.014952736
214	0xbd163055	-0.036667187
215	0x3dab134a	0.083532885
216	0x3d1440b9	0.036194537
217	0x3d617de6	0.055051707
218	0xbd1909da	-0.03736291
219	0x3d887d65	0.06664542
220	0x3c61d092	0.013782637
221	0xbd0e39c2	-0.03472305
222	0x3ca5f647	0.020259036
223	0x3adbbe64	0.0016765115
224	0x3d702d42	0.05863691
225	0x3cdafbe2	0.026731435
226	0xbd5383a5	-0.051639218
227	0xbbc46bc3	-0.0059942915
228	0x3d2d2fc6	0.04228189
229	0x3d9fd2bd	0.07803867
230	0xbd77f2e8	-0.060534388
231	0x3d240ece	0.04005318
232	0xbcd566bd	-0.026049966
233	0xbd922231	-0.07135428
234	0x3bde68f2	0.006787413
235	0x3d88521f	0.06656288
236	0xbbf7c7ee	-0.0075616753
237	0xbd628bbd	-0.055309046
238	0x3b0328da	0.0020013363
239	0xbd95a5ed	-0.073070385
240	0xbd332b7c	-0.04374264
241	0x3ccc5ddc	0.0249471
242	0xbc1d47f2	-0.009599673
243	0xbdb489cf	-0.088153474
244	0x3cb2e053	0.021835482
245	0x3c31a034	0.010841418
246	0xbd310e34	-0.043226436
247	0xbde1dc6d	-0.11028371
248	0x3e222626	0.15834865
249	0x3d60153f	0.05470776
250	0xbcbbf146	-0.022942197
251	0xbd5a9276	-0.053362332
252	0xbe2c54c6	-0.16829214
253	0xbd6bb0e1	-0.05754173
254	0xbe137f4f	-0.14404033
255	0x3da86c84	0.08223823

network.2.bias f4 [84]
0	0x3d6d6867	0.057960894
1	0xbdef9b90	-0.11699593
2	0x3dd5d618	0.10441226
3	0x3e265e27	0.16246854
4	0xbc2eec5f	-0.010676472
5	0xbe1f0120	-0.15527773
6	0xbda4d9b8	-0.08049339
7	0x3c5c3cf9	0.013442271
8	0x3e56491d	0.20926328
9	0xbd80fe54	-0.06298509
10	0x3d05e9d2	0.03269369
11	0x3e06b477	0.1315478
12	0xbdde07f7	-0.10841363
13	0x3d582740	0.052771807
14	0x3deda768	0.11604196
15	0xbd253985	-0.040338058
16	0xbd45113f	-0.04811215
17	0xbd547e2d	-0.051878143
18	0xbda23b59	-0.07921476
19	0xbb6f9de3	-0.0036562614
20	0xbdad43fd	-0.08460233
21	0xbd323e60	-0.043516517
22	0x3e1103dd	0.1416163
23	0xbd8cef17	-0.0688154
24	0x3e207252	0.1566861
25	0xbdc1d1ad	-0.094638206
26	0x3d4cd798	0.050010294
27	0xbcf1c5c7	-0.029513253
28	0xbd9bbada	-0.076039985
29	0x3de7b915	0.113145985
30	0xbd5260eb	-0.05136196
31	0x3e10dda4	0.14147049
32	0xbdf3b48e	-0.118996724
33	0x3df74d37	0.120752744
34	0x3e04dd67	0.12975083
35	0xbcd49dd9	-0.025954174
36	0xbdb8f619	-0.090313144
37	0x3dd529c8	0.1040836
38	0x3dc2ad2a	0.09505685
39	0xbdbb97ea	-0.09159835
40	0x3e286f23	0.16448645
41	0x3d8199ef	0.06328189
42	0x3e434238	0.19068229
43	0x3c9ceb59	0.019155191
44	0x3e3804ac	0.17970532
45	0x3e89287a	0.26788694
46	0x3e2d1c42	0.16905311
47	0xbd743ef1	-0.059630338
48	0xbd0adeb4	-0.033903793
49	0x3daa34d0	0.083108544
50	0xbe100645	-0.14064892
51	0x3cf1a1b2	0.029496048
52	0x3d699bb8	0.05703327
53	0xbdc1f44b	-0.09470423
54	0x3d34d134	0.044144824
55	0xbdb5984e	-0.088669404
56	0xbde549d5	-0.11195723
57	0x3e1183f8	0.14210498
58	0x3d926856	0.07148807
59	0x3e087c1a	0.13328591
60	0xbdb9adca	-0.09066351
61	0xbdde3655	-0.10850207
62	0xbdfa664f	-0.12226545
63	0x3e49b669	0.1969849
64	0xbdda75db	-0.106670104
65	0x3df75888	0.12077433
66	0xbe182d0c	-0.14860934
67	0xbda78dc1	-0.08181334
68	0x3df9e232	0.122013465
69	0xbdfff9b5	-0.124988
70	0xbcdec225	-0.027192185
71	0xbd660868	-0.05616036
72	0x3d0e84d3	0.03479464
73	0x3bb00dc8	0.0053727366
74	0x3e2b92d6	0.16755232
75	0xbddbce15	-0.107326664
76	0xbdc7068f	-0.09718048
77	0xbddef8f5	-0.108873285
78	0x3d4176d4	0.047232464
79	0x3dac6913	0.08418479
80	0xbbe9e80d	-0.0071382583
81	0xbd815721	-0.06315447
82	0xbb861aea	-0.004092564
83	0xbdd478ca	-0.10374601

network.4.weight f4 [21, 84]
0	0x3d0c69c0	0.03428054
1	0xbdcbc7c2	-0.0995021
2	0x3dc6ffba	0.09716745
3	0xbd918603	-0.07105639
4	0xbceab57b	-0.02865099
5	0xbd43b9a2	-0.047784455
6	0xbd59b3b8	-0.05314991
7	0xbdc5783b	-0.09642073
8	0xbd2ca04a	-0.04214505
9	0x3d9934fe	0.074808106
10	0x3ddee54a	0.10883577
11	0xbbd8660b	-0.0066039613
12	0xbd807eba	-0.06274171
13	0xbde25c16	-0.1105272
14	0xbd830328	-0.063970864
15	0x3e0fddd6	0.14049467
16	0x3da28e4d	0.07937298
17	0x3ceb8e34	0.028754331
18	0xbd04474e	-0.032294564
19	0xbd266bda	-0.0406302
20	0xbd5d9ce7	-0.05410471
21	0xbdaad47b	-0.08341309
22	0xbd095ca9	-0.033535633
23	0x3c0104c0	0.007874668
24	0x3cdc8d71	0.026922913
25	0xbdaa0fcc	-0.08303794
26	0xbd2aed68	-0.041730314
27	0x3d1b8799	0.037971113
28	0x3d2dd671	0.042440835
29	0x3e2c181b	0.1680607
30	0xbdf9b864	-0.12193373
31	0x3ce20d3e	0.027594205
32	0x3daadb7b	0.08342644
33	0x3d66b06b	0.05632059
34	0xbd4717eb	-0.048606794
35	0x3d96fafb	0.073720895
36	0x3dac0ec9	0.084012575
37	0x3d82eb78	0.06392568
38	0xbd0d989a	-0.03456936
39	0xbceaff80	-0.028686285
40	0x3e2d68f0	0.16934562
41	0x3d456939	0.04819605
42	0x3d97bc68	0.074089825
43	0x3cfc981c	0.03083425
44	0x3bb7b5dd	0.0056063966
45	0xbdc0a516	-0.09406488
46	0xbc1b152f	-0.0094655
47	0x3d207b84	0.039180294
48	0xbd60f577	-0.054921594
49	0x3df9e78d	0.12202368
50	0xbd557758	-0.05211577
51	0xbdb5af82	-0.08871366
52	0x3b626e19	0.0034550487
53	0x3df8654a	0.12128694
54	0xbd8eb29f	-0.06967663
55	0xbd087d97	-0.033322897
56	0x3cb6ab06	0.022298347
57	0x3d957d89	0.072993346
58	0x3d07aec7	0.033125665
59	0x3cdc6043	0.02690137
60	0x3db7ee83	0.089810394
61	0x3d9b4233	0.07580986
62	0xbc9bf7fe	-0.01903915
63	0x3e3710f6	0.17877564
64	0x3d307048	0.04307583
65	0xbc9343dc	-0.017976694
66	0x3d779401	0.060443882
67	0x3dab8c26	0.083763406
68	0xbd320e02	-0.04347039
69	0xbd542fd9	-0.051803444
70	0xbd436856	-0.047706924
71	0x3d5430c0	0.051804304
72	0xbdbd3fba	-0.092406705
73	0x3c0ad777	0.008474222
74	0x3cdb4bb8	0.026769504
75	0xbd897bfb	-0.067131005
76	0xbe0bc85c	-0.1365065
77	0xbcab37a8	-0.020900562
78	0x3d2b18a9	0.041771565
79	0x3c8a84fe	0.016909119
80	0x3c886cac	0.016653381
81	0xbca29253	-0.019845163
82	0xbd1d3ae9	-0.03838626
83	0xbdbe95ad	-0.09305892
84	0xbd6bb73e	-0.0575478
85	0x3d36f6a8	0.044668823
86	0x3d94bff4	0.07263175
87	0x3d8622bd	0.065495946
88	0x3c4384a4	0.011933479
89	0x3b649f66	0.0034885048
90	0xbd869d14	-0.06572929
91	0xbd333baa	-0.043758072
92	0x3d552b26	0.052043103
93	0xbc8be311	-0.017076047
94	0xbcf09ccf	-0.029371647
95	0x3c320377	0.010865084
96	0x3d68b7f4	0.056816056
97	0x3d837517	0.064188175
98	0xbceda767	-0.029010488
99	0x3df60d06	0.12014203
100	0x3dc55101	0.09634591
101	0xbcb9873e	-0.022647496
102	0xbc868c97	-0.01642446
103	0xbd38f420	-0.04515469
104	0xbacda203	-0.0015688542
105	0xbbdeb38d	-0.0067963065
106	0xbd3e07df	-0.046394225
107	0x3dd0bc11	0.10192121
108	0xbd69e43e	-0.057102434
109	0xbd4e52de	-0.050371997
110	0x3d90b808	0.07066351
111	0x3d89236b	0.066962086
112	0xbd06fca4	-0.03295578
113	0x3c433eb0	0.011916801
114	0xbd66b771	-0.056327287
115	0x3e294b6e	0.1653268
116	0x3d4fab43	0.050700437
117	0x3e2edb86	0.17075929
118	0x3cc752e7	0.024331523
119	0x3d914bf5	0.07094566
120	0x3d85da9d	0.06535838
121	0xbb1801da	-0.0023194463
122	0x3e054b36	0.13016972
123	0x3d0976b8	0.033560485
124	0x3dfee7dc	0.124465674
125	0x3d2eee4d	0.04270773
126	0x3d08bf5b	0.033385616
127	0xbdf1d80b	-0.11808785
128	0x3cf5403a	0.029937852
129	0xbdc9259c	-0.098216265
130	0x3cbcb99d	0.023037726
131	0xbca69dca	-0.020338912
132	0xbd77af0a	-0.060469665
133	0x3dd99032	0.10623206
134	0xbd0f4f8c	-0.03498797
135	0xbdb8a003	-0.09014895
136	0x3d3d0aa9	0.046152744
137	0x3d0eaed3	0.034834694
138	0x3dd5f522	0.10447146
139	0x3c2f327a	0.010693187
140	0xbbad86b4	-0.005295599
141	0x3df6fecb	0.12060317
142	0x3c899458	0.016794369
143	0x3da97794	0.08274761
144	0x3dae5d8c	0.085139364
145	0xbd9480fc	-0.07251164
146	0xbda0158d	-0.078166105
147	0x3de45979	0.11149878
148	0xbd80e61b	-0.06293889
149	0x3c75aafd	0.01499438
150	0xbd325177	-0.043534722
151	0xbb92cd55	-0.004480044
152	0xbd12cda3	-0.03584064
153	0xbddbef8a	-0.10739048
154	0x3d72f6dc	0.059317455
155	0xbc75cff1	-0.01500319
156	0x3c1b03c3	0.009461346
157	0x3c54410b	0.012954961
158	0x3c8741b1	0.016510816
159	0x3cbf55df	0.023356376
160	0xbc16fb1f	-0.009215145
161	0xbb2a6f9a	-0.002600646
162	0xbd0730f4	-0.03300567
163	0xbcf099f2	-0.029370282
164	0x3dc7bb0e	0.09752475
165	0xbd86f71f	-0.06590103
166	0x3d89b242	0.06723453
167	0x3e030378	0.12794292
168	0x3d549a93	0.051905226
169	0x3c8545c6	0.016268622
170	0xbcb1ee56	-0.021720093
171	0x3e037204	0.12836462
172	0xbd4b6227	-0.049654152
173	0xbdce9844	-0.10087636
174	0x3dd5f09a	0.10446282
175	0xbd90d1a1	-0.070712335
176	0x3d0b97ad	0.034080196
177	0xbc943cce	-0.0180954
178	0x3d512080	0.051056385
179	0xbba0a642	-0.004902632
180	0x3d43eaf0	0.047831476
181	0xbd5ecd55	-0.05439504
182	0xbdce88ae	-0.10084663
183	0x3d9685cd	0.07349739
184	0xbdd559b4	-0.104175
185	0xbdc17ca5	-0.09447602
186	0x3dde155d	0.108439185
187	0xbdb596d0	-0.08866656
188	0xbc7e64e5	-0.015526985
189	0x3dcd68a8	0.10029727
190	0x3cf77e29	0.030211525
191	0x3cea6d39	0.028616535
192	0x3d892976	0.06697361
193	0x3d0b9f36	0.034087382
194	0x3c92b65c	0.017909221
195	0x3d9ab64b	0.07554301
196	0xbd7913a4	-0.060809746
197	0x3df615cf	0.120158784
198	0xbc9527c6	-0.018207442
199	0x3db028d2	0.08601536
200	0x3cd53438	0.026025876
201	0x3e049a16	0.12949404
202	0x3cf01cce	0.02931061
203	0x3da344e3	0.079721235
204	0x3cd926dd	0.02650779
205	0x3d5517c2	0.05202461
206	0x3d2179bd	0.03942274
207	0xbd0f9e8c	-0.03506331
208	0x3e042150	0.12903333
209	0xbdb2457c	-0.08704659
210	0x3db50a77	0.08839887
211	0x3c603465	0.013684367
212	0x3c58fdde	0.01324412
213	0xbe400739	-0.18752755
214	0xbdac7340	-0.0842042
215	0x3ba9db16	0.005183588
216	0x3da2bf5a	0.07946654
217	0x3daeb814	0.08531204
218	0x3b5b77f1	0.0033488239
219	0xbcd0b43b	-0.025476566
220	0x3d6a6e2a	0.057233967
221	0x3c03f5c4	0.008054201
222	0x3d2fd7f9	0.042930577
223	0xbd0ca250	-0.03433448
224	0x3d69dfeb	0.05709831
225	0x3d0837ef	0.033256467
226	0x3a7e2fe1	0.00096964656
227	0xbbd937c0	-0.0066289604
228	0xbd56e38b	-0.052463096
229	0x3d205dae	0.03915184
230	0x3d0285be	0.031865828
231	0x3e2b4046	0.16723737
232	0xbd63f4c9	-0.055653367
233	0x3d4152b9	0.04719803
234	0x3bb9a76c	0.00566571
235	0x3d3264da	0.04355321
236	0x3aa7fe29	0.0012816834
237	0xbd6403fa	-0.055667855
238	0x3be56de4	0.0070016254
239	0xbcad686d	-0.021167958
240	0xbc22db20	-0.009939939
241	0x3c4dbd31	0.012557314
242	0x3d8c9b75	0.068655886
243	0x3c8ef61d	0.01745134
244	0xbbf8c3e7	-0.0075917128
245	0x3c083cc0	0.008315265
246	0x3d5e46cc	0.054266736
247	0x3ca2ae04	0.019858368
248	0xbd693419	-0.05693445
249	0xbd919b4f	-0.07109701
250	0xbccad909	-0.024761694
251	0xbdca8b8f	-0.098899
252	0x3d7744cc	0.060368344
253	0xbb544350	-0.0032388754
254	0x3e492818	0.19644201
255	0x3d9aefb8	0.07565254

network.4.bias f4 [21]
0	0x3dbc2116	0.09185998
1	0x3de974d1	0.11399234
2	0x3e1f88ce	0.1557953
3	0x3e2299ec	0.15879029
4	0x3e1e972b	0.15487354
5	0x3e045ed1	0.12926795
6	0x3de4f166	0.111788556
7	0x3e18323b	0.14862911
8	0x3e11f6b3	0.14254265
9	0x3e1d7996	0.15378413
10	0x3dfe7bfe	0.124259934
11	0x3e1cfc8a	0.15330711
12	0x3ddc0167	0.10742455
13	0x3dd29d9d	0.102839686
14	0x3d93f7c6	0.072249934
15	0x3d9c9927	0.07646399
16	0x3d93a4d3	0.07209172
17	0x3d882dd9	0.0664937
18	0x3e1ed9af	0.15512727
19	0x3dd948a7	0.106095605
20	0x3dfdff55	0.12402216
