model/state_dict/my_random1.pt (torch, 248354 bytes, 10 tensors)

cnn.0.weight f4 [5, 5, 3, 3]
0	0xbb429d0e	-0.0029695663
1	0xbd887861	-0.066635855
2	0xbdd31ebc	-0.103085965
3	0xbda0f31b	-0.07858869
4	0x3ca8a2bd	0.020585412
5	0x3c8d52da	0.01725142
6	0x3d0840db	0.033264976
7	0xbde7522d	-0.11294971
8	0x3ce50991	0.027958663
9	0xbdb67df1	-0.0891074
10	0xbddde48a	-0.10834606
11	0xbe056576	-0.13026986
12	0xbe2720ff	-0.16321181
13	0xbceb0589	-0.028689163
14	0xbcd67097	-0.026176734
15	0xbe05af70	-0.13055205
16	0xbd9cb571	-0.07651795
17	0xba3b27e5	-0.00071394286
18	0xbcd7a0ec	-0.02632185
19	0x3d7bfb10	0.06151873
20	0xbc9fa318	-0.019486949
21	0x3dc3f287	0.09567743
22	0xbd6e4b61	-0.058177356
23	0xbe68f407	-0.22749339
24	0x3d52ab31	0.051432792
25	0xbc3bdefa	-0.011466736
26	0xbca9a7ce	-0.020709898
27	0x3efcd716	0.49382848
28	0x3cdeb56a	0.027186114
29	0x3f0982c5	0.53715163
30	0xbe155015	-0.1458133
31	0x3ea24c85	0.31699005
32	0xbc167cfa	-0.00918507
33	0x3cf75f13	0.030196702
34	0x3eae0e53	0.33995304
35	0x3e9cadc4	0.30601323
36	0xbeb9a7aa	-0.3626073
37	0x3e352182	0.17688563
38	0xbe1ba492	-0.15199497
39	0xbc0fec46	-0.008784359
40	0xbec7cdb8	-0.39024138
41	0x3ddec7d2	0.108779564
42	0xbd084bb3	-0.033275317
43	0xbf1e92e3	-0.6194288
44	0xbeb83788	-0.35979867
45	0xbdb6d469	-0.08927233
46	0x3d9c2b4e	0.07625447
47	0xbdaab3bb	-0.08335062
48	0xbc22bf0a	-0.009933243
49	0x3af5e64d	0.0018760652
50	0xbd92e8bf	-0.07173299
51	0x3d42e304	0.04757978
52	0xbe26769a	-0.1625618
53	0x3dd5f51b	0.10447141
54	0xbd7fe82b	-0.062477272
55	0xbd719d5b	-0.058987956
56	0x3deb9fe1	0.11505104
57	0xbda49197	-0.080355816
58	0xbe3c904c	-0.1841442
59	0xbe46f412	-0.19429043
60	0xbd7d9ae1	-0.061915282
61	0xbdb86dc9	-0.09005315
62	0x3d894ea4	0.06704453
63	0x3d769d17	0.060208406
64	0xbd086fd7	-0.033309784
65	0xbdc087a5	-0.09400872
66	0xbd20f76c	-0.03929846
67	0xbe155ee5	-0.1458698
68	0xbdc66e96	-0.09689061
69	0x3c968e03	0.018378263
70	0x3c4bc914	0.0124380775
71	0xbd6c1061	-0.057632808
72	0x3ead30c6	0.33826274
73	0xbdba2c19	-0.09090442
74	0x3e99d69a	0.3004654
75	0x3df737f6	0.120712206
76	0xbe850cb3	-0.2598625
77	0xbe88b31e	-0.26699156
78	0x3e83ab3d	0.25716582
79	0x3eaaa1be	0.33326524
80	0x3e752893	0.23941259
81	0xbf2bcdd3	-0.6711094
82	0x3c47748d	0.012173784
83	0xbf0cad46	-0.54951894
84	0xbdc6235a	-0.096747115
85	0xbe83fcf3	-0.25778922
86	0xbe58ed5c	-0.21184295
87	0xbed37953	-0.413035
88	0xbf1ae43d	-0.60504514
89	0xbeda8b14	-0.42684233
90	0x3d3d8f1d	0.04627906
91	0xbd4cc2e7	-0.04999056
92	0xbe1d442b	-0.15358035
93	0xbd39f054	-0.04539521
94	0xbd900137	-0.07031482
95	0xbd918e8e	-0.07107268
96	0xbd5a0148	-0.05322388
97	0x3de3a0b8	0.11114639
98	0xbd8fdc49	-0.07024438
99	0xbde3c11f	-0.11120819
100	0xbdf3efcf	-0.11910974
101	0xbdf05865	-0.1173561
102	0xbc76739f	-0.015042215
103	0xbe5187e7	-0.20461999
104	0x3dba9af9	0.0911159
105	0xbcd0498c	-0.025425695
106	0xbe07e49d	-0.13270803
107	0xbe19479c	-0.14968723
108	0xbd8ec6ef	-0.06971537
109	0xbda213ec	-0.07913956
110	0xbdd816b6	-0.10551207
111	0xbdf9da23	-0.121998094
112	0xbad2aa05	-0.0016072398
113	0xbe1b8387	-0.15186892
114	0xbdcfae30	-0.101406455
115	0x3cc7351b	0.024317315
116	0x3bf5e743	0.007504375
117	0x3ed41db2	0.41428906
118	0xbc488af4	-0.01224016
119	0xbcee8bb1	-0.029119344
120	0x3e333d69	0.17503895
121	0xbdbcec4e	-0.09224759
122	0xbc12583f	-0.008932172
123	0x3d09db87	0.033656623
124	0xbe004096	-0.12524638
125	0xbb5cc659	-0.003368756
126	0xbf4152d3	-0.75517005
127	0x3efd35ba	0.49455053
128	0x3db7218b	0.08941945
129	0x3db3b75c	0.087752074
130	0x3ddf61fc	0.10907361
131	0x3dbbaa4e	0.091633424
132	0x3e454ef1	0.19268395
133	0x3e79baa6	0.24387607
134	0x3e92b4ac	0.28653467
135	0x3c9cf7fa	0.019161213
136	0xbdd095b9	-0.10184807
137	0x3dcc32ac	0.099706024
138	0xbe164304	-0.14674002
139	0x3e04d728	0.129727
140	0xbcc9b5fd	-0.024622912
141	0xbd6ca5ab	-0.05777518
142	0x3cec904f	0.028877405
143	0xbc5f6c43	-0.013636651
144	0xbb9aa30b	-0.0047191433
145	0xbd05fb08	-0.032710105
146	0x3cd64f95	0.026160995
147	0x3cc1656a	0.023607928
148	0x3c425d25	0.011863028
149	0x3c4e40e6	0.012588715
150	0x3c8723b5	0.016496519
151	0x3cbdcd3e	0.023169156
152	0x3dc738e4	0.09727648
153	0x3cc51625	0.02405841
154	0x3cc3cd6c	0.023901664
155	0xbd568e86	-0.052382015
156	0xbb3457a6	-0.0027518063
157	0x3c99d083	0.018776184
158	0x3ca29698	0.0198472
159	0x3b5b6569	0.0033477193
160	0x3d871102	0.06595041
161	0xbd623ed9	-0.055235717
162	0xbe313f34	-0.17309266
163	0x3f1f8d25	0.62324744
164	0x3dfd80e6	0.12378101
165	0xbdb28c07	-0.08718114
166	0x3f0f2f62	0.55931675
167	0x3cf34839	0.029697524
168	0xbc8caa0f	-0.017170934
169	0xbe10f61b	-0.14156382
170	0x3db2c9b2	0.087298766
171	0x3dc7240e	0.09723674
172	0xbe7d0106	-0.24707422
173	0xbda5d18a	-0.08096607
174	0xbc59b86f	-0.013288601
175	0xbe8aa54e	-0.27079242
176	0xbc2ea5ca	-0.010659644
177	0xbd477feb	-0.048705976
178	0x3df7ff86	0.12109284
179	0xbd55dfdc	-0.052215442
180	0x3bb36f78	0.0054759346
181	0xbd7b3a60	-0.061334968
182	0xbd35804c	-0.044311807
183	0xbdc9a626	-0.098461434
184	0x3d80067e	0.06251238
185	0x3c5cb0d8	0.013469897
186	0xbc84ee3d	-0.016226882
187	0xbcc3619d	-0.023850257
188	0x3d26a1e4	0.040681735
189	0x3da55394	0.08072582
190	0x3d016726	0.03159251
191	0xbe0f7b03	-0.14011769
192	0xbd02f54c	-0.031972215
193	0xbe52c940	-0.20584583
194	0xbd9d4c3e	-0.07680558
195	0x3bf8723d	0.0075819776
196	0xbcd092c8	-0.025460616
197	0xbd5d579e	-0.054038636
198	0xbda8e6f9	-0.082471795
199	0xbd431aa3	-0.047632825
200	0x3d8b048e	0.06787978
201	0x3d3efca7	0.046627667
202	0xbe5a0156	-0.21289572
203	0xbb8d360a	-0.0043094205
204	0x3d380115	0.044922907
205	0x3c43d452	0.011952477
206	0x3cf86bd2	0.03032485
207	0x3e4aa4c0	0.1978941
208	0xbdcff67f	-0.10154437
209	0x3ec472b6	0.38368767
210	0xbd6dae0d	-0.058027316
211	0x3f24ef2a	0.64427435
212	0x3eb2d001	0.3492432
213	0xbd838d63	-0.06423452
214	0xbd479f60	-0.048735976
215	0x3ed4eae4	0.41585457
216	0xbed62087	-0.4182169
217	0x3cfbcb09	0.030736463
218	0xbefe6bf2	-0.4969173
219	0x3e062d9f	0.1310334
220	0xbe52ce2f	-0.20586465
221	0xbed2f94d	-0.41205826
222	0x3da79f08	0.0818463
223	0x3dcfb2a2	0.101414934
224	0xbf06d348	-0.5266614

cnn.0.bias f4 [5]
0	0xb99978fb	-0.00029272572
1	0xbdceda38	-0.10100216
2	0xbd98526f	-0.07437598
3	0xbd9dfb55	-0.077139534
4	0x3bf574e1	0.0074907397

cnn.2.weight f4 [5, 5, 3, 3]
0	0xbd84a669	-0.06477053
1	0x3e8d3b74	0.27584422
2	0xbe648136	-0.22314915
3	0xbe26d155	-0.16290791
4	0xbe27702c	-0.16351384
5	0xbe19eb36	-0.15031132
6	0xbcc68b1a	-0.02423625
7	0xbe83309a	-0.25623018
8	0xbda97ed2	-0.08276142
9	0x3d5074db	0.050892692
10	0x3e8b1e4e	0.27171558
11	0xbe26eb49	-0.16300692
12	0x3ea2b2b2	0.3177696
13	0x3cac7b08	0.02105476
14	0x3e80b1b2	0.2513557
15	0x3e34c40e	0.17652914
16	0xbdd8c78b	-0.10584935
17	0x3e16b536	0.14717564
18	0xbe8e00c5	-0.27734962
19	0xbe67a237	-0.22620474
20	0xbdd2c609	-0.102916785
21	0x3e04bcdd	0.1296267
22	0xbea44bfd	-0.32089224
23	0x3e9719a3	0.29511747
24	0xbdf90c64	-0.121605664
25	0xbd9b7b2b	-0.07591852
26	0x3dc96c0e	0.09835063
27	0xbe47dd73	-0.1951807
28	0x3d8ac1f6	0.06775276
29	0x3e953e26	0.29148978
30	0x3d96deed	0.073667385
31	0x3c5e7d8c	0.013579737
32	0xbe3e4257	-0.18579994
33	0xbe830422	-0.2558909
34	0x3d302c89	0.043011222
35	0xbd1d2f45	-0.038375158
36	0x3e201591	0.15633227
37	0x3e8ee38a	0.27907974
38	0xbea6f7eb	-0.3261102
39	0x3e036f92	0.1283553
40	0xbd378b22	-0.04481042
41	0x3dbc7159	0.09201307
42	0xbc990eda	-0.01868384
43	0xbea07b0b	-0.31343874
44	0xbddfef82	-0.10934354
45	0xbd1d2a8f	-0.038370665
46	0x3e115e72	0.14196184
47	0x3cda70d9	0.026665138
48	0xbe944ed1	-0.28966382
49	0x3d559123	0.052140366
50	0x3c384cde	0.011248795
51	0xbda0818f	-0.07837211
52	0xbe02d0ba	-0.12774935
53	0xbe7faf33	-0.24969177
54	0x3cb836d1	0.022487076
55	0x3e4fee89	0.20305838
56	0x3e5dc584	0.21657377
57	0xbd773b7d	-0.060359467
58	0xbe85eb80	-0.26156235
59	0xbd69962b	-0.057027977
60	0x3e58bd3c	0.21165937
61	0xbc880eeb	-0.016608676
62	0x3d3bea6f	0.04587787
63	0xbe65078e	-0.22366163
64	0xbe3bb1c1	-0.18329526
65	0x3e3e6fb1	0.18597294
66	0x3cff9bdf	0.031202255
67	0xbe9cf26d	-0.30653706
68	0x3d5d4f1f	0.054030534
69	0x3e4d6352	0.20057419
70	0xbe944451	-0.2895837
71	0x3e3f39a5	0.18674333
72	0xbda18c8e	-0.07888137
73	0x3c30cc03	0.010790828
74	0xbec6b5b1	-0.38810495
75	0xbde3b874	-0.11119166
76	0x3d5b96e2	0.05361069
77	0xbd4501e3	-0.048097502
78	0xbda259f1	-0.07927311
79	0xbd8f4439	-0.06995434
80	0xbdf2843d	-0.11841629
81	0x3e2d9c02	0.16954044
82	0xbe4a66bf	-0.19765757
83	0xbdeafb24	-0.114736825
84	0x3c8c3011	0.017112764
85	0x3c15395d	0.009107915
86	0xbe85f829	-0.26165894
87	0x3e4271af	0.1898868
88	0xbe204d19	-0.1565441
89	0x3d92cb87	0.07167726
90	0x3e1c11c9	0.1524116
91	0x3dc1f7bd	0.094710805
92	0x3e2d474e	0.16921732
93	0xbdbf0f73	-0.093291186
94	0xbe4612ad	-0.19343062
95	0x3d8e94e6	0.06961994
96	0xbe8e935f	-0.2784681
97	0x3e9b0feb	0.30285582
98	0x3e36e3f2	0.17860392
99	0x3e9db596	0.30802602
100	0x3ed12c1e	0.4085397
101	0x3eb04982	0.34431082
102	0xbe7a801e	-0.24462935
103	0xbd8931b9	-0.06698937
104	0xbd5d5966	-0.054040335
105	0xbd2db058	-0.042404503
106	0x3ea9f35a	0.33193475
107	0x3dccb418	0.09995288
108	0xbe0019a7	-0.12509786
109	0xbe832b7f	-0.25619122
110	0xbe5a1dae	-0.21300384
111	0xbdf03506	-0.117288634
112	0xbe0dbe02	-0.13842013
113	0xbe26e974	-0.16299993
114	0xbe98035b	-0.2969006
115	0x3e809bcf	0.25118873
116	0xbe12f142	-0.14349845
117	0xbe31b1f6	-0.17353043
118	0xbe65577b	-0.22396652
119	0xbe9ca73b	-0.30596337
120	0x3e0d2246	0.13782606
121	0xbe29c508	-0.16579068
122	0x3e7ca35e	0.24671695
123	0x3e023355	0.12714894
124	0xbe1b0f5e	-0.15142581
125	0x3e5b02f2	0.21387842
126	0xbe898532	-0.26859432
127	0x3e3dbc86	0.18528947
128	0xbbc7b142	-0.006094129
129	0x3dbe7ca5	0.09301118
130	0x3d920da1	0.07131506
131	0x3e4f3b2b	0.20237415
132	0xbe93d193	-0.2887083
133	0x3ea05e3d	0.31321898
134	0xbe135f16	-0.14391741
135	0x3dcf61c5	0.1012607
136	0xbd5c27b2	-0.053748794
137	0x3e2f6266	0.1712738
138	0xbd7de0d4	-0.06198199
139	0x3eb5fa77	0.35542652
140	0xbe201df3	-0.15636425
141	0xbbdffd07	-0.006835583
142	0x3dc14917	0.09437769
143	0x3db3a90f	0.0877248
144	0x3e30206a	0.17199865
145	0x3d3cdbcb	0.04610805
146	0x3e2e4ce0	0.17021513
147	0x3dd9df60	0.106383085
148	0x3e99b059	0.30017355
149	0x3d9f12e1	0.07767273
150	0x3d085579	0.033284638
151	0xbdb33eff	-0.0875225
152	0x3dd7cfee	0.10537706
153	0xbeaa12dd	-0.33217517
154	0xbda8c36d	-0.082403995
155	0x3e33115f	0.17487095
156	0xbd1b1960	-0.037865996
157	0x3d39e26e	0.045381956
158	0xbdcf7f76	-0.10131733
159	0xbe8dabfb	-0.27670273
160	0xbe28d46f	-0.16487287
161	0x3e989706	0.29802722
162	0x3dc373d9	0.095435806
163	0x3d923f54	0.07140985
164	0xbe4999cf	-0.1968758
165	0x3e6f129a	0.2334694
166	0x3d5ec492	0.054386683
167	0xbe4715e9	-0.19441952
168	0xbe25f9f6	-0.16208634
169	0x3ec02e55	0.3753535
170	0xbe16627a	-0.14686003
171	0x3e9aa197	0.30201408
172	0xbea56a03	-0.32307443
173	0xbe40ca97	-0.18827282
174	0x3e3beda6	0.18352374
175	0x3e0dfe49	0.13866533
176	0xbd93c3a6	-0.07215051
177	0x3e0cfbc0	0.1376791
178	0x3e907202	0.2821198
179	0x3dae5822	0.08512904
180	0xbb46c932	-0.0030332324
181	0x3da1a547	0.07892852
182	0xbe1a5ef3	-0.15075283
183	0xbe131810	-0.14364648
184	0xbda94fb1	-0.08267153
185	0x3d80f4a3	0.06296661
186	0xbcfc2197	-0.030777736
187	0xbe5f3bbc	-0.2180013
188	0xbcc7dbcf	-0.024396805
189	0x3e7fc426	0.24977168
190	0x3e13d6ac	0.1443736
191	0x3eabfd9b	0.33591923
192	0xbd8058d5	-0.06266943
193	0xbe43b9d8	-0.19113863
194	0xbd8e9d15	-0.06963555
195	0x3e1ccc4a	0.15312305
196	0x3c8e4e92	0.01737145
197	0x3c851a02	0.016247753
198	0xbbc042e3	-0.0058673485
199	0xbe8ded92	-0.27720314
200	0x3c7a3e2d	0.015273613
201	0xbe7f5d4a	-0.2493793
202	0xbe13d7d3	-0.14437799
203	0xbd98b4ab	-0.07456335
204	0xbd505cb0	-0.050869644
205	0x3bd8bd07	0.0066143307
206	0x3dda0bf5	0.10646812
207	0x3b7a9742	0.003823713
208	0xbd02dbe3	-0.03194798
209	0xbc546a56	-0.012964806
210	0xbe3537a3	-0.17697005
211	0x3d3c8d2c	0.04603307
212	0x3e1e0d06	0.15434656
213	0xbd0e2822	-0.034706242
214	0x3e844507	0.25833914
215	0xbcd94ff9	-0.026527392
216	0x3dd45cd9	0.10369272
217	0xbe087e32	-0.1332939
218	0xbe6e33d7	-0.23261963
219	0xbc784f85	-0.015155678
220	0x3e173fa8	0.14770377
221	0xbe78a05d	-0.24279924
222	0xbdc54754	-0.096327454
223	0xbe4d2410	-0.20033288
224	0xbde8c572	-0.11365785

cnn.2.bias f4 [5]
0	0xbd2c3e94	-0.042051867
1	0xbe2c4c91	-0.16826083
2	0xbd456efc	-0.048201546
3	0xbdc76452	-0.097359315
4	0xbc10a9ec	-0.008829575

network.0.weight f4 [120, 405]
0	0x3d5ba23d	0.05362152
1	0xbc72cdcd	-0.014819575
2	0xbc9d39ca	-0.019192595
3	0x3e18b9e1	0.14914657
4	0xbd149708	-0.036276847
5	0x3ca1a075	0.019729832
6	0x3dc05159	0.09390516
7	0x3b9f9895	0.004870484
8	0x3d988fba	0.07449289
9	0xbd8ca9db	-0.06868335
10	0xbd7d82d4	-0.061892346
11	0xbba6fbd1	-0.005095937
12	0xbcdbc75e	-0.026828464
13	0xbdb7fa6c	-0.08983311
14	0xbc116e05	-0.008876328
15	0xbc9efa16	-0.01940636
16	0x3bf3880e	0.0074319905
17	0x3ce4597d	0.027874703
18	0xbdc906d3	-0.09815755
19	0xbc9f58ce	-0.019451525
20	0x3a85ecfc	0.0010217722
21	0x3d88e42d	0.06684146
22	0x3d44b032	0.048019595
23	0x3d1c682b	0.03818528
24	0x3da57d12	0.08080496
25	0xbd474df0	-0.04865831
26	0xbbc4ceff	-0.006006121
27	0x3d208eaf	0.039198574
28	0x3e16166f	0.14656995
29	0xbd5036d5	-0.050833542
30	0x3d8e4af8	0.06947893
31	0x3ce27eea	0.027648408
32	0x3d868332	0.06567992
33	0xbc08858a	-0.008332619
34	0x3c706bab	0.014674108
35	0xbdabfbfa	-0.0839767
36	0x3d341fae	0.043975525
37	0xbbe0f70c	-0.006865388
38	0x3c09ad37	0.008403114
39	0x3d26e6d9	0.040747497
40	0xbc9fd110	-0.019508868
41	0xbd9e526e	-0.07730566
42	0xbc24ffe8	-0.010070778
43	0x3dd7790a	0.10521133
44	0x3dc8e1d6	0.098087
45	0x3ca53e83	0.02017141
46	0x3c977e9c	0.01849299
47	0x3d4d2f53	0.05009396
48	0xbcc2b57c	-0.02376818
49	0xbd9bd275	-0.07608501
50	0x3cfc9417	0.030832333
51	0xbd1305aa	-0.035894074
52	0xbda5f784	-0.081038505
53	0x3d14f03e	0.036361925
54	0x3ce3706f	0.027763573
55	0xbdc2d145	-0.09512571
56	0x3cafba70	0.021451205
57	0xbe538998	-0.20657957
58	0xbcde0304	-0.027101047
59	0x3d925241	0.07144595
60	0xbc3f7e3e	-0.011687813
61	0xbd1e24f0	-0.038609445
62	0xbd6de612	-0.05808074
63	0xbce5b5d4	-0.028040804
64	0xbe2749d6	-0.1633676
65	0xbc3d113c	-0.0115397535
66	0xbddd1dea	-0.10796721
67	0xbd036632	-0.032079883
68	0x3c9e371a	0.019313384
69	0xbe18b7e6	-0.14913902
70	0x3d8dc335	0.069219984
71	0x3ca23bc4	0.01980389
72	0xbd757599	-0.059926603
73	0x3ba4c87a	0.0050287815
74	0xbd4f46b4	-0.050604537
75	0x3e2e4d06	0.1702157
76	0x3df26ba7	0.11836939
77	0x3d01506b	0.031570833
78	0x3d7ca31e	0.061679
79	0xbdc2929b	-0.09500619
80	0x3c88217e	0.016617533
81	0x3ca6ce1f	0.020361958
82	0x3d54537b	0.051837426
83	0x3c555d03	0.013022664
84	0x3da60191	0.081057675
85	0xbd4cf75c	-0.050040588
86	0xbbbc597e	-0.005747973
87	0x3d362526	0.04446902
88	0xbd3d8a94	-0.046274737
89	0xbb2297bb	-0.0024809677
90	0xbd997405	-0.07492832
91	0xbdd58cdf	-0.1042726
92	0x3ad213bc	0.001602761
93	0xbb600f2e	-0.0034188735
94	0x3b01114b	0.0019694145
95	0x3ca17143	0.019707328
96	0x3db1c441	0.086800106
97	0xbd9d299a	-0.076739505
98	0xbd4750a5	-0.048660893
99	0xbd998a91	-0.074971326
100	0xbdbc1d9a	-0.091853335
101	0x3cf440ae	0.029815998
102	0x3dfff3a8	0.124976456
103	0x3c25879b	0.010103132
104	0x3b6032e5	0.0034210023
105	0xbc911c57	-0.017713709
106	0xbce22e85	-0.027610073
107	0xbdc15ea7	-0.094418816
108	0xbc8a5dcf	-0.016890435
109	0x3d08507b	0.033279877
110	0xbd42115f	-0.047379848
111	0x3c72f240	0.014828265
112	0x3d57e2ea	0.052706636
113	0xbd09a2f5	-0.033602674
114	0x3c617def	0.013762935
115	0xbd271f55	-0.040801365
116	0xbe0cf001	-0.13763429
117	0x3dbc85bb	0.092051946
118	0x3d37c229	0.0448629
119	0x3cccbf15	0.024993459
120	0x3c18ad7b	0.009318705
121	0x3db31ae3	0.087453626
122	0xbda24cde	-0.079248175
123	0x3dbc7729	0.092024155
124	0xbd06d303	-0.03291608
125	0x3d88f403	0.066871665
126	0x3cbb6856	0.0228769
127	0xbd1c26c2	-0.0381229
128	0x3e28e6d3	0.16494302
129	0xbd5c201c	-0.05374156
130	0x3cf36337	0.029710395
131	0x3b66212f	0.0035114994
132	0xbd1ff926	-0.039055966
133	0xbd291c20	-0.041286588
134	0xbdfb0cd1	-0.12258304
135	0xbc28f97f	-0.010313391
136	0xbd2ea4bd	-0.042637575
137	0x3bbbe950	0.0057346
138	0x3beb7553	0.007185617
139	0x3d1989ab	0.037484806
140	0x3d7338d8	0.059380382
141	0x3db334af	0.08750283
142	0xbdfb15d6	-0.12260024
143	0xbb00e5c5	-0.0019668203
144	0xbd040912	-0.032235213
145	0xbd8574cd	-0.065164186
146	0x3d610924	0.054940358
147	0x3d8ad220	0.067783594
148	0xbd075aca	-0.033045568
149	0x3e064ee1	0.13116027
150	0xbdcecccd	-0.100976564
151	0xbd853a76	-0.06505291
152	0xbc24aba0	-0.010050684
153	0xbdaf9594	-0.08573452
154	0xbd15da15	-0.036584932
155	0x3d5ed5b3	0.05440302
156	0xbc6fb029	-0.014629402
157	0x3c97e4c3	0.0185417
158	0x3de98ffb	0.11404415
159	0x3cf71d7f	0.030165432
160	0xbd2ca39d	-0.04214822
161	0xb9c165a9	-0.0003688757
162	0xbd9ac5e7	-0.07557278
163	0xbcc30419	-0.023805665
164	0x3d818b60	0.06325412
165	0x3e830cf8	0.25595832
166	0x3dae0215	0.08496491
167	0x3d75e0ef	0.060028967
168	0x3cc150a0	0.023598015
169	0xbd57bc9f	-0.052670117
170	0x3cfa78b1	0.030575128
171	0x3e66d332	0.22541502
172	0x3df98b6c	0.12184796
173	0x3d8bc6ec	0.06825051
174	0x3caed806	0.021343242
175	0x3da9d977	0.08293431
176	0x3d8e4cad	0.069482185
177	0x3d956cae	0.0729612
178	0x3dd1e857	0.102493934
179	0x3d5dfaf6	0.054194413
180	0x3dc253d8	0.09488648
181	0x3ddd4caf	0.10805642
182	0x3dad417c	0.08459756
183	0xbd004988	-0.031320125
184	0xbd3f5d4d	-0.046719838
185	0xbcffdd53	-0.031233465
186	0xbdb70c5a	-0.08937903
187	0x3d56348f	0.052296218
188	0x3e5189df	0.2046275
189	0x3d4cf9d7	0.050042953
190	0x3d5bb53b	0.05363963
191	0xbd869b46	-0.06572585
192	0x3d22e827	0.03977218
193	0xbd7c21e0	-0.061555743
194	0xbc6ec390	-0.014572993
195	0xbd083bd9	-0.0332602
196	0xbd4f12b7	-0.050554957
197	0xbc3e57f5	-0.01161765
198	0x3d6adc22	0.05733884
199	0xbd9a2440	-0.075264454
200	0xbd60468f	-0.05475479
201	0x3d1f4a79	0.038889382
202	0xbdeb0c90	-0.114770055
203	0xbc830c1f	-0.01599699
204	0xbd95a3c7	-0.07306629
205	0x3d820bb4	0.063498884
206	0x3da7effe	0.08200072
207	0xbdd48a96	-0.10377996
208	0xbd588da6	-0.05286946
209	0xbbd3a7e9	-0.0064592254
210	0xbe3574e0	-0.17720366
211	0xbde6b8da	-0.112657264
212	0x3de2f1e4	0.11081293
213	0xbcb5180f	-0.022106199
214	0x3d9e5678	0.07731336
215	0x3d229404	0.03969194
216	0x3b3ed715	0.0029119898
217	0x3ca5b9b1	0.020230146
218	0x3cd38658	0.025820896
219	0xbc01b7d9	-0.007917368
220	0x3d71d0dd	0.05903708
221	0x3e027c67	0.12742768
222	0x3dcbd284	0.09952262
223	0xbd8c8152	-0.068606034
224	0xbd635749	-0.055503163
225	0xbd2441a8	-0.040101677
226	0x3dbf8d80	0.09353161
227	0xbe021431	-0.12703015
228	0x3d27fd31	0.041012947
229	0x3cdc61b1	0.026902052
230	0x3d8f6c4d	0.070030786
231	0xbd6e9345	-0.058245916
232	0xbd2b81e5	-0.041871924
233	0x3deaf1a3	0.1147187
234	0x3b8b9fbc	0.004260985
235	0xbdbea2d8	-0.09308404
236	0x3cdcaefd	0.02693891
237	0x3d475787	0.048667457
238	0x3d14a526	0.03629031
239	0x3d7b784f	0.061394032
240	0x3da8ed42	0.08248378
241	0xbc6d1773	-0.014470923
242	0xbd044bff	-0.032299038
243	0xbc1f0fc5	-0.00970835
244	0x3dcd7ab5	0.1003317
245	0x3e42ac6f	0.1901109
246	0x3d1a49d5	0.037668068
247	0x3cb54ffb	0.022132864
248	0x3d0c55ba	0.034261443
249	0x3e61e17c	0.22058672
250	0x3dfaf9cd	0.12254677
251	0x3c93da1e	0.018048342
252	0xbd467272	-0.048448987
253	0x3e3b2a70	0.18277907
254	0x3e1bbaff	0.15208052
255	0xbd4ae1f4	-0.049531892

network.0.bias f4 [120]
0	0xbd579395	-0.05263098
1	0x3d1920f3	0.03738494
2	0xbe15a24f	-0.14612697
3	0x3d4d8b65	0.050181765
4	0x3d1e6f85	0.038680572
5	0xbd8a159a	-0.067424014
6	0x3e2199a0	0.1578126
7	0x3c35ea34	0.011103202
8	0xbe3a7937	-0.18210302
9	0x3dc33e78	0.09533399
10	0x3e0bc806	0.13650522
11	0xbd0682e3	-0.032839667
12	0xbc09af9d	-0.008403686
13	0xbe5056de	-0.20345637
14	0x3bfdb23b	0.007742194
15	0xbd7cdca0	-0.061733842
16	0xbd7f5eb6	-0.062346183
17	0xbd852f36	-0.065031454
18	0xbdf6366f	-0.12022101
19	0xbd741e86	-0.059599422
20	0xbd550937	-0.05201074
21	0xbd8c4617	-0.06849306
22	0xbd5ce38d	-0.053927947
23	0xbd5c6047	-0.053802755
24	0x3cf4d731	0.029887768
25	0x3af073fd	0.0018345114
26	0xbd140e3a	-0.03614638
27	0xbc078cb8	-0.008273296
28	0x3b406a7c	0.0029360345
29	0xbda2ba76	-0.07945721
30	0xbd082b46	-0.033244394
31	0xbe7bd0a0	-0.24591303
32	0xbd8dfdc2	-0.06933166
33	0x3c140be8	0.009036042
34	0xbdb4422c	-0.08801684
35	0xbe4b4c1f	-0.19853257
36	0xbe260858	-0.1621412
37	0xbdd0b05a	-0.101898864
38	0x3d407884	0.046989933
39	0xbd8ca351	-0.06867088
40	0x3cad615d	0.02116459
41	0xbc16a22e	-0.00919394
42	0xbda0c2c0	-0.078496456
43	0xbe29d52f	-0.1658523
44	0xbd984482	-0.07434942
45	0xbd0ca542	-0.03433729
46	0xbcfaa896	-0.030597966
47	0xbde7180d	-0.11283884
48	0xbd39613b	-0.04525874
49	0x3d0ff42b	0.035144966
50	0xbdadf125	-0.0849326
51	0x3c96d6fb	0.018413058
52	0xbe12d32d	-0.1433837
53	0xbda33bf6	-0.07970421
54	0xbd09ea31	-0.033670608
55	0xbda50ce4	-0.08059099
56	0x3ad3c1e9	0.0016155812
57	0x3b61e777	0.003447024
58	0x3c35c887	0.011095173
59	0xbd619e0d	-0.05508237
60	0x3c3eefa5	0.011653815
61	0x3e323df6	0.17406449
62	0x3d16b540	0.036793947
63	0xbdc005ca	-0.09376104
64	0xbe3afad6	-0.18259749
65	0xbd576ff0	-0.052596986
66	0xbd7c2b17	-0.06156453
67	0xbd77cbae	-0.06049698
68	0x3dff6703	0.1247082
69	0xbd87a6c6	-0.066236064
70	0x3e0cd028	0.1375128
71	0x3c77606b	0.015098671
72	0x3d01af67	0.031661417
73	0xbcee28dc	-0.029072218
74	0xbc843420	-0.016138136
75	0xbdca706f	-0.09884726
76	0xbbb69018	-0.0055713765
77	0xbd8301c5	-0.06396822
78	0xbd4fa514	-0.05069454
79	0xbdc44640	-0.095837116
80	0x3c92fc09	0.017942445
81	0xbd4ecd6a	-0.050488867
82	0x3bdf2bed	0.0068106563
83	0xbcec9e82	-0.028884176
84	0x3cb8de85	0.022567043
85	0xbdc703b5	-0.09717504
86	0x3c935480	0.017984629
87	0xbd752f34	-0.05985947
88	0xbe17c800	-0.14822388
89	0xbe034245	-0.12818249
90	0x3b53641b	0.0032255712
91	0xbd787c48	-0.0606654
92	0xbd7c37e0	-0.061576724
93	0x3bdee414	0.0068020914
94	0xbdff1b3c	-0.124563664
95	0xbd8885f8	-0.066661775
96	0xbd3324a0	-0.0437361
97	0xbc816a9a	-0.015797902
98	0xbc249eac	-0.010047596
99	0xbd28dbdd	-0.041225303
100	0xbdd9c4bb	-0.106332265
101	0x3c847164	0.01616735
102	0xbd21db48	-0.039515764
103	0xbdc2961b	-0.095012866
104	0xbe1d71b2	-0.15375403
105	0xbde741a7	-0.11291819
106	0x3ad08268	0.0015908005
107	0xbd7e5261	-0.06209028
108	0xbdc0332c	-0.0938476
109	0xbda61d98	-0.08111113
110	0x3c019654	0.007909376
111	0xbdb24255	-0.08704058
112	0xbd4c1da4	-0.049832955
113	0x3ba2bb29	0.004966159
114	0xbe30aade	-0.1725268
115	0xbbbc002c	-0.005737325
116	0xbe4f56e4	-0.2024799
117	0x3d5f4b80	0.05451536
118	0xbdb0f02b	-0.086395584
119	0xbda329aa	-0.07966931

network.2.weight f4 [84, 120]
0	0xbd16ce8f	-0.036818083
1	0x3b12cf3e	0.0022401358
2	0xbcc2526e	-0.023720946
3	0xbe665ca1	-0.22496273
4	0xbe856c33	-0.26059112
5	0x3e46d7dc	0.19418281
6	0xbf6827a5	-0.9068549
7	0x3e5995ca	0.21248546
8	0xbe011964	-0.12607342
9	0x3e2e9cba	0.17051974
10	0xbeb46f14	-0.35240996
11	0x3b4ba821	0.0031075554
12	0x3e07ef73	0.13274936
13	0xbc5dd4cb	-0.013539503
14	0xbcd3da84	-0.025861032
15	0xbd1ea571	-0.038731996
16	0xbdb6e848	-0.08931023
17	0xbaaa4795	-0.0012991304
18	0x3dc42c10	0.09578717
19	0xbd24c2d6	-0.040224873
20	0xbd00f4c7	-0.031483438
21	0x3d935aa0	0.0719502
22	0x3df66586	0.12031083
23	0xbdc7dc7e	-0.097588524
24	0xbe24a075	-0.16076834
25	0x3d023045	0.031784315
26	0xbd771661	-0.060324077
27	0xbd1d8c14	-0.038463667
28	0x3e3ab6d4	0.18233806
29	0xbc078477	-0.008271328
30	0x3d17dfee	0.03707879
31	0x3c444705	0.011979823
32	0x3db3411e	0.087526545
33	0xbdebf49c	-0.11521265
34	0x3d236076	0.039886914
35	0x3d57e729	0.052710686
36	0x3caf9de9	0.021437602
37	0x3df29458	0.118447006
38	0xbb3fcb68	-0.0029265527
39	0xbd76ce9a	-0.060255624
40	0x3e3a433c	0.1818971
41	0x3db7e55a	0.08979292
42	0x3b159b9f	0.0022828353
43	0xbc4376f5	-0.011930217
44	0x3c9884ff	0.018618105
45	0xbe505e73	-0.2034853
46	0xbb740680	-0.003723532
47	0xbd251799	-0.040305708
48	0x3df8f5c2	0.121562496
49	0xbe27627e	-0.16346166
50	0x3c899ad6	0.016797464
51	0x3e441c19	0.19151343
52	0x3d9e7627	0.077373795
53	0xbd26b2ec	-0.040697977
54	0xbd47ef29	-0.048812065
55	0xbc9274c5	-0.017877946
56	0xbe2da4be	-0.16957375
57	0xbe2fd658	-0.1717161
58	0xbe1ff0d8	-0.15619218
59	0x3d39670c	0.04526429
60	0x3e7017be	0.23446557
61	0xbe34307d	-0.17596622
62	0x3e76bbab	0.24095027
63	0x3d48213e	0.048859827
64	0x3dd99c28	0.106254876
65	0x3cc971be	0.02459037
66	0xbd0b6f37	-0.03404161
67	0xbe12a16e	-0.14319393
68	0x3e43b158	0.1911062
69	0xbd28ba29	-0.04119316
70	0xbe2b1726	-0.16708049
71	0x3d02aa0b	0.031900447
72	0xbe04e8f8	-0.12979496
73	0xbd910ff0	-0.07083118
74	0xbdf72c08	-0.12068945
75	0xbda83d26	-0.08214788
76	0xbcb45622	-0.022013728
77	0x3d84b0b4	0.06479016
78	0x3c111daf	0.008857175
79	0x3c7db36f	0.015484675
80	0xbecc2652	-0.39872986
81	0xbcd0c699	-0.025485324
82	0x3d486fec	0.048934862
83	0xbd0fe83e	-0.035133593
84	0x3d992b9e	0.074790224
85	0x3d1c3c61	0.03814352
86	0xbcd61682	-0.02613378
87	0x3d127e13	0.035764765
88	0x3bbc0a77	0.005738552
89	0xbd5eca8d	-0.054392386
90	0xbc3e51b0	-0.0116161555
91	0xbd317b2b	-0.043330353
92	0xbc84752d	-0.016169155
93	0xbd539e2d	-0.05166452
94	0xbdd20e93	-0.10256686
95	0xbd1ddd11	-0.038540903
96	0xbe642015	-0.22277863
97	0x3e3f57c4	0.18685824
98	0x3d97e03b	0.074158154
99	0xbcbc08dd	-0.022953445
100	0xbd26fd7a	-0.040769078
101	0xbe920935	-0.2852265
102	0xbb9ea7ec	-0.004841795
103	0xbd9edbd2	-0.07756771
104	0xbdc44ccf	-0.095849626
105	0x3c4af5cb	0.012387703
106	0x3e916dd0	0.28404093
107	0xbd9a2954	-0.07527414
108	0x3c390119	0.011291766
109	0x3e017a1f	0.12644242
110	0x3df16848	0.11787468
111	0xbcf4ca1d	-0.029881531
112	0xbd7a643e	-0.061130755
113	0x3e187279	0.14887418
114	0x3cac3dd2	0.021025572
115	0x3e1cabf3	0.15299968
116	0x3cf1c50c	0.029512905
117	0xbde336de	-0.110944495
118	0xbd7e9b39	-0.06215975
119	0xbe122e4f	-0.14275478
120	0xbd47b2ab	-0.048754375
121	0x3d2e6e4d	0.04258566
122	0x3d88f8d3	0.066880845
123	0xbddc20a5	-0.10748414
124	0xbcc5767c	-0.02410435
125	0x3cdcd7db	0.026958397
126	0xbd8e5518	-0.06949824
127	0xbda1c8ed	-0.07899652
128	0x3cb28187	0.02179028
129	0x3d1c6802	0.038185127
130	0x39a475fb	0.0003136842
131	0xbddba342	-0.10724498
132	0x3d5d7a29	0.05407158
133	0x3d6e2502	0.058140762
134	0xbbf2af14	-0.007406125
135	0x3d321869	0.04348031
136	0x3d0a7e38	0.033811778
137	0x3c9bc2da	0.01901381
138	0xbc1b5196	-0.009479901
139	0x3d92b028	0.071625054
140	0xbd3dda58	-0.046350807
141	0xbcb2e881	-0.021839382
142	0x3b6aa2ca	0.0035802596
143	0xbd12deff	-0.035857197
144	0x3d864b39	0.06557316
145	0xbd5e0552	-0.054204293
146	0x3d3a6aa6	0.045511864
147	0xbd032b57	-0.032023754
148	0xbd9f7cc6	-0.077874705
149	0x3cf0fd6d	0.029417718
150	0x3d86f0e5	0.06588916
151	0x3d3a3812	0.04546363
152	0x3c81ed57	0.015860243
153	0xbdc93f5c	-0.09826538
154	0xbd920129	-0.071291275
155	0xbcc62cde	-0.024191316
156	0x3d0048aa	0.031319298
157	0xbd5fbc0f	-0.054622706
158	0x3ce4a5ec	0.027911149
159	0xbdbbfd09	-0.09179122
160	0xbd9e436f	-0.07727706
161	0xbe09dc61	-0.13462974
162	0xbd43d404	-0.047809616
163	0xbc0acc87	-0.008471615
164	0x3d869124	0.06570652
165	0xbbd5405c	-0.0065079164
166	0xbc0ca11f	-0.008583336
167	0x3d608681	0.054815773
168	0xbda4d0de	-0.08047651
169	0xbda05eb0	-0.0783056
170	0xbc8d096a	-0.017216403
171	0xbdca8d9a	-0.098902896
172	0xbd975da7	-0.0739091
173	0x3d814e0d	0.06313715
174	0xbd23d85b	-0.040001255
175	0xbd895f32	-0.0670761
176	0xbdbe5958	-0.09294385
177	0xbdebc893	-0.11512866
178	0xbd2f1cc2	-0.042752035
179	0xbc7c107a	-0.015384788
180	0xbdca9a8d	-0.098927595
181	0xbdc1a01f	-0.09454369
182	0xbc566f67	-0.013088084
183	0xbdaf510c	-0.0856038
184	0x3cd8e3cc	0.02647581
185	0x3d2ae684	0.041723743
186	0x3c830e98	0.01599817
187	0xbd80b08f	-0.06283676
188	0x3cce4953	0.025181448
189	0x3cbd79a0	0.023129284
190	0xbd2b10b7	-0.041763987
191	0xbd80fc47	-0.06298118
192	0x39c110cc	0.00036824343
193	0xbcf474b2	-0.0298408
194	0xbd99bf95	-0.075072445
195	0x3d8fb96e	0.0701779
196	0xbe0167f3	-0.1263731
197	0xbc9253a6	-0.017862152
198	0x3d0ad06d	0.033890177
199	0xbdb0d2a3	-0.08633926
200	0xbc2b7971	-0.010465966
201	0xbd81be86	-0.063351676
202	0x3d73ad5e	0.059491508
203	0xbd32c458	-0.04364428
204	0xbdd78377	-0.10523122
205	0x3d3fba5d	0.04680859
206	0xbd8b414d	-0.067995645
207	0x3cf54298	0.029938981
208	0x3d073f0f	0.03301912
209	0xbd23aea1	-0.03996146
210	0x3d3c6f53	0.046004605
211	0x3d2ef8db	0.042717796
212	0xbc9c9b4d	-0.019117022
213	0xbd9b5506	-0.07584576
214	0xbd80e230	-0.06293142
215	0x3d5450d9	0.051834915
216	0xbcebc1c5	-0.02877892
217	0x39c88bab	0.00038251033
218	0xbd8816cd	-0.06644974
219	0x3dac4384	0.08411315
220	0xbb8337f9	-0.004004475
221	0x3c3289db	0.010897125
222	0x3da3c558	0.07996625
223	0xbd820db7	-0.06350272
224	0xbd287d4a	-0.04113511
225	0x3bda9758	0.0066708736
226	0xbaa4ce54	-0.0012573698
227	0x3cd8ee61	0.026480855
228	0x3d09527a	0.03352592
229	0x3d6b5640	0.0574553
230	0x3d15069d	0.03638326
231	0xbdaef4cd	-0.08542786
232	0xbd402c45	-0.04691722
233	0x3d0a3658	0.033743232
234	0xbd62347b	-0.05522583
235	0x3b5bc4b2	0.0033533988
236	0xbd84c74c	-0.06483325
237	0xbdd1e058	-0.10247868
238	0xbd6fd972	-0.05855698
239	0x3d15028f	0.036379393
240	0x3c1c2aaa	0.009531656
241	0x3e053dbd	0.13011833
242	0x3d6cb650	0.057791054
243	0x3c92327c	0.017846338
244	0xbde588a1	-0.112077005
245	0x3d6d01a3	0.05786289
246	0xbd89c269	-0.06726534
247	0x3d3c0b47	0.045909192
248	0xbc885fa1	-0.016647162
249	0xbc0ceb95	-0.008601089
250	0xbd4a8a40	-0.04944825
251	0x3e1e6fa8	0.15472281
252	0xbcfafc46	-0.030637871
253	0x3e3cbbd7	0.1843103
254	0xbe3d8db3	-0.18511085
255	0x3c96cdf7	0.018408759

network.2.bias f4 [84]
0	0x3dd9236a	0.10602458
1	0xbd4db489	-0.050221
2	0x3be31dca	0.0069310414
3	0xbda6e149	-0.081484385
4	0xbdb7bc02	-0.089714065
5	0xbda5969b	-0.08085366
6	0xbd907542	-0.07053615
7	0x3cfdda07	0.030987753
8	0x3db91374	0.090369135
9	0x3b4c313f	0.0031157283
10	0xbd31f13a	-0.043442942
11	0xbdd813b4	-0.10550633
12	0xbdbbe7ef	-0.09175097
13	0x3e7d9b5b	0.24766295
14	0x3ddbf497	0.10740011
15	0xbd65cb52	-0.056102104
16	0x3e03aded	0.12859316
17	0xbdd3c1e6	-0.103397176
18	0xbdf9bf86	-0.12194733
19	0x3debf68b	0.11521634
20	0xbdff656c	-0.124705166
21	0x3e0a842b	0.1352698
22	0xbe0b80c9	-0.13623346
23	0x3dc0681f	0.093948595
24	0x3dae605f	0.08514475
25	0x3d2e991b	0.04262648
26	0x3d9b8933	0.07594528
27	0x3dfd07f7	0.12355035
28	0xbceec653	-0.029147303
29	0x3daba09f	0.083802454
30	0x3ca704f3	0.020388102
31	0x3da5faa4	0.081044465
32	0x3de2d78d	0.11076269
33	0xbe03182b	-0.12802188
34	0x3ddc69be	0.10762356
35	0x3e556aed	0.2084157
36	0xbe0476e1	-0.12935974
37	0xbe111bbe	-0.14170739
38	0x3e13984e	0.14413568
39	0xbdd61a4e	-0.10454236
40	0x3d9b3eae	0.075803146
41	0x3dd0fa54	0.10203996
42	0x3e085e75	0.13317282
43	0xbd917d1a	-0.07103939
44	0x3d61bdaa	0.05511252
45	0xbcd35ae2	-0.025800172
46	0x3dfdc273	0.12390604
47	0xbd67cf04	-0.05659391
48	0xbdfeaf2a	-0.12435754
49	0x3dfc6346	0.123236224
50	0x3d9abaf4	0.0755519
51	0xbdeeb528	-0.116556466
52	0x3e0c5774	0.13705236
53	0x3bcf506d	0.006326726
54	0xbd454f71	-0.048171464
55	0xbd9cc59e	-0.0765488
56	0x3e319a00	0.17343903
57	0x3e306051	0.17224242
58	0x3dcaa6db	0.098951064
59	0xbd6feb81	-0.058574203
60	0xbd890b70	-0.06691635
61	0xbddd0357	-0.10791653
62	0x3d94d68d	0.07267485
63	0xbd925e5d	-0.071469046
64	0xbd961f53	-0.07330193
65	0x3de28eed	0.11062417
66	0xbdfae201	-0.12250138
67	0x3d9c78e9	0.07640249
68	0x3dd26cd5	0.10274664
69	0xbd8c9369	-0.06864054
70	0xbdc0b6c6	-0.09409861
71	0x3de177e6	0.11009197
72	0x3e035c65	0.12828214
73	0xbddd5702	-0.10807611
74	0xbc29edd0	-0.01037164
75	0xbb1b3b0d	-0.002368632
76	0x3de1dfd2	0.110290185
77	0xbdc6b239	-0.09701962
78	0xbdaef662	-0.085430875
79	0xbe035fe4	-0.12829548
80	0x3e0bfd5d	0.13670869
81	0xbdba70e9	-0.09103567
82	0x3dbc5f7d	0.091979004
83	0xbe1202b9	-0.14258851

network.4.weight f4 [21, 84]
0	0x3db49471	0.088173755
1	0x3d6aa28b	0.05728392
2	0xbe918309	-0.28420284
3	0xbcb722af	-0.022355406
4	0x3d36a47b	0.044590455
5	0xbc73b8ff	-0.0148756495
6	0xbd3fae0f	-0.046796855
7	0xbd0561ed	-0.032564092
8	0x3e2139cd	0.15744705
9	0x3d36e8b0	0.0446555
10	0xbde52365	-0.111883916
11	0x3d64410a	0.05572609
12	0xbca4906a	-0.020088393
13	0x3da1b407	0.078956656
14	0x3bfdb408	0.0077424087
15	0x3d23f4af	0.04002827
16	0xbd3cd148	-0.046098024
17	0xbda49c48	-0.08037621
18	0xbd2fddec	-0.04293625
19	0x3da36c83	0.07979681
20	0xbd079e47	-0.03310993
21	0x3cb878f6	0.022518616
22	0xbbd79556	-0.0065790815
23	0x3d5158b2	0.051109977
24	0x3e00bfa3	0.12573104
25	0xbd85b112	-0.06527914
26	0xbd02d479	-0.03194091
27	0xbdb89986	-0.09013657
28	0xbdb1f96e	-0.08690153
29	0xbda1ee3e	-0.07906769
30	0x3e5e4412	0.21705654
31	0xbc9ab057	-0.018882914
32	0xbc35245f	-0.011056035
33	0xbd231b3f	-0.039820906
34	0x3e557604	0.208458
35	0x3e498ce9	0.19682659
36	0x3e11303c	0.14178556
37	0xbd61e605	-0.055151004
38	0xbc81c919	-0.015842961
39	0xbcc2dedb	-0.023787906
40	0x3d32f6e1	0.043692473
41	0x3e4d3b49	0.20042147
42	0x3d25dfaa	0.040496506
43	0xbdf8cdd9	-0.12148637
44	0x3e3cd38f	0.18440078
45	0x3c641a71	0.01392232
46	0x3e960d9e	0.29307264
47	0xbbbb471c	-0.005715264
48	0xbd5543cb	-0.052066606
49	0xbe29c869	-0.16580357
50	0xbdb8749b	-0.09006616
51	0x3bd35282	0.0064490447
52	0xbb89d245	-0.0042059743
53	0xbe16b865	-0.14718778
54	0xbda13e69	-0.07873232
55	0xbc5c5cc1	-0.013449849
56	0xbe2f399e	-0.17111823
57	0x3c0c8de7	0.008578754
58	0x3d9abb74	0.07555285
59	0xbd11856a	-0.035527624
60	0xbd92cad6	-0.07167594
61	0x3da09936	0.07841723
62	0x3dcdcd11	0.10048879
63	0xbd5fb912	-0.054619856
64	0x3cf93953	0.030422842
65	0xbc6a0c37	-0.014285139
66	0xbe175a8a	-0.14780632
67	0x3e06eb11	0.13175608
68	0x3d808ae2	0.0627649
69	0xbd16b555	-0.036794025
70	0xbdc96b8a	-0.098349646
71	0x3da18e84	0.07888511
72	0x3d85b24b	0.06528147
73	0x3d03f5b3	0.03221674
74	0xbc459a2c	-0.012060683
75	0x3de279f3	0.11058416
76	0xbd1038d4	-0.035210446
77	0xbc21efe4	-0.009883855
78	0xbb225a46	-0.0024773045
79	0x3d3bf921	0.045891885
80	0x3e2737b9	0.1632985
81	0xbdd9be43	-0.10631993
82	0xbd3e345b	-0.04643665
83	0xbdf93934	-0.12169114
84	0x3c05cabd	0.008166012
85	0xbd9702c6	-0.07373576
86	0xbe45a563	-0.19301371
87	0xbced3749	-0.028957026
88	0x3ca0ee73	0.019644951
89	0x3d3a7791	0.045524184
90	0xbd834ef9	-0.06411547
91	0xbc9cc807	-0.01913835
92	0x3c695d54	0.014243443
93	0xbcd3c6d9	-0.025851654
94	0xbd41fa19	-0.047357652
95	0xbda57610	-0.08079159
96	0xbd3b4da3	-0.045728337
97	0x3e1ad13a	0.15118876
98	0x3dcadd77	0.09905522
99	0x3bff567a	0.007792291
100	0x3dcdd0af	0.10049569
101	0x3d5fe425	0.054660935
102	0xbd6d801d	-0.057983506
103	0xbd1285a0	-0.035771966
104	0x3c879965	0.016552636
105	0x3d622f91	0.055221144
106	0x3ceccbd7	0.028905792
107	0xbd8b89a0	-0.06813359
108	0x3d9b0561	0.07569385
109	0xbe039f81	-0.12853815
110	0xbc4dae5e	-0.012553779
111	0xbc2fff17	-0.0107419705
112	0xbc926ace	-0.017873194
113	0xbdad506e	-0.08462606
114	0x3e360929	0.17776932
115	0x3c86f6c8	0.016475096
116	0xbc17f628	-0.009274997
117	0x3c778bf7	0.015109054
118	0x3e5c1001	0.2149048
119	0x3e3361d3	0.17517786
120	0x3da2e5fc	0.07954022
121	0xbe014f52	-0.12627915
122	0x3d67fe65	0.056639094
123	0xbcc183ef	-0.023622481
124	0xbcb5381c	-0.022121482
125	0x3c68591a	0.0141814
126	0x3c985557	0.01859538
127	0xbe139678	-0.14412868
128	0xbd836687	-0.0641604
129	0x3cbaa2eb	0.022782763
130	0x3e3c21cb	0.18372266
131	0x3cbf8aef	0.023381678
132	0xbcd237a3	-0.025661295
133	0xbd53068d	-0.05151992
134	0x3e2c2615	0.16811402
135	0xbd37917f	-0.04481649
136	0x3dca92b2	0.09891261
137	0x3d831264	0.06399992
138	0xbd2ba8bf	-0.041908976
139	0xbd134925	-0.035958428
140	0xbdbd6c5a	-0.09249182
141	0x3d9c1838	0.07621807
142	0xbdcf5f86	-0.101256415
143	0xbd840f94	-0.06448284
144	0xbbcdd619	-0.006281626
145	0xbd105a00	-0.03524208
146	0x3d0d3431	0.0344736
147	0xbe0bba5b	-0.13645308
148	0xbdc9c08d	-0.09851179
149	0xbd3826a2	-0.044958718
150	0x3c77114c	0.0150798075
151	0xbbfbe9c7	-0.0076877805
152	0xbd1fb4da	-0.038990833
153	0x3dc2e359	0.095160194
154	0xbdb3b281	-0.08774281
155	0x3d9b9d5e	0.07598375
156	0x3d7aa183	0.061189186
157	0x3d2281cc	0.039674565
158	0x3e1c06e5	0.15237005
159	0xbdcce2b8	-0.10004181
160	0x3dd7cfb5	0.10537664
161	0x3d619f2c	0.05508344
162	0x3d89be72	0.06725778
163	0xbd594c3d	-0.053051222
164	0xbd0416b7	-0.032248225
165	0xbc882139	-0.016617404
166	0x3d7cd40f	0.061725672
167	0xbdd57479	-0.10422606
168	0x3e35aa2b	0.17740695
169	0xbd7ab3da	-0.061206676
170	0xbd8e9371	-0.06961716
171	0x3d070728	0.03296581
172	0x3d6e811f	0.05822861
173	0x3d6ddb42	0.05807043
174	0x3d1ca2dd	0.038241256
175	0xbc633183	-0.013866785
176	0x3d512388	0.051059276
177	0x3c8292d4	0.015939154
178	0x3d29e006	0.04147341
179	0x3d7c0b25	0.061534066
180	0xbd85bfaa	-0.06530698
181	0x3e335d1e	0.1751599
182	0x3dd5b06c	0.104340404
183	0x3d178f15	0.037001688
184	0x3ce456c4	0.027873404
185	0xbc830e78	-0.01599811
186	0xbd758a79	-0.05994651
187	0x39da3deb	0.00041626333
188	0xbcb1a441	-0.021684768
189	0x3dcb9eab	0.09942373
190	0xbdfa8574	-0.122324854
191	0xbd55bba9	-0.05218092
192	0x3db2f2f8	0.08737749
193	0xbdf44537	-0.11927264
194	0xbd5235c9	-0.051320825
195	0x3d493c2b	0.049129646
196	0xbc841eca	-0.016127963
197	0x3d7f32f1	0.06230444
198	0x3dc0a32e	0.09406124
199	0xbc46b1d2	-0.012127357
200	0xbd4d9e12	-0.050199576
201	0x3cf53b58	0.029935524
202	0x3e184e6f	0.1487367
203	0x3dcfcc65	0.10146407
204	0xbd35d3bf	-0.04439139
205	0x3dd72647	0.10505348
206	0x3c1fa2b7	0.009743384
207	0xbd4023e9	-0.046909247
208	0xbd39a567	-0.045323756
209	0x3e10bed0	0.14135289
210	0x3d09b960	0.033624053
211	0xbdccf56d	-0.10007749
212	0xbde359bc	-0.111011
213	0x3d8f723a	0.07004209
214	0x3e6b466c	0.22976083
215	0xbcbfcbf1	-0.023412677
216	0xbe54c7fd	-0.20779414
217	0xbba8693b	-0.0051394976
218	0xbc0e9b9b	-0.008704091
219	0xbba40895	-0.005005906
220	0x3ce0ecac	0.027456604
221	0xbd0bcbbd	-0.034129847
222	0xbda89703	-0.08231928
223	0x3d9a5a16	0.07536714
224	0xbe3f70a6	-0.18695316
225	0x3b03fd60	0.0020140037
226	0x3d6ef71c	0.05834113
227	0xbdf1b5fb	-0.11802288
228	0x3dda98c7	0.10673671
229	0xbd26df24	-0.040740147
230	0x3d191e2c	0.03738229
231	0xbda6d157	-0.08145397
232	0x3d9e5f53	0.077330254
233	0x3db63d3f	0.088984005
234	0x3e24d856	0.1609815
235	0x3d140f5d	0.036147464
236	0x3d254a29	0.040353928
237	0xbc84388b	-0.016140243
238	0x3d496d22	0.049176343
239	0x3d44d097	0.04805049
240	0x3a9d6209	0.0012007366
241	0x3b0b6ad9	0.0021273403
242	0xbd18b0ff	-0.03727817
243	0x3d8c6c30	0.06856573
244	0xbbe4b5d3	-0.006979683
245	0xbd59d19d	-0.05317842
246	0xbdb966fd	-0.090528466
247	0xbd5a4d17	-0.053296175
248	0x3e0f1048	0.13971055
249	0xbcea528e	-0.028603818
250	0xbcadf13e	-0.021233197
251	0xbd4825f3	-0.048864316
252	0x3e6c2748	0.2306186
253	0xbd8768ff	-0.06611823
254	0x3e0f65e8	0.14003718
255	0xbd095c3c	-0.033535227

network.4.bias f4 [21]
0	0x3df75491	0.12076677
1	0x3d90f234	0.070774466
2	0x3de83092	0.11337389
3	0x3e09fb1d	0.13474698
4	0x3dcd09d8	0.10011643
5	0x3defcb85	0.1170874
6	0x3e0bc19b	0.13648073
7	0x3e24fddd	0.16112466
8	0x3e324a88	0.17411244
9	0x3e282ed7	0.16424118
10	0x3e0ddbf1	0.13853432
11	0x3e49d9d3	0.19712
12	0x3e2eb529	0.17061295
13	0x3de75dd3	0.112971924
14	0x3daf1b03	0.08550074
15	0x3d81e546	0.063425586
16	0x3e0c5a43	0.13706307
17	0x3d72bf12	0.05926425
18	0x3dbf3527	0.0933631
19	0x3d5e957b	0.054341774
20	0x3dbdc501	0.09266091
