model/state_dict/my_random4.pt (torch, 248354 bytes, 10 tensors)

cnn.0.weight f4 [5, 5, 3, 3]
0	0xbd33e704	-0.043921486
1	0xbb128d24	-0.0022361958
2	0xbc6cc564	-0.0144513585
3	0xbcbf69d7	-0.023365898
4	0xbde8ca59	-0.1136672
5	0xbe19621c	-0.14978832
6	0xbdd897bc	-0.10575816
7	0xbd205abd	-0.039149035
8	0xbd3e07cc	-0.046394154
9	0x3caa813b	0.020813575
10	0xbe5f4f68	-0.21807635
11	0x3d1b4516	0.037907682
12	0xbc2b84f9	-0.010468715
13	0x3cb2b8d2	0.021816645
14	0xbbfae33b	-0.0076564825
15	0xbdf9f2c6	-0.122045085
16	0x3c0afb11	0.00848271
17	0xbca9e8c8	-0.020740882
18	0x3e2b5405	0.1673127
19	0xbd9f08c0	-0.07765341
20	0xbe4544d4	-0.19264537
21	0x3d32c36c	0.0436434
22	0x3bef1513	0.0072962134
23	0xbd863d49	-0.06554658
24	0x3d8a2e00	0.06747055
25	0x3dc7379f	0.09727406
26	0xbb8fefb9	-0.004392591
27	0x3c51da67	0.012808419
28	0x3dc544f8	0.09632295
29	0x3eb2b78e	0.34905666
30	0xbd9ec769	-0.07752878
31	0xbddb00bc	-0.106934994
32	0xbe985df4	-0.2975918
33	0xbd411abb	-0.047144633
34	0xbc86a3dd	-0.016435558
35	0xbe4bea43	-0.19913583
36	0x3dafdc47	0.085869364
37	0xbdd1c750	-0.10243094
38	0xbe92567d	-0.2858161
39	0x3cc8b2e1	0.024499359
40	0x3dade294	0.08490482
41	0xbe7584fa	-0.23976508
42	0xbde60bbe	-0.112327084
43	0x3d1b7897	0.0379568
44	0xbce98092	-0.02850369
45	0xbc738d78	-0.014865272
46	0x3c565b43	0.013083282
47	0x3c888bf1	0.016668292
48	0x3cc43c86	0.023954641
49	0xbd275719	-0.040854547
50	0x3cf9b26e	0.03048059
51	0xbcdcb770	-0.026942939
52	0x3d961c6c	0.0732964
53	0xbd4cb994	-0.04998167
54	0x3dc12beb	0.09432205
55	0x3c4cd0b0	0.012500927
56	0x3c335ab2	0.010946916
57	0x3d988379	0.074469514
58	0x3d44fabd	0.048090685
59	0x3e1f4e25	0.15557154
60	0xbd04846b	-0.032352846
61	0x3d8944b9	0.06702561
62	0x3d5442d1	0.051821534
63	0x3d3603dc	0.044437274
64	0x3db79065	0.08963088
65	0x3cfafa2f	0.030636875
66	0x3c0ce35f	0.008599131
67	0x3dbf04bf	0.09327077
68	0xbdf97bb1	-0.121817954
69	0x3de1807b	0.11010834
70	0x3d82260b	0.06354912
71	0xbb84e6b2	-0.0040558213
72	0xbebd68e5	-0.3699409
73	0xbebe5865	-0.37176815
74	0xbe998e23	-0.29991254
75	0xbeb31b24	-0.34981644
76	0xbe450450	-0.19239926
77	0xbeb42293	-0.35182628
78	0xbe8a048b	-0.2695659
79	0x3e1ca893	0.15298681
80	0xbea8bea4	-0.32957947
81	0xbeda435e	-0.42629522
82	0xbe7fdb24	-0.2498594
83	0xbee76d90	-0.45200777
84	0xbf05184b	-0.51990193
85	0x3e3852f4	0.18000394
86	0xbe4f963d	-0.20272155
87	0x3dbaa89f	0.09114193
88	0xbe9f111a	-0.31067735
89	0xbe93fae5	-0.28902355
90	0x3c626be4	0.013819668
91	0x3dc03d51	0.09386695
92	0xbe5975c0	-0.21236324
93	0xbd78762f	-0.060659584
94	0x3d8e9f1a	0.0696394
95	0xbd692f05	-0.056929607
96	0x3caaaab8	0.020833358
97	0xbe0633d9	-0.13105716
98	0x3da00464	0.078133374
99	0x3ca3d5d5	0.019999424
100	0x3dba66b7	0.091016226
101	0xbdd440d8	-0.103639305
102	0x3d102a68	0.03519669
103	0x3d1631e4	0.036668673
104	0xbc7ca3f8	-0.015419953
105	0xbd77d92a	-0.06050984
106	0x3cc978ed	0.024593795
107	0x3dc6e8ef	0.09712397
108	0xbd0dc2e1	-0.03460968
109	0xbda1f25d	-0.07907555
110	0xbe2feb07	-0.171795
111	0x3cd2885f	0.025699792
112	0x3cbe2837	0.023212535
113	0x3d4c3b24	0.04986109
114	0x3d00a72e	0.031409435
115	0x3d0c2c34	0.034221843
116	0xbd86f5c0	-0.06589842
117	0x3db319ce	0.08745156
118	0x3e19d05a	0.15020886
119	0x3f256483	0.64606494
120	0xbdab464d	-0.08363018
121	0xbd1fc7f6	-0.039009057
122	0xbe0b69be	-0.13614556
123	0x3db52e95	0.088467754
124	0xbd413a14	-0.04717453
125	0x3d670078	0.05639693
126	0xbe0c23ac	-0.13685483
127	0xbdc45aa0	-0.09587598
128	0xbedb1e80	-0.42796707
129	0x3d45d07d	0.048294533
130	0x3d1006fa	0.035162903
131	0x3d13910c	0.036027
132	0xbdac0d6c	-0.084009975
133	0xbda9bff7	-0.082885675
134	0xbdc3d461	-0.095619924
135	0x3ceb3a3b	0.02871429
136	0xbd2dfeb7	-0.042479243
137	0x3c75100a	0.014957437
138	0x3c5b9292	0.013401644
139	0xbc2f6589	-0.01070536
140	0xba586ba6	-0.0008255787
141	0xbcf91ce7	-0.03040929
142	0x3d4f898a	0.050668277
143	0xbb7ecf0f	-0.003888074
144	0xbcf12b4e	-0.029439595
145	0x3c5cc274	0.013474096
146	0xbd19b94e	-0.037530236
147	0xbe271b05	-0.16318901
148	0xbdadf3e8	-0.08493787
149	0x3d71d664	0.05904235
150	0xbae41a29	-0.0017402816
151	0xbe12205e	-0.1427016
152	0xbd2047f9	-0.03913114
153	0x3c163770	0.009168491
154	0xbe53f15b	-0.20697539
155	0x3d737ece	0.059447102
156	0x3ce59a89	0.02802779
157	0xbdc7ce05	-0.09756092
158	0xbe35994a	-0.17734256
159	0xbe3bc9cb	-0.18338697
160	0xbc833ef8	-0.016021237
161	0xbdc40966	-0.09572105
162	0x3e19a116	0.15002856
163	0x3eb5fe3b	0.35545525
164	0x3eb9e574	0.3630787
165	0x3edb394e	0.42817158
166	0xbd80e4b5	-0.062936224
167	0x3c0e5e23	0.008689436
168	0xbd711960	-0.05886209
169	0x3de3d2aa	0.11124165
170	0xbcca8db9	-0.024725782
171	0xbe562746	-0.20913419
172	0xbecc56ed	-0.3991007
173	0xbf00904f	-0.502202
174	0xbf013109	-0.50465447
175	0xbcd2e600	-0.025744438
176	0x3d715133	0.05891533
177	0x3d38e730	0.045142353
178	0xbde606ce	-0.11231767
179	0x3dd22642	0.10261203
180	0x3b387d98	0.0028151032
181	0xbd8a0f55	-0.067412056
182	0x3d4a630b	0.04941086
183	0xbcd75736	-0.026286703
184	0x3e252ee0	0.16131163
185	0xbdf6d97b	-0.120532
186	0x3d49ac01	0.0492363
187	0xbdaa9364	-0.08328894
188	0xbc445da0	-0.011985213
189	0x3cee7fb7	0.029113634
190	0xbe1d4812	-0.15359524
191	0xbc869e0d	-0.016432786
192	0xbb98746a	-0.0046525495
193	0xbda5fbf0	-0.08104694
194	0xbd1db7da	-0.038505413
195	0xbcafd009	-0.021461504
196	0xbdf74f7f	-0.120757096
197	0xbd578149	-0.05261353
198	0xbe0cc13f	-0.13745593
199	0x3c611588	0.013738044
200	0xbe2ebab8	-0.17063415
201	0xbd280a69	-0.041025553
202	0xbc297d6d	-0.010344845
203	0xbda0cf25	-0.0785201
204	0xbca23ca4	-0.019804306
205	0x3d139248	0.036028177
206	0xbd1a202e	-0.037628345
207	0x3df3b723	0.11900165
208	0xbd85d1de	-0.065341696
209	0x3f14fa21	0.58194166
210	0xbd277e26	-0.04089179
211	0x3ea8eb97	0.3299224
212	0x3e525204	0.20539099
213	0xbde43745	-0.11143354
214	0x3e4ac293	0.19800787
215	0x3e6e64b0	0.23280597
216	0xbd73695e	-0.059426658
217	0xbc36df9b	-0.01116171
218	0xbec28387	-0.37990972
219	0x3e178e09	0.14800276
220	0xbef7eccd	-0.48422852
221	0xbebb1ec9	-0.36546925
222	0x3d26d2d4	0.040728405
223	0xbd51880c	-0.051155135
224	0xbe16e55d	-0.14735933

cnn.0.bias f4 [5]
0	0xbe441943	-0.19150262
1	0x3def7609	0.11692435
2	0x3c999cc7	0.018751515
3	0xbc9868a6	-0.018604588
4	0x3cf90677	0.03039859

cnn.2.weight f4 [5, 5, 3, 3]
0	0xbcbc6947	-0.022999419
1	0xbdb1a57d	-0.086741425
2	0x3e32a99e	0.17447516
3	0x3d727285	0.059191246
4	0xbddcdcc3	-0.107842945
5	0x3a86d93d	0.0010288131
6	0xbd5fe001	-0.054656986
7	0x3c6e4864	0.014543626
8	0xbc8dd62d	-0.017314041
9	0xbe2ab661	-0.16671135
10	0x3dff39e3	0.12462213
11	0xbe4ed298	-0.20197523
12	0xbdb7c452	-0.08972992
13	0x3c0beb78	0.008540027
14	0x3dad4eb2	0.084622756
15	0xbda5783e	-0.08079575
16	0xbd772870	-0.0603413
17	0x3cac761f	0.021052418
18	0xbe1b3eb2	-0.15160635
19	0x3cab7b8c	0.020932935
20	0x3f0f952c	0.56086993
21	0x3d06e6cf	0.03293496
22	0x3db0db21	0.086355455
23	0xbde09503	-0.10965922
24	0xbd38f282	-0.04515315
25	0xbcf63e04	-0.030058868
26	0x3c8ee841	0.017444732
27	0xbc5d40a1	-0.013504178
28	0xbe7928ff	-0.24332045
29	0x3f01a9dd	0.50649816
30	0x3d520beb	0.051280897
31	0xbe30047b	-0.17189209
32	0xbc6a7a63	-0.014311406
33	0xbd936299	-0.071965404
34	0x3d920253	0.071293496
35	0xbd8ec446	-0.0697103
36	0x3b84f38c	0.0040573534
37	0xbe383d36	-0.179921
38	0x3eb79304	0.35854352
39	0xbdab3c89	-0.083611555
40	0xbe08854b	-0.13332097
41	0xbd61fd74	-0.055173352
42	0x3b86fca5	0.004119473
43	0xbce99aad	-0.028516138
44	0xbdf9c784	-0.12196258
45	0xbe114f1e	-0.14190337
46	0xbc13f82e	-0.009031339
47	0xbe11510d	-0.14191075
48	0xbd25afc6	-0.040450834
49	0xbd3e1a6c	-0.046411917
50	0xbd872ae9	-0.06599981
51	0xbd4d281d	-0.050087083
52	0xbd362fa5	-0.04447903
53	0x3a19625f	0.0005851145
54	0xbe1f55f0	-0.15560126
55	0x3da26f72	0.07931413
56	0xbe46e871	-0.19424607
57	0xbe0aa62e	-0.13539955
58	0x3d99c910	0.07509053
59	0xbec2b2fe	-0.38027185
60	0xbd3c2630	-0.045934856
61	0xbe0f2c4c	-0.13981742
62	0xbea43cef	-0.3207774
63	0xbb8d289b	-0.004307819
64	0xbdee781e	-0.11644004
65	0x3e10c37e	0.14137074
66	0xbe75fb81	-0.24021722
67	0x3d6001ef	0.054689344
68	0xbe08b0e7	-0.13348733
69	0x3e37ff42	0.17968467
70	0x3c04e9ce	0.008112384
71	0x3e63f081	0.22259714
72	0xbd20e814	-0.039283827
73	0xbcf17d68	-0.029478744
74	0xbdce47c4	-0.10072282
75	0xbd596371	-0.05307335
76	0xbcbab236	-0.022790056
77	0x3eabecf7	0.33579227
78	0x3d9328b0	0.07185495
79	0x3c320031	0.010864303
80	0x3df20c17	0.11818712
81	0xbce88d7a	-0.028387774
82	0x3d968705	0.07349972
83	0x3db40bee	0.08791338
84	0x3e3f0dc2	0.18657592
85	0x3e29be92	0.16576603
86	0xbe1da430	-0.15394664
87	0x3d365363	0.044513118
88	0xbea53cf8	-0.32273078
89	0x3e48cdc4	0.19609743
90	0xbd2ed71a	-0.042685606
91	0x3cc15622	0.023600642
92	0xbd8426c4	-0.064527065
93	0x3dbcbbd5	0.092155136
94	0x3e0aaa21	0.13541462
95	0xbe057e90	-0.13036561
96	0xbdd914bf	-0.1059966
97	0x3a904082	0.0011005553
98	0x3cfff27d	0.031243557
99	0xbdde42d7	-0.108525924
100	0xbceccc5c	-0.02890604
101	0xbe8047fd	-0.25054923
102	0xbcac6af3	-0.021047091
103	0xbdced650	-0.100994706
104	0xbe86d27d	-0.26332465
105	0x3d5acad5	0.053416092
106	0x3c2c6445	0.010521953
107	0x3e1d8ac3	0.15384965
108	0xbd0b3221	-0.033983354
109	0x3e0b267c	0.135889
110	0xbe6ea2bb	-0.23304264
111	0x3e8a6a1c	0.2703408
112	0x3e163536	0.14668736
113	0x3c326a4e	0.010889603
114	0xbe0daefd	-0.13836284
115	0xbd8601b7	-0.06543296
116	0xbd029287	-0.03187802
117	0xbe13be68	-0.14428103
118	0x3e94c6ab	0.29057822
119	0x3ebfd47e	0.37466806
120	0x3e125d6c	0.1429345
121	0x3e986506	0.29764575
122	0x3e3e0f30	0.18560481
123	0xbe946d97	-0.2898986
124	0xbdbedfe1	-0.09320045
125	0xbe4b859f	-0.19875191
126	0x3e42e2e2	0.19031861
127	0x3eb7e557	0.3591716
128	0xbe10bc2b	-0.1413428
129	0x3d9fc24f	0.07800733
130	0xbdcdd91f	-0.10051178
131	0xbe28009f	-0.16406487
132	0xbdf228da	-0.11824198
133	0xbdfdae99	-0.123868175
134	0xbd718690	-0.05896622
135	0x3c8a097b	0.016850224
136	0x3d168294	0.036745623
137	0xbe17f2c7	-0.14838706
138	0x3d1f4856	0.038887344
139	0x3da81150	0.08206427
140	0x3caa5eb6	0.020797115
141	0xbbac8bcf	-0.00526569
142	0xbe402e0f	-0.1876757
143	0x3d0701fd	0.03296088
144	0xbdfc9044	-0.12332204
145	0x3c1cd427	0.009572065
146	0xbc692739	-0.014230543
147	0x3e1d9457	0.15388618
148	0xbe3ff275	-0.18744834
149	0xbd9c35d2	-0.07627453
150	0xbe9457db	-0.28973278
151	0xbe24e51e	-0.16103026
152	0xbd859929	-0.065233536
153	0xbe2d9fbe	-0.16955468
154	0xbc324520	-0.0108807385
155	0xbe533775	-0.20626624
156	0xbe08dc07	-0.13365184
157	0x3e2ad21a	0.1668171
158	0xbd6f9828	-0.058494717
159	0xbe919d98	-0.28440547
160	0xbc8db3e7	-0.017297698
161	0x3d16a9b1	0.036782924
162	0xbde94e37	-0.113918714
163	0x3df2fee9	0.118650265
164	0xbdcbd014	-0.09951797
165	0x3d98ae75	0.0745515
166	0xbcb64413	-0.022249257
167	0xbc863154	-0.016380943
168	0xbda72baf	-0.08162629
169	0x3efae911	0.4900594
170	0xbbfd3841	-0.0077276533
171	0xbe34894d	-0.17630501
172	0xbdcb5355	-0.09928004
173	0xbd0f66f3	-0.03501029
174	0x3d594b13	0.053050112
175	0xbe9bc4ca	-0.30423576
176	0xbbaf568d	-0.005350894
177	0x3e6b6584	0.22987944
178	0xbe97512b	-0.29554114
179	0x3d3e7a2c	0.04650323
180	0xbdb3c74e	-0.08778249
181	0x3cabdd90	0.020979673
182	0xbb70c28f	-0.003673706
183	0x3da0bbfd	0.07848356
184	0xbe143fe7	-0.14477502
185	0x3dcaf43a	0.09909864
186	0x3e2d0e0a	0.16899887
187	0xbe6a7be0	-0.22898817
188	0xbe25ce37	-0.16191946
189	0xbd405603	-0.046957027
190	0xbc4697db	-0.012121166
191	0xbdb6c3a4	-0.08924034
192	0xbcaecbad	-0.021337355
193	0xbd43248d	-0.04764228
194	0x3de851d9	0.11343736
195	0x3d9ea260	0.07745814
196	0xbcd7af10	-0.026328593
197	0xbe64dc3e	-0.2234964
198	0xbe253ed9	-0.16137256
199	0xbd386f7c	-0.045028195
200	0xbe2b2548	-0.1671344
201	0xbbef8243	-0.0073092296
202	0xbd30171b	-0.042990785
203	0x3ec13d43	0.3774205
204	0xbdd699a8	-0.10478526
205	0xbe4674e5	-0.19380529
206	0xbdc83160	-0.097750425
207	0xbcfbbb45	-0.030728946
208	0x3e19008b	0.14941613
209	0xbe7eb90a	-0.24875274
210	0x3e19da89	0.15024771
211	0xbe4de958	-0.20108545
212	0x3e7ddb78	0.24790752
213	0x3d6f1e56	0.05837854
214	0xbe1665c6	-0.14687261
215	0xbed72ba5	-0.42025486
216	0x3dfa98df	0.12236189
217	0xbd911d1c	-0.0708563
218	0x3df73e5c	0.12072441
219	0xbdf4fed9	-0.11962671
220	0x3e1b8bed	0.15190096
221	0x3ec47d52	0.38376862
222	0xbd33de44	-0.04391314
223	0x3df0c4e9	0.11756308
224	0x3e86f72d	0.26360455

cnn.2.bias f4 [5]
0	0xbce3a8f1	-0.027790518
1	0x3d893282	0.06699087
2	0x3c825aa8	0.015912369
3	0x3cdcdb26	0.026959967
4	0xbd78a0ee	-0.06070035

network.0.weight f4 [120, 405]
0	0x3e271a1a	0.1631855
1	0x3e2b76c0	0.16744518
2	0xbdd1334f	-0.102148645
3	0x3e739203	0.23786168
4	0x3c72c6e5	0.014817928
5	0x3e054739	0.1301545
6	0x3d808fae	0.06277405
7	0xbd4591b2	-0.04823465
8	0xbd0c2375	-0.034213502
9	0x3e009513	0.12556867
10	0x3dc81480	0.09769535
11	0x3e1af88b	0.15133874
12	0x3d917281	0.07101918
13	0xbd00d12a	-0.031449474
14	0xbdb0644b	-0.08612879
15	0x3d0edccf	0.03487855
16	0x3d8d6d9f	0.06905674
17	0x3d665ca7	0.056240704
18	0x3dc274a6	0.09494905
19	0x3d736d80	0.0594306
20	0x3e56e379	0.20985211
21	0x3d9db541	0.07700587
22	0x3e33f51c	0.1757397
23	0xbd3e21a8	-0.046418816
24	0xbbbfec3f	-0.00585702
25	0x3db3bc63	0.08776166
26	0xbe1fee3f	-0.15618227
27	0x3df1087f	0.117691986
28	0xbc24fbdd	-0.0100698145
29	0x3e16d55b	0.14729826
30	0x3db1097e	0.086443886
31	0xbd300937	-0.042977538
32	0xbcc4771a	-0.023982573
33	0x3c9f0bab	0.019414743
34	0xbdd8acc3	-0.10579827
35	0x3e095755	0.13412221
36	0x3e593e74	0.2121523
37	0xbdc26056	-0.09491031
38	0x3c811cbd	0.015760774
39	0x3e855500	0.26041412
40	0x3ce029ed	0.027363742
41	0x3e164a92	0.14676884
42	0xbe12f7a7	-0.14352284
43	0xbd3fb093	-0.046799254
44	0x3e0f20fa	0.13977423
45	0x3d293a6e	0.04131549
46	0x3e6b90df	0.23004483
47	0xbd2d7001	-0.042343143
48	0xbe2118cb	-0.15732114
49	0xbd00434d	-0.031314183
50	0xbdbfe3af	-0.09369599
51	0xbc70895e	-0.014681188
52	0xbe1178cd	-0.14206238
53	0x3d913aa6	0.070912644
54	0x3d36ea54	0.044657066
55	0xbd93b7d2	-0.07212795
56	0x3e3af515	0.18257554
57	0xbe057ca0	-0.13035822
58	0x3dbcbe39	0.092159696
59	0xbde35daa	-0.111018494
60	0x3c91390c	0.017727397
61	0x3dcb7237	0.09933894
62	0x3b56f87d	0.003280192
63	0x3e33d0cd	0.1756012
64	0xbe986d67	-0.29770967
65	0xbdbae4fc	-0.091257066
66	0xbe10d3d9	-0.14143313
67	0x3afa55cd	0.0019099057
68	0x3dd9e833	0.106399916
69	0x3c5b7e64	0.013396833
70	0xbdd2d409	-0.10294349
71	0x3d9c3163	0.07626607
72	0x3db22a86	0.08699517
73	0x3e30b4ec	0.17256516
74	0xbd1286ec	-0.035773203
75	0xbcee5535	-0.029093364
76	0x3d07442d	0.033024002
77	0x3ba46d03	0.005017878
78	0xbdc3366c	-0.095318645
79	0xbd2004b5	-0.03906699
80	0x3d3a5f86	0.045501254
81	0xbdf7cfa5	-0.12100152
82	0x3d6aeced	0.057354856
83	0x3cbc4489	0.022981899
84	0xbdb9a18b	-0.09064015
85	0x3d6b3ea2	0.05743278
86	0xbd0973b2	-0.0335576
87	0xbcf8e286	-0.030381452
88	0xbd0c98a5	-0.03432526
89	0xbbbf588a	-0.005839412
90	0x3d4c8096	0.049927317
91	0xbd894be5	-0.06703929
92	0xbd055bc0	-0.032558203
93	0xbd9c11f6	-0.07620613
94	0x3aefdaf3	0.0018299505
95	0xbdf45dd9	-0.119319625
96	0xbe0bc26e	-0.13648388
97	0xbd6b3a27	-0.057428505
98	0x3c2f0e16	0.010684511
99	0xbda523e0	-0.08063483
100	0xbd406de7	-0.04697981
101	0xbd9c5b9a	-0.07634659
102	0xbe90b01a	-0.28259355
103	0xbd88afa3	-0.06674125
104	0x390d844f	0.00013496097
105	0xbddb5add	-0.1071069
106	0x3ce2ddea	0.027693707
107	0xbdf1fc2a	-0.118156746
108	0xbd5697e9	-0.052390967
109	0x3cf2a9ad	0.029621923
110	0xbe81c2b1	-0.2534385
111	0x3cc0d600	0.023539543
112	0xbe1cbccc	-0.15306395
113	0xbe84b51a	-0.2591942
114	0xbe5648f7	-0.20926271
115	0xbe9082d7	-0.28224823
116	0xbc98db2f	-0.018659202
117	0xbdc47748	-0.095930636
118	0x3bfc17c0	0.007693261
119	0x3dcb37a2	0.099227205
120	0xbe5d7539	-0.21626748
121	0xbe751f4d	-0.23937722
122	0xbe84f4fe	-0.25968164
123	0xbe24e54d	-0.16103096
124	0xbe5c32a6	-0.21503696
125	0xbe125935	-0.14291842
126	0xbd2b7f8a	-0.041869678
127	0xbdb064be	-0.08612965
128	0xbe2ece77	-0.17070948
129	0xbea7549b	-0.32681736
130	0xbe4cc8c9	-0.19998468
131	0xbe9740b5	-0.29541555
132	0xbe12f140	-0.14349842
133	0xbdede0b2	-0.11615123
134	0x3ca60236	0.020264726
135	0x3d3186c8	0.043341428
136	0xbdb6f416	-0.089332744
137	0xbdd741d1	-0.105106
138	0xbe4c5537	-0.19954382
139	0xbe55dff9	-0.2088622
140	0xbe124995	-0.14285882
141	0xbe14c4ac	-0.1452815
142	0xbd4cdc48	-0.050014764
143	0xbe382ed9	-0.17986621
144	0x3dc8b8a1	0.0980084
145	0x3c409323	0.01175383
146	0xbdf787ee	-0.120864734
147	0xbd524029	-0.05133072
148	0xbdd05332	-0.10172118
149	0xbcb85091	-0.022499355
150	0xbd9415b8	-0.07230705
151	0xbc4c03cf	-0.01245208
152	0xbdc9a217	-0.09845369
153	0x3d8c7746	0.06858687
154	0xbdfa6dab	-0.12227949
155	0xbdeae0eb	-0.11468681
156	0xbe0a89b8	-0.13529098
157	0xbe0cb721	-0.13741733
158	0xbdbe6478	-0.09296507
159	0xbda5791c	-0.080797404
160	0xbdd21327	-0.10257559
161	0x3e12164d	0.1426632
162	0xbd10f83d	-0.03539299
163	0x3e54bd92	0.2077544
164	0x3e77c4f2	0.24196222
165	0x3dc88e86	0.09792809
166	0x3dae0bdd	0.084983565
167	0x3e055cbf	0.13023661
168	0xbdfe2c50	-0.12410796
169	0xbd2f63c6	-0.04281976
170	0x3d20b993	0.039239477
171	0xbd1c3007	-0.03813174
172	0x3d6a7d89	0.057248626
173	0x3d96c6fb	0.07362171
174	0xbaf1c5f9	-0.0018445841
175	0x3d109a9f	0.03530371
176	0x3cf611e0	0.03003782
177	0x3a11505a	0.00055432844
178	0xbd7aa339	-0.061190818
179	0x3d75293f	0.05985379
180	0x3e5759d1	0.21030356
181	0x3c23fa6a	0.010008434
182	0xbde06c59	-0.10958166
183	0x3d5550c6	0.052078985
184	0x3de2bf78	0.11071676
185	0xbe1a4426	-0.15065059
186	0xbcc3183e	-0.02381527
187	0x3d34b4d7	0.044117775
188	0xbcf582ce	-0.0299696
189	0x3cd3f8fc	0.025875561
190	0x3e340ced	0.17583056
191	0xbddd736c	-0.108130306
192	0x3b7b2dfa	0.0038326965
193	0xbd304bd4	-0.043041065
194	0x3d2b229c	0.041781053
195	0x3d10c465	0.035343546
196	0x3e05e00c	0.13073748
197	0xbddc3b62	-0.10753514
198	0x3cc7785f	0.02434939
199	0xbd91cb6d	-0.071188785
200	0xbc848eea	-0.016181428
201	0xbb17e1bc	-0.002317532
202	0xbe3e1602	-0.18563083
203	0xbe191137	-0.14947973
204	0xbba02f54	-0.0048884545
205	0x3cb6bf64	0.022308059
206	0xbc8f523d	-0.017495269
207	0xbdaa136a	-0.08304484
208	0x3d3e2840	0.046425104
209	0x3e0957c6	0.13412389
210	0xbd76ac27	-0.06022277
211	0xbe84f36a	-0.2596696
212	0xbe122fc2	-0.1427603
213	0xbe1cd487	-0.15315448
214	0xbdbbc2a4	-0.09167984
215	0xbd1dc9d2	-0.03852255
216	0x3e018123	0.12646918
217	0x3d8d82cf	0.069097154
218	0xbd4ef9fa	-0.050531365
219	0xbebf1095	-0.3731734
220	0xbe301553	-0.17195635
221	0xbe25a69b	-0.16176836
222	0xbdb716f2	-0.08939923
223	0x3d53334d	0.051562596
224	0x3e0f553c	0.13997358
225	0x3d7119a8	0.05886236
226	0x3ddeeb24	0.10884693
227	0xbb5380ba	-0.0032272772
228	0xbdb0550a	-0.0860997
229	0xbe1f878c	-0.15579051
230	0xbdcf2734	-0.10114899
231	0xbdfbb8f1	-0.12291134
232	0x3b5e3d26	0.003391096
233	0xbd9bcb62	-0.076071516
234	0x3e102607	0.14077006
235	0x3e2f8c01	0.17143251
236	0x3cb9c0d3	0.022674954
237	0x3d6b6ef5	0.057478864
238	0xb9fce3dd	-0.00048234957
239	0xbc41567a	-0.011800403
240	0x3db154ce	0.08658753
241	0xbddefd41	-0.10888148
242	0xbe02179b	-0.12704317
243	0x3ba03bfd	0.0048899637
244	0x3d90bb43	0.07066967
245	0x3e0c0583	0.13673978
246	0x3d5d2c92	0.053997584
247	0x3d0e9c67	0.034817126
248	0x3c64ce27	0.013965166
249	0x3c98bd61	0.01864499
250	0x3c65db16	0.014029285
251	0xbd6ffc07	-0.05858996
252	0x3d00f716	0.03148564
253	0xbdbb7bfe	-0.09154509
254	0xbd0eff7b	-0.034911614
255	0x3dd9d0ee	0.10635553

network.0.bias f4 [120]
0	0x3e0b9898	0.13632429
1	0x3d954f0f	0.0729047
2	0xbd4e1523	-0.050313126
3	0xbd386559	-0.045018528
4	0xbd54537c	-0.05183743
5	0xbbcb0cb2	-0.0061965818
6	0xbb03cc6e	-0.0020110863
7	0x3e0130ca	0.12616268
8	0x3dbf3cab	0.09337743
9	0xbd635201	-0.055498127
10	0xbdbe26cf	-0.09284746
11	0x3d9642a6	0.07336931
12	0xbdea4782	-0.1143942
13	0x3d563873	0.052299928
14	0xbc8839a4	-0.016629048
15	0x3cdf3b9d	0.027250106
16	0xbd592c77	-0.05302092
17	0x3ddedb90	0.10881722
18	0x3d2d7819	0.042350862
19	0xbe27610f	-0.16345619
20	0x3d3adf07	0.04562285
21	0xbe2b9821	-0.16757251
22	0xbd6a774b	-0.057242673
23	0x3d67a165	0.056550402
24	0xbd8a4562	-0.06751515
25	0x3db1eb67	0.086874776
26	0x3d930cf7	0.07180207
27	0xbc2f7a67	-0.010710335
28	0xbd0ef047	-0.034897115
29	0xbc96052d	-0.018313015
30	0xbc7a85d7	-0.015290699
31	0xbdb6ba98	-0.08922309
32	0x3c650269	0.013977625
33	0x3d6303be	0.05542349
34	0xbbe8373e	-0.0070866635
35	0xbd901603	-0.070354484
36	0xbd807fdd	-0.06274388
37	0xbcfd254f	-0.03090158
38	0xbcab6c76	-0.020925742
39	0x3e28b5bc	0.16475576
40	0x3e0b1e91	0.13585879
41	0xbdabbe09	-0.08385856
42	0xbdb6af28	-0.08920127
43	0xbdc519d3	-0.09624066
44	0x3c806fed	0.01567837
45	0xbd92dd2c	-0.071710914
46	0x3d4ef87c	0.050529942
47	0xbd773af9	-0.060358975
48	0xbe099f32	-0.13439634
49	0xbd43a221	-0.04776204
50	0xbc0c22a9	-0.0085531855
51	0x3d1cc65c	0.038275108
52	0x3de35901	0.111009605
53	0xbe14ae73	-0.14519672
54	0xbdfaf362	-0.12253453
55	0xbe0760f6	-0.13220581
56	0xbdcb52df	-0.09927916
57	0xbd8af217	-0.06784456
58	0xbd8d5aea	-0.06902106
59	0x3d6d62f9	0.057955716
60	0xbd5361b1	-0.051606838
61	0x3ca3c5bd	0.01999175
62	0x3b771df2	0.0037707058
63	0x3c107e9a	0.008819247
64	0xbdcce10d	-0.100038625
65	0x3b84312d	0.0040341825
66	0x3cc122b1	0.023576112
67	0x3d9ada9e	0.07561229
68	0x3e63bee2	0.22240785
69	0xbd7faf75	-0.06242319
70	0xbd94ad80	-0.07259655
71	0xbaac2461	-0.00131334
72	0x3d36448c	0.044498965
73	0xbd8d5ec8	-0.06902844
74	0x3df2b791	0.11851419
75	0xbd8188e5	-0.06324939
76	0xbd87d0dd	-0.066316344
77	0xbb271d7b	-0.002549975
78	0x3dc0a1bb	0.09405848
79	0x374eaf2e	1.2319344e-05
80	0xbd49cca1	-0.049267415
81	0xbd8683f9	-0.065681405
82	0x3e0e8bdd	0.13920541
83	0x3de2bace	0.110707864
84	0xbdb26bf5	-0.087119974
85	0x3be870c1	0.0070935194
86	0x3b544898	0.0032391902
87	0x3d32feef	0.043700155
88	0xbe035fc8	-0.12829506
89	0x3bb2067c	0.005432902
90	0xbdb84e62	-0.08999325
91	0xbde03cd1	-0.109491
92	0xbd049349	-0.032367025
93	0x3d4286d3	0.04749186
94	0x3e095498	0.13411176
95	0xbdd66842	-0.10469104
96	0xbe101e39	-0.14074029
97	0x3d3a7996	0.04552611
98	0xbce1e4c5	-0.027574906
99	0xbd5c717e	-0.053819172
100	0xbda4ae01	-0.08041001
101	0x3d5cce56	0.053907715
102	0x3b2a2407	0.0025961415
103	0xbd0c764a	-0.034292497
104	0xbcfa4260	-0.030549228
105	0xbd79f6a3	-0.061026227
106	0xbdb5d0bc	-0.088777035
107	0xbd9161fa	-0.07098766
108	0x3dde0b62	0.10842015
109	0xbdd5625f	-0.104191534
110	0xbdd2d9eb	-0.10295471
111	0x3cffce77	0.03122638
112	0xbe51a1bd	-0.20471855
113	0xbc9077fe	-0.017635342
114	0xbd8ac026	-0.06774931
115	0xbd938f1f	-0.072050326
116	0x3bf5f8ed	0.007506481
117	0xbd98dccc	-0.07463989
118	0xbd814b35	-0.06313173
119	0x3dec9b68	0.11553079

network.2.weight f4 [84, 120]
0	0xbe80e462	-0.25174242
1	0xbc8db00b	-0.017295858
2	0xbcf79bc0	-0.030225635
3	0xbd976c2c	-0.07393679
4	0x3d9f3dce	0.0777546
5	0xbe2449e9	-0.1604382
6	0xbdb5508c	-0.08853254
7	0xbdc24a33	-0.09486809
8	0xbe562346	-0.20911893
9	0xbd557584	-0.052114025
10	0x3d8b3b1d	0.06798384
11	0xbdc28ccd	-0.09499512
12	0xbcc5a4c8	-0.024126425
13	0x3e4dc87b	0.20096008
14	0x3d2a12ed	0.041521955
15	0xbe360c11	-0.1777804
16	0x3cb82378	0.02247785
17	0x3e4d5b64	0.20054394
18	0xbdabb97c	-0.08384988
19	0xbe0d8ebd	-0.13823982
20	0xbd08781d	-0.033317674
21	0x3e19d056	0.1502088
22	0xbd0c2bf1	-0.034221593
23	0xbc11d5b6	-0.00890105
24	0x3cfdff48	0.031005517
25	0xbe2a9ed1	-0.16662146
26	0xbe00a362	-0.12562326
27	0x3c9c4f93	0.019080913
28	0x3da26846	0.07930045
29	0x3cdfa510	0.027300388
30	0x3d3be102	0.04586888
31	0x3cf0a099	0.029373454
32	0xbea4500b	-0.32092318
33	0x3d64741f	0.055774804
34	0xbdda877a	-0.10670371
35	0xbcf1eecd	-0.029532814
36	0x3b7639fe	0.0037571187
37	0xbe1cddce	-0.15318987
38	0xbd38cdba	-0.04511807
39	0xbd6130f7	-0.054978337
40	0x3dbb4906	0.091447875
41	0xbcd45700	-0.025920391
42	0xbcaafcf5	-0.020872572
43	0x3a8c514c	0.0010705381
44	0x3d3ecd7b	0.04658268
45	0xbd6c1e98	-0.057646364
46	0xbddcd055	-0.10781924
47	0xbd284fbc	-0.041091666
48	0x3ca84a59	0.020543264
49	0x3bcbcd84	0.0062195677
50	0xbdba073b	-0.0908341
51	0xbd1f58d7	-0.038903084
52	0xbdb15198	-0.08658141
53	0x3ca3279e	0.019916352
54	0xbdb3f6c5	-0.08787302
55	0x3cba11ca	0.02271356
56	0xbe076d6d	-0.13225336
57	0x3d9719b2	0.07377948
58	0xbcf724c2	-0.030168895
59	0x3ca86391	0.02055529
60	0xbcba8a6f	-0.022771088
61	0xbd91a127	-0.071108155
62	0x3e21f7a0	0.15817118
63	0xbca2f147	-0.01989044
64	0x3d6696bb	0.05629609
65	0x3d675b42	0.056483515
66	0xbe8daa27	-0.27668878
67	0xbd21a56c	-0.0394644
68	0x3e3f51c5	0.18683536
69	0xbcb24dba	-0.021765579
70	0xbe0bd499	-0.13655318
71	0x3dd4d34f	0.103918664
72	0x3dd1f9ba	0.1025271
73	0xbd8b1fe3	-0.06793191
74	0xbbcc2cc4	-0.0062309224
75	0x3c82cc61	0.015966596
76	0x3cae5096	0.02127866
77	0xbcdcaa9b	-0.02693682
78	0xbc7da69d	-0.015481618
79	0x3daf89c6	0.085712
80	0xbd15c1e5	-0.036561865
81	0xbd87e997	-0.066363506
82	0x3d290c39	0.041271422
83	0xbe167403	-0.14692692
84	0xbd3033a2	-0.04301799
85	0xbe247805	-0.16061409
86	0xbdc181ac	-0.09448561
87	0x3e745663	0.23861079
88	0xbcb5b2a5	-0.02217991
89	0x3c00ae72	0.007854091
90	0xbd9f66c3	-0.07783272
91	0xbdbebb94	-0.093131214
92	0xbdb5dd2d	-0.088800766
93	0x3e23971c	0.15975612
94	0xbe914bc9	-0.28378132
95	0xbdd6b260	-0.10483241
96	0x3de0eafa	0.10982318
97	0x3de35a81	0.111012466
98	0x3e4f7acd	0.20261689
99	0xbcb3847f	-0.021913765
100	0x3d8780bc	0.06616351
101	0x3d1ed759	0.03877959
102	0xbdb426aa	-0.08796437
103	0x3c8fb25b	0.017541101
104	0xbc9ed4ae	-0.019388523
105	0x3b8b0778	0.0042428337
106	0x3c355a69	0.011068919
107	0x3d7cfaf9	0.061762784
108	0xbe23b1d3	-0.15985803
109	0xbd23a14a	-0.03994874
110	0x3c82e464	0.015978046
111	0x3dcd8e83	0.100369476
112	0x3c6739eb	0.01411293
113	0x3d54e981	0.0519805
114	0xbdef050f	-0.11670887
115	0xbdfcc217	-0.12341707
116	0xbe82cb5e	-0.25545782
117	0xbd6d5129	-0.05793873
118	0x3cf17965	0.02947683
119	0x3d592621	0.05301488
120	0x3e08f5e0	0.13375044
121	0x3c08532a	0.008320609
122	0x3d263f50	0.040587723
123	0xbc1a794b	-0.009428333
124	0x3b6acf74	0.0035829218
125	0xbd17e396	-0.037082277
126	0xbcb2dfb6	-0.02183519
127	0xbe0d8945	-0.13821895
128	0xbd79b861	-0.060966853
129	0x3cefd559	0.029276537
130	0x3ca5ec34	0.020254232
131	0x3c7d2d21	0.015452654
132	0xbb7c0f32	-0.0038461206
133	0xbd287956	-0.04113134
134	0xbbeac15e	-0.0071641644
135	0xbd40c64e	-0.047064118
136	0xbcffffeb	-0.03124996
137	0x3d6e4ab1	0.0581767
138	0xbc3f5022	-0.01167682
139	0xbd85a6b4	-0.06525937
140	0x3ca615e5	0.020274112
141	0x3e0fbae2	0.14036134
142	0x3d78fc2c	0.060787365
143	0xbdccf670	-0.10007942
144	0xbd8fc951	-0.0702082
145	0xbc8d50de	-0.017250475
146	0x3cbe35b6	0.02321897
147	0xbd4e20b2	-0.05032415
148	0xbc1c014b	-0.009521793
149	0xbc1da4f7	-0.00962185
150	0x3aea0eec	0.001785723
151	0x3d252180	0.04031515
152	0x3bfe3c71	0.00775867
153	0xbd1a75d5	-0.03771003
154	0xbd5d7a3e	-0.054071657
155	0xbcff25a6	-0.031145882
156	0xbd0e4a8d	-0.034739066
157	0xbd23d515	-0.039998133
158	0xbdf7bde8	-0.120967686
159	0x3dd5ac0d	0.10433207
160	0xbdea497a	-0.11439796
161	0x3d9574c5	0.07297663
162	0xbda8ae4f	-0.08236372
163	0x3cdcdaf1	0.026959868
164	0x3d6995ed	0.057027746
165	0x3da9efdd	0.082977034
166	0xbcb7491c	-0.022373728
167	0xbcbb4cd7	-0.022863789
168	0x3ca23138	0.01979886
169	0xbd2509de	-0.040292613
170	0xbdb8f367	-0.090308
171	0xbe1e61f6	-0.15467057
172	0xbd14c380	-0.036319256
173	0xbe04e2a5	-0.12977083
174	0xbdeaeb0e	-0.114706144
175	0xbccf483a	-0.025302995
176	0xbde24290	-0.11047852
177	0xbdb6aa65	-0.08919219
178	0xbd89326b	-0.066990696
179	0x3e20dc06	0.15708932
180	0xbe059e34	-0.13048631
181	0xbd4b2642	-0.049597032
182	0x3dabe32d	0.0839294
183	0xbd8ac23a	-0.06775327
184	0xbe002d64	-0.12517315
185	0xbafa6985	-0.0019104934
186	0xbd139bba	-0.036037184
187	0x3d9d359f	0.07676243
188	0x3d8bb466	0.06821518
189	0xbd49b895	-0.049248297
190	0xbdd51fa1	-0.10406423
191	0xbd6fc882	-0.05854083
192	0xbd829818	-0.06376666
193	0x3d3a8945	0.045541067
194	0x3da5356a	0.080668285
195	0x3c875e85	0.016524563
196	0x3de87cea	0.113519505
197	0x3cb5218f	0.022110729
198	0x3cf17ef1	0.029479476
199	0xbdcd3530	-0.1001991
200	0x3d999183	0.07498457
201	0x3ca48851	0.020084532
202	0x3e1c8651	0.15285613
203	0xbdc4727b	-0.09592148
204	0x3c593af3	0.0132586835
205	0x3d2feabb	0.042948466
206	0x3ceef667	0.029170228
207	0x3da03d12	0.07824148
208	0xbba605af	-0.0050665955
209	0xbdbff776	-0.09373371
210	0x3d5161b4	0.051118568
211	0x3d8f30e3	0.06991746
212	0xbd987b06	-0.0744534
213	0x3d3a9130	0.045548618
214	0xb910bf9d	-0.00013804292
215	0xbe0ce505	-0.13759239
216	0xbd726ddc	-0.0591868
217	0xbe2e2b07	-0.17008601
218	0xbd71ae05	-0.05900385
219	0x3c704324	0.014664445
220	0xbcad90a5	-0.021187136
221	0xbd71969f	-0.058981534
222	0xbd4d9f5a	-0.050200798
223	0xbae52652	-0.0017482734
224	0x3c92bb0d	0.017911458
225	0xbd9f5634	-0.07780114
226	0x3dc95d7c	0.09832284
227	0xbcbc5088	-0.022987619
228	0xbc42ac2f	-0.011881872
229	0xbdb324c8	-0.0874725
230	0xbc1ffb2a	-0.009764472
231	0xbdb4c609	-0.08826835
232	0xbe2772c0	-0.16352367
233	0xbd95aa08	-0.073078215
234	0xb9989a93	-0.00029106866
235	0xbda9bbbe	-0.08287762
236	0x3ce3c17c	0.027802221
237	0xbd90d3ad	-0.07071624
238	0xbd98235c	-0.07428619
239	0x3d1cae4b	0.038252156
240	0xbd61cc5e	-0.05512654
241	0xbb6b2c00	-0.003588438
242	0x3d996e20	0.07491708
243	0xbda139df	-0.07872366
244	0x3ce3bb56	0.02779929
245	0xbac7fcb9	-0.0015257812
246	0xbdd5e4e8	-0.10444051
247	0x3aa6ac51	0.0012716149
248	0xbd7d368e	-0.061819606
249	0xbd00ff9e	-0.031493776
250	0xbc8e8ed2	-0.017402086
251	0xbdbfbbc9	-0.09361989
252	0x3d630709	0.05542663
253	0xbbb1cb23	-0.005425827
254	0xbbdea347	-0.0067943665
255	0x3cfd719c	0.030937962

network.2.bias f4 [84]
0	0xbb0a7bea	-0.0021130987
1	0xbd52d2fe	-0.05147075
2	0xbd3d878d	-0.04627185
3	0xbd5762e9	-0.052584562
4	0xbd94db2d	-0.07268367
5	0x3d546d0e	0.051861815
6	0x3e0e2a86	0.13883409
7	0x3e161e71	0.1466005
8	0x3e105e0b	0.14098375
9	0x3df2af19	0.118498035
10	0xbbc4b2a1	-0.0060027395
11	0x3e0fa600	0.14028168
12	0x3d86f833	0.06590309
13	0x3e149865	0.14511259
14	0xbdd3f31b	-0.10349103
15	0x3daa2f92	0.083098546
16	0x3d933078	0.07186979
17	0x3e086789	0.13320746
18	0x3e0c020b	0.13672654
19	0xbdcf3c22	-0.10118891
20	0xbde9bb29	-0.11412651
21	0xbe0aefb3	-0.13568
22	0x3e321794	0.17391807
23	0xbdcd29df	-0.10017752
24	0x3d6fd4d7	0.05855259
25	0x3e4ea206	0.20178995
26	0xbe0ff290	-0.14057374
27	0xbcc79069	-0.024360852
28	0x3c0e4a33	0.008684683
29	0x3dcbef56	0.09957759
30	0xbdf71cd6	-0.12066047
31	0xbcc746b5	-0.024325708
32	0x3d4033da	0.04692445
33	0x3e26c962	0.16287759
34	0xbddaf892	-0.10691942
35	0x3e12a2d4	0.14319927
36	0x3de1c0ec	0.11023125
37	0x3d8804e3	0.06641557
38	0x3d358305	0.044314403
39	0x3d38d0d5	0.045121033
40	0x3c3ea1e2	0.011635276
41	0x3d7f77ac	0.062369987
42	0x3e5e1692	0.21688297
43	0x3dee2697	0.11628454
44	0xbe03e73f	-0.12881182
45	0xbde0caf3	-0.109762095
46	0x3e208e21	0.15679218
47	0xbdb7ff55	-0.089842476
48	0xbc618866	-0.01376543
49	0x3e084dcb	0.13310926
50	0x3d1f33a4	0.038867608
51	0x3ddc0120	0.10742402
52	0x3e4704b1	0.19435383
53	0x3e0a1c58	0.13487375
54	0xbdf7613c	-0.12079093
55	0x3dd88776	0.10572712
56	0x3ca87cfe	0.020567413
57	0xbe15f799	-0.14645232
58	0x3e346478	0.17616451
59	0xbe086557	-0.13319908
60	0xbe02fe02	-0.12792209
61	0x3e198fdb	0.14996283
62	0xbbbeed89	-0.0058266562
63	0x3d1f3c62	0.038875945
64	0x3e0ae8b2	0.13565329
65	0xbd8e52e8	-0.06949407
66	0xbbb5cb7b	-0.0055479384
67	0xbde7c601	-0.11317063
68	0x3d073392	0.033008166
69	0xbd8bf133	-0.068331145
70	0xbd7cbcd8	-0.061703533
71	0xbce5d707	-0.028056635
72	0x3e0ea345	0.1392947
73	0x3dbf060f	0.093273275
74	0xbd58822f	-0.052858528
75	0x3dabd0b7	0.083894186
76	0xbde285cd	-0.11060677
77	0x3e11fc98	0.14256513
78	0x3dd2bd72	0.1029004
79	0x3dc2652b	0.094919525
80	0x3d9ad6bf	0.07560491
81	0x3df63c7e	0.12023257
82	0x3cd3440b	0.025789281
83	0xbdcf152a	-0.101114586

network.4.weight f4 [21, 84]
0	0x3c971a1e	0.01844507
1	0x3e1691e9	0.14704098
2	0xbd92988a	-0.07158001
3	0xbdd2d064	-0.102936536
4	0x3d0d8461	0.034550074
5	0x3e2f4e76	0.17119774
6	0xbcb5e215	-0.02220253
7	0x3be67554	0.0070330296
8	0x3d1fda74	0.039026693
9	0x3de4850b	0.111581884
10	0x3dff8492	0.12476458
11	0x3d531f0e	0.051543288
12	0xbdd51d01	-0.10405923
13	0xbdb58b34	-0.088644415
14	0xbddc28fc	-0.10750005
15	0xbdcdacb1	-0.10042704
16	0xbd17757c	-0.036977276
17	0x3dd708ea	0.10499747
18	0x3e199858	0.14999521
19	0xbda31a29	-0.07963974
20	0xbd68d145	-0.0568402
21	0x3e12dcc6	0.14342031
22	0x3de629e9	0.112384625
23	0x3d6e4fe0	0.058181643
24	0xbc2e3671	-0.010633097
25	0xbcbe0a0c	-0.02319815
26	0xbd321844	-0.043480173
27	0xbbeff9cd	-0.0073234797
28	0xbe09bd03	-0.13451008
29	0x3e0efa4d	0.1396267
30	0xbcaa3f14	-0.020782031
31	0xbb10cd0e	-0.0022094878
32	0xbdabc5d3	-0.08387341
33	0x3dba4d0c	0.09096727
34	0xbd519673	-0.05116887
35	0x3d8cd23e	0.06876038
36	0x3d702faa	0.058639206
37	0x3d7b9e8c	0.0614305
38	0x3de57c3e	0.11205338
39	0xbb896267	-0.0041926387
40	0x3dc88607	0.09791189
41	0xbe93c571	-0.28861573
42	0x3d044a3a	0.03229735
43	0x3d02fa96	0.03197726
44	0xbd43d363	-0.047809016
45	0x3d8dec47	0.06929832
46	0x3d5f175f	0.054465648
47	0x3d82e18b	0.06390675
48	0x3db0562a	0.086101845
49	0xbdded098	-0.1087963
50	0xbe15f472	-0.1464403
51	0xbc4e2257	-0.012581429
52	0x3e47e91b	0.19522516
53	0x3e4473ee	0.19184849
54	0x3ba1ddf6	0.00493979
55	0xbce770b1	-0.028251978
56	0x3c766235	0.015038063
57	0xbe0a5316	-0.13508257
58	0x3c00fec3	0.00787324
59	0x3cb5ebba	0.02220713
60	0xbd065b00	-0.032801628
61	0x3e18f595	0.14937432
62	0x3cb81927	0.022472931
63	0x3b8adcfd	0.0042377696
64	0x3dcd00e6	0.10009937
65	0xbdd290de	-0.102815375
66	0xbcf5dcc1	-0.03001249
67	0xbd012e40	-0.031538248
68	0xbdd0140f	-0.10160076
69	0x3d37728f	0.044786986
70	0xbccb313f	-0.024803756
71	0xbd9c4db1	-0.07632006
72	0x3e42bd12	0.19017437
73	0x3e402638	0.1876458
74	0x3c8d9d07	0.01728679
75	0x3c8ffb6c	0.017575942
76	0xbd46fa6a	-0.048578657
77	0x3bb6c509	0.0055776876
78	0x3d694118	0.056946844
79	0xbe56cd1f	-0.20976685
80	0xbc4db78c	-0.012555968
81	0xbb0a1288	-0.0021068174
82	0xbce233f8	-0.027612671
83	0xbe16cc0e	-0.14726278
84	0x3de8ae80	0.11361408
85	0xbc9b34ed	-0.018946135
86	0xbd882915	-0.06648461
87	0xbdfd3e25	-0.12365369
88	0xbdbcc81b	-0.092178546
89	0x3e34119e	0.17584845
90	0xbcb4f8a6	-0.022091221
91	0x3d9b162a	0.07572587
92	0xbd1d509c	-0.038406953
93	0x3e77d4e5	0.24202307
94	0x3d8a9866	0.06767349
95	0xbc84ae1f	-0.016196309
96	0xbddefbb2	-0.10887851
97	0xbe025143	-0.12726311
98	0x3d99c2dc	0.075078696
99	0x3c374f71	0.011188374
100	0xbda1c0df	-0.07898115
101	0xbbf5b596	-0.0074984534
102	0x3a89eb01	0.0010522307
103	0x3dd09c67	0.101860814
104	0xbd903f16	-0.07043283
105	0x3de9d355	0.114172615
106	0x3e000b0b	0.12504213
107	0x3d072155	0.032990772
108	0xbd2cf2bd	-0.04222368
109	0x3d0e0705	0.034674663
110	0xbc2eb15b	-0.010662402
111	0xbd57b865	-0.052666087
112	0xbdb5e86d	-0.08882222
113	0x3e202a0b	0.15641038
114	0x3cb00cc8	0.02149047
115	0x3db708eb	0.08937248
116	0xbe10ab41	-0.14127828
117	0x3d933df6	0.071895525
118	0x3d5212b9	0.051287387
119	0x3d610aef	0.054942068
120	0xbd0eacb7	-0.034832682
121	0x3db9e54b	0.09076937
122	0xbd9f369d	-0.077740885
123	0xbdd561c4	-0.10419038
124	0x3d4c4fa7	0.04988065
125	0xbdcc88f8	-0.09987062
126	0xbd192a8f	-0.037394103
127	0x3cf09a89	0.029370563
128	0xbc988161	-0.01861638
129	0x3d8572f8	0.06516069
130	0x3c9b13bb	0.018930307
131	0x3d5b52db	0.053545814
132	0x3cb5449a	0.022127438
133	0xbdbbdcf8	-0.09173006
134	0xbddb0a41	-0.10695315
135	0xbcacc4c9	-0.021089928
136	0x3d7364a6	0.059422158
137	0x3d159aab	0.036524456
138	0xbd5d76e9	-0.05406848
139	0xbcdaca58	-0.026707813
140	0x3d2382f8	0.039919823
141	0xbd87b707	-0.066267066
142	0x3d02dd98	0.03194961
143	0xbdb987ff	-0.09059142
144	0x3c796b7c	0.01522338
145	0xbd1b16e0	-0.037863612
146	0x3cb43988	0.02200009
147	0x3e056846	0.13028058
148	0xbc3e238a	-0.011605153
149	0x3d414172	0.047181554
150	0xbdbda0ac	-0.09259161
151	0xb99eb2ef	-0.00030269424
152	0x3b582da7	0.0032986195
153	0xbd6d6692	-0.057959147
154	0x3deb6715	0.11494271
155	0xbd48f8aa	-0.04906527
156	0x3de50cdf	0.111840956
157	0x3df6980b	0.12040719
158	0xbd69c8c4	-0.05707623
159	0x3dfb73bc	0.12277934
160	0xbd72b27f	-0.05925226
161	0x3c9e7289	0.019341724
162	0x3bd2f0c7	0.0064373943
163	0xbc5f0486	-0.013611918
164	0x3c77fb03	0.015135529
165	0x3d298316	0.04138478
166	0x3c35c5ae	0.011094494
167	0xbcef8cc5	-0.029241929
168	0x3c548af5	0.012972583
169	0x3ba12b47	0.004918489
170	0xbdcd391c	-0.100206584
171	0x3e239a88	0.15976918
172	0xbcf788e9	-0.030216651
173	0x3dd77700	0.10520744
174	0xbc651dc7	-0.01398415
175	0x3ce6b094	0.02816037
176	0x3d39f127	0.045395996
177	0x3e121cd7	0.14268814
178	0x3c851595	0.016245643
179	0xbd004b20	-0.031321645
180	0x3be3c8f0	0.006951444
181	0xbd91d9b2	-0.071216
182	0xbd850172	-0.06494416
183	0x3d1a9b73	0.037745904
184	0x3d49e5fa	0.04929159
185	0x3c62e77f	0.013849138
186	0x3e14f3e8	0.14546168
187	0xbb8e9a06	-0.004351857
188	0xbd6a5b61	-0.057216052
189	0x3cd5ddc2	0.026106719
190	0x3d892f65	0.06698493
191	0x3ca584a9	0.020204859
192	0x3d5afc15	0.05346306
193	0x3d6ed671	0.058309976
194	0xbd2db155	-0.042405445
195	0xbdd2446a	-0.10266955
196	0xbe22c39d	-0.15894933
197	0x3df824e3	0.121164106
198	0x3dcadb7d	0.09905145
199	0xbdcebc2c	-0.10094485
200	0xbbc7e646	-0.006100449
201	0xbce13321	-0.0274902
202	0xbdb6690c	-0.08906755
203	0x3ca0dc0c	0.019636177
204	0xbd32656c	-0.043553755
205	0x3d8c5726	0.0685256
206	0xbd0bab6c	-0.034099028
207	0x3c95d148	0.01828827
208	0xbc0bc69c	-0.008531239
209	0xbe091d91	-0.13390185
210	0x3b79474f	0.0038036888
211	0x3ddaaaeb	0.10677131
212	0x3ddda7eb	0.108230434
213	0xbd04f49a	-0.032459833
214	0x3ddfe13f	0.10931634
215	0x3da4b112	0.08041586
216	0x3cb1bd2c	0.02169665
217	0xbd341442	-0.04396463
218	0x3c0ca79d	0.008584884
219	0xbd3d57c1	-0.046226267
220	0x3dd7be90	0.10534394
221	0x3e0cfae9	0.1376759
222	0xbcbaa3f6	-0.02278326
223	0xbd9542e7	-0.07288151
224	0xbcad8d92	-0.02118567
225	0x3c6c4ee6	0.014423108
226	0xbcd6b9d1	-0.026211651
227	0xbd8a9b10	-0.06767857
228	0x3ce918b8	0.02845417
229	0x3d822155	0.06354014
230	0x3d429a08	0.047510177
231	0xbd8c6859	-0.0685584
232	0xbcd5ff73	-0.026122784
233	0xbd3d5bdd	-0.046230186
234	0xbc628c9d	-0.01382747
235	0xbd5f03b1	-0.05444688
236	0xbdc8086a	-0.0976723
237	0xbdee4a29	-0.11635239
238	0x3df7313e	0.12069939
239	0x3cdf1405	0.027231226
240	0x3dfa21fa	0.12213512
241	0x3bf36404	0.0074276943
242	0x3d2c27f0	0.042030275
243	0xbd3cb9ea	-0.04607574
244	0xbd9c0fac	-0.07620177
245	0xb9b5abdd	-0.00034651058
246	0xbc7e9c12	-0.01554014
247	0xbdac9dbb	-0.08428522
248	0x3e04460c	0.12917346
249	0x3d33f785	0.043937225
250	0xbd9320b4	-0.07183972
251	0xbc5cd21b	-0.013477827
252	0xbe81e6b5	-0.25371328
253	0xbc101a04	-0.008795265
254	0xbd817b30	-0.06322324
255	0x3d9223ea	0.07135756

network.4.bias f4 [21]
0	0x3e19341e	0.14961287
1	0x3dde21ae	0.10846268
2	0x3dc4d1b6	0.09610312
3	0x3e118db8	0.14214218
4	0x3e0d68bc	0.13809484
5	0x3df68e82	0.120389
6	0x3dca07e6	0.09864788
7	0x3de311de	0.11087392
8	0x3df3b813	0.11900344
9	0x3e2024b3	0.15639
10	0x3dcfd6eb	0.10148414
11	0x3dabae6d	0.083828785
12	0x3df3e66b	0.11909183
13	0x3d55bb6f	0.052180704
14	0x3df3beb1	0.11901606
15	0x3e35d884	0.17758375
16	0x3df52d25	0.11971501
17	0x3ceba564	0.028765388
18	0x3e3b41da	0.18286839
19	0x3e2b87a7	0.16750966
20	0x3df06603	0.11738207
