model/state_dict/my_random.pt (torch, 248354 bytes, 10 tensors)

cnn.0.weight f4 [5, 5, 3, 3]
00000000: 9690 823d a13f 923d f185 1ebc b88b 4b3d
00000010: 870c 493b 913d 12be dbe3 483c ef09 babd
00000020: 14ff c43b 1fe2 ec3c c2aa dcbc 28d3 09bd
00000030: 4771 143c 56e9 03be 4081 b5bc fa48 eb3c
00000040: ea20 f1bb bc66 1f3d b735 573d d29d 893d
00000050: 5c9a 283d 1e15 90bd ab3a 0c3d cb99 e43d
00000060: 9bc0 81bb a5ab 323d 283d a4bd 0754 1ebe
00000070: 7826 48be 0528 67be 2dd3 093f d7c7 0d3f
00000080: d1cc 8bbe 2df2 2cbd 96e4 1bbe 93de 00bd
00000090: 1fa3 423e 28bb a03e b460 853e 386b 89be
000000a0: 9d4b 59be 5de5 17be 6d61 023e 7dfe 93ba
000000b0: 0fc0 debd f872 0c3d b93c e1bd f568 c23d
000000c0: 720e 96bc eaeb 063c 2125 68bd 7c04 b33c
000000d0: e111 d8bd 8f5a aabd 90c9 2e3d 0d88 a33b
000000e0: f7c6 bdbd 94e6 91bd 22b7 9bbd 6871 d43a
000000f0: 0fee f5bc b6a8 06bd 9931 54bd c754 83bd
00000100: 13c6 25bd 0bd7 84bd 556f a2bd 332d efbd
00000110: 5454 43bd dd4f a5bd 3a0f 46bd edc6 253d
00000120: 053e 823e 6dca cb3e c9e5 9ebd 08f8 353c
00000130: b36f b13e 9787 bc3d 37cf e53e b2c7 c93d
00000140: ebd4 2a3e fff7 9abe 0fda 10bf a724 f5bd
00000150: 8e70 e0bd 1f4c f2be 3dd4 b93d 528b dbbe
00000160: f950 2cbe 2a68 74be 6ab6 6a3d b5af 7d3d
00000170: b4ba fb3c 7859 0cbd 0a69 453e f433 0e3d
00000180: 80a1 763d ed72 a13d 6bff ca3d 2b74 953d
00000190: 810f a33d 248d 3ebb 7583 ff3d 7953 943d
000001a0: f20c b83b b47c df3d 059b ddbd a779 56bd
000001b0: 1116 abbd 8b8b a43d 12e8 1a3e 1655 91bc
000001c0: c0db 943d 7654 573d 35c9 d23c bbdd 183e
000001d0: 9642 1c3e 5629 a3be 74d3 40be 0b2c e9be
000001e0: 7436 8e3e cc48 9dbe e50e dbbe 0627 5ebe
000001f0: eb47 86be 73e5 273d 8720 9cbe 85e3 353e
00000200: 4bd9 9ebe 2e5e b1be 1dbf e9be 191d f4be
00000210: 75c2 153e 5794 b4be 53ad 87bd 3c4e b6bd
00000220: 44b3 e93c 6626 8c3d 38da 2dba b02e 10be
00000230: f794 cabd 64fd 6a3d 4b84 79bd fa4d a0bd
00000240: e0a4 11be 1f33 ecbc 5094 863d d4f5 d1bd
00000250: 8e5f b1bd 2a5b e63d 3e70 08be 3971 2dbe
00000260: 231c 14bd ca06 3a3d 7533 84bd 9967 f73c
00000270: 896b f7bc 4999 6b3d d501 25be 90c6 763d
00000280: 2ad3 6fbe 6cb1 943c d17e 2cbe 321e 2abe
00000290: 6be6 8fbe 8734 953e 2ccd 993e 317d a13c
000002a0: f3a5 31be 104b 093f 884d d5bd 5144 ad3b
000002b0: 5e22 4b3e 6b18 83bd 0b5f bebe c40b d1be
000002c0: 6142 cebd d73e 87bd 6a41 13be 7c78 773d
000002d0: 3c6a f0bc 40b4 8c3c 43fd 393d cd79 f4bb
000002e0: 4e09 d53d 1a31 8e3d 4154 9e3d d427 563c
000002f0: 58a0 9c3d 6da7 debd 7525 acbc c8be 61bd
00000300: c720 bbbd 275f a2bd fb5a 2dbd 3383 17be
00000310: 4016 0abd 4209 3b3c 9740 f43d afa4 3d3d
00000320: ff37 b23d f011 013d e5f5 c43d 29e7 6f3b
00000330: b535 d23d 01ae 913d 7f93 283c 9f13 ecbd
00000340: 4e69 febc 967a d13e 5a9e 343e de3f b8bd
00000350: 8bf4 013f 6055 923e 87a6 d13e 45b4 dc3d
00000360: 7082 aa3d f884 dabd 0461 c6be 7eaf 85ba
00000370: 695e 683a 9a13 99be e999 16be fb35 5bbe
00000380: b022 18be
0.06375234 0.071410425 -0.009675489 0.049693793 0.0030677633 -0.14281298 0.012261356 -0.09083926
0.006011853 0.028916417 -0.026936892 -0.03364864 0.009060211 -0.1288198 -0.022156358 0.028721321
-0.00735866 0.038916335 0.05254146 0.06719555 0.041162834 -0.07035278 0.034235638 0.11162146
-0.003959728 0.043620724 -0.08019477 -0.15461741 -0.19545925 -0.2257386 0.53837854 0.55383056
-0.273047 -0.042223144 -0.15223917 -0.031462263 0.19007538 0.3139279 0.2605034 -0.26839614
-0.2122025 -0.14833589 0.12732477 -0.0011291053 -0.10876476 0.03428933 -0.1099791 0.09492675
-0.018317435 0.008234957 -0.056676034 0.021852724 -0.10550285 -0.08318054 0.042672694 0.0049905838
-0.09266465 -0.071240574 -0.07603289 0.0016208114 -0.030020742 -0.03287574 -0.051805113 -0.06412654
-0.0404721 -0.06486329 -0.07931391 -0.11678543 -0.047687843 -0.08071873 -0.048354365 0.040472914
0.25437942 0.39802876 -0.07758672 0.011106499 0.34655532 0.09205549 0.44884655 0.09852542
0.16682784 -0.3026733 -0.5658273 -0.119698815 -0.10958968 -0.473237 0.09073684 -0.4287973
-0.16827764 -0.2386786 0.05730287 0.061935145 0.030728675 -0.03426501 0.1927835 0.034717515
0.060212612 0.078832485 0.09911998 0.07297548 0.079619415 -0.0029075826 0.12476245 0.07242484
0.0056167776 0.10912457 -0.10820583 -0.05236211 -0.08353818 0.08034428 0.1512759 -0.017740767
0.072684765 0.052570783 0.025730709 0.14928333 0.15259776 -0.31867474 -0.18830663 -0.45541415
0.2777592 -0.30719602 -0.427848 -0.21694574 -0.26226744 0.040990304 -0.30493566 0.17762573
-0.31025156 -0.34642166 -0.4565362 -0.4767845 0.1462496 -0.35269424 -0.06624856 -0.08901641
0.028527863 0.068432614 -0.00066319434 -0.1408031 -0.09891694 0.05737056 -0.06091718 -0.07827373
-0.14223051 -0.02883297 0.06571257 -0.10251966 -0.08660804 0.11247857 -0.13324067 -0.16937722
-0.036159646 0.04541663 -0.06455127 0.030200766 -0.030202644 0.05751923 -0.1611398 0.060247958
-0.23420396 0.018151008 -0.16845252 -0.16613081 -0.28105482 0.29141638 0.30039346 0.019713016
-0.17348461 0.5363016 -0.104151785 0.005287685 0.19837329 -0.06401142 -0.37181887 -0.4082929
-0.100712545 -0.066037826 -0.14380422 0.060417637 -0.029347531 0.017175794 0.045407545 -0.007460809
0.10402165 0.06942959 0.07730914 0.013071019 0.07647771 -0.10871778 -0.021013955 -0.055113584
-0.09137111 -0.07928305 -0.042323094 -0.14796142 -0.033712626 0.011415781 0.11926382 0.046299633
0.08702087 0.031511247 0.09617213 0.0036606288 0.1026415 0.07113267 0.010289072 -0.1152718
-0.031056073 0.40913838 0.17638531 -0.08996557 0.5076377 0.2858076 0.40947363 0.10776571
0.0832566 -0.10669893 -0.38745892 -0.0010199395 0.0008864166 -0.29897767 -0.1470715 -0.2140731
-0.14856982

cnn.0.bias f4 [5]
00000000: 4645 183e b66d c8bb 8380 d53d 5032 613d
00000010: bf33 d1bc
0.14870176 -0.006116594 0.10424902 0.054979622 -0.02553737

cnn.2.weight f4 [5, 5, 3, 3]
00000000: fa4a dbbd 33cc 5fbd d8c3 5fbd 396e c53c
00000010: f6f9 16be 37d6 fdbd 9f0b abbe c485 0bbe
00000020: f651 8d3a 415d 863c 7f1d 71be 55f6 72bd
00000030: 5b8d c03d b56c 013e e32e a73d 7850 1ebd
00000040: 97a4 b2bd a3df 42be eb72 d0bd 631e a7bd
00000050: 62da 85bd 42e4 743c 0d5f cfba 1f5c a93a
00000060: 2cac 5abe c65f 833c bf71 0c3d ddac 163c
00000070: c2a8 e4bd eee0 4cbc 75b8 c43c 2d61 65be
00000080: 2714 8f3c 8537 21be 68c0 ac3d 278a 13bc
00000090: 886d b23d 2719 b6bb 0136 aa3d d42c 4c3d
000000a0: 22c3 49be cf47 3cbe 9acd d7bd 914a f3bd
000000b0: 02cf 12be e96b d1bd 8d9e 9fbe 5694 33be
000000c0: 693a 04be db32 143d 834a db3d 29f1 2fbe
000000d0: 8020 c2bd cce8 8cbc 8e67 053a 03ad 8c3e
000000e0: 25c7 423d 130d 31be 4420 31bc d900 a53d
000000f0: aca5 e5bd 2138 913e f48e 0a3e 543b b53d
00000100: c4dd 8abe 5b64 33bd ecb9 b9bd d408 4abe
00000110: 3aa0 cf3c 59a1 2dbe b610 ecbc 1982 0dbd
00000120: 7aa6 16be 7f05 06bd 911b 913d 9a5d 343d
00000130: 7f59 e5bd 8ac1 9c3d 6ef5 16bd 7892 97be
00000140: 59fc 18bd afd0 933e 7de8 0abe 1ffd b83c
00000150: 31c9 a9bc 0758 46be 9cc2 a8bd f287 5dbd
00000160: ddb3 83bd 8544 023e de6e 97bd 362f 52be
00000170: 06ed 27be e453 17be 9fa8 4c3d 5938 3abe
00000180: fa71 5a3e d659 303e 0c49 f1bd 7b7e 26be
00000190: 0e78 b23e 49ad 48ba e351 723e c0ef 823e
000001a0: 3a7e a6bd 0b27 a33e 74aa 0cbe 5eb3 433d
000001b0: 1ce6 e2bd d408 eb3b bacb 9bbd 7dc2 60be
000001c0: d7a7 33be 447d 533d e2cb b6bb e30c 5e3e
000001d0: e256 933d 8ca7 853a ed87 f5bd d48c 49be
000001e0: 1b09 a53d f14a a73c a7bb 153d a992 5f3e
000001f0: f3d4 aa3d a9db febd 53a2 063e 7e63 35be
00000200: c6ae 4bbe 605c 863d 9420 3e3d 1545 23be
00000210: 3b1e 88be 457a 88bd 4095 453d 1995 b63c
00000220: a862 253e a3f8 f23d 1337 50be d9e6 68be
00000230: 4098 19bd 82fc 5cbc 3452 5dbe 9c5c 38be
00000240: fad4 6cbe f7b0 e43e c36d bb3d 6f43 09be
00000250: 73ac 293e 3b9c ce3e e0d8 2fbe 9bbc ebbd
00000260: a8b4 523e dc40 c93b 5acf 0fbe bbdd 2c3d
00000270: c45b 49be af5f f3bd 3b0c d4be caf7 f33d
00000280: 7a82 55bd 3d94 96bd 3483 b03d 0962 083d
00000290: d886 e13d f2bb 41be 03ec 66bd 4841 4abc
000002a0: 6b27 82bd 1b6e 36bd 5325 1ebe 72bb 913d
000002b0: 3c95 38be 82c1 873e 9fe9 cb3d cb42 833d
000002c0: c330 09be 26bb 04be f993 fb3d 554f 3dbe
000002d0: 48bd 003e 3d7c 5ebd 57f8 82bd 2e38 f8bd
000002e0: 6718 823e 80ba c23e 2c1b 5bbd 51c5 50be
000002f0: ffc3 6ebe 2e0e 4a3e 865b 62bd 7b83 da3e
00000300: a03d 78be 7872 c23d b463 133e be5a 13be
00000310: 3d44 263e dba4 a83e 5c1f c33d d63b bebd
00000320: 9047 00be 7532 7bbe 31b0 dcbe 9738 0a3e
00000330: ac52 a8bd 830e 18ba 7eb0 07be c02d 7cbe
00000340: d923 563e 5235 703e cc60 d9bd 56db 8e3d
00000350: eebd 963e f1e4 b4bc 4e92 f7bb 352f 81be
00000360: 80a8 4bbd 6f3a 1e3e b86d 933e ed50 9c3e
00000370: f30e 303e 973b d63d 4627 2d3e 9e6b f63d
00000380: b717 78be
-0.1070766 -0.0546381 -0.05463013 0.02410041 -0.1474379 -0.12394374 -0.33407304 -0.13625246
0.0010781873 0.016401889 -0.23546408 -0.05931695 0.094019614 0.12639125 0.0816324 -0.03865096
-0.08722799 -0.19030623 -0.10178169 -0.08160093 -0.06535794 0.014946999 -0.0015821174 0.0012921131
-0.21354741 0.01603688 0.034288164 0.009196487 -0.111650005 -0.012504799 0.024013737 -0.22400351
0.017465664 -0.15743835 0.08435136 -0.009005106 0.08712298 -0.0055571976 0.08311082 0.04984744
-0.19703344 -0.18386768 -0.10537262 -0.11879457 -0.1433678 -0.1022566 -0.31175652 -0.17537054
-0.12912907 0.036181312 0.10707571 -0.17181839 -0.09478855 -0.01720085 0.0005088978 0.27475747
0.0475532 -0.17290144 -0.010810915 0.08056802 -0.1121324 0.28363135 0.13531095 0.088492066
-0.2712232 -0.04379688 -0.09068665 -0.1972993 0.025344957 -0.1695608 -0.028816562 -0.0345479
-0.14711943 -0.032720085 0.07085336 0.044034578 -0.11198711 0.07654102 -0.036855154 -0.29603934
-0.037350032 0.2887015 -0.1356525 0.022581635 -0.020725818 -0.19369517 -0.08240244 -0.054084726
-0.064307906 0.1272145 -0.07394193 -0.20525822 -0.16399011 -0.14778095 0.049965497 -0.18185557
0.21332541 0.1722177 -0.11781511 -0.16259186 0.3485722 -0.0007655216 0.2366405 0.2557354
-0.081295446 0.31865725 -0.13736898 0.04777848 -0.11079046 0.0071726833 -0.07607217 -0.21949191
-0.17544495 0.051633134 -0.005578504 0.21684603 0.07194306 0.0010197028 -0.119888164 -0.19682628
0.08058377 0.020421477 0.036555912 0.2183329 0.08341398 -0.124442406 0.1314786 -0.17713735
-0.1989089 0.06560588 0.046417788 -0.15944321 -0.26585564 -0.06663946 0.04823804 0.022287892
0.16150916 0.1186383 -0.20333509 -0.22744311 -0.037498713 -0.013487937 -0.21613389 -0.18004078
-0.23128119 0.44666263 0.09151795 -0.1340463 0.1656969 0.4035357 -0.17172575 -0.11510583
0.20576727 0.006141765 -0.14043942 0.042203646 -0.19663912 -0.118834846 -0.4141558 0.119124964
-0.052126385 -0.07352493 0.08618775 0.03329662 0.110120475 -0.18919352 -0.056377422 -0.012344666
-0.06355175 -0.0445386 -0.15443926 0.071158305 -0.18025678 0.26514822 0.09956669 0.06409224
-0.13397507 -0.12962016 0.12284083 -0.18487294 0.12572205 -0.0543177 -0.06395023 -0.121200904
0.25409243 0.38032913 -0.05349271 -0.2038777 -0.23316954 0.19731972 -0.055263065 0.42678437
-0.24242258 0.094944894 0.14393502 -0.14390084 0.16236968 0.32938275 0.09527466 -0.092887565
-0.12527299 -0.24530967 -0.43103173 0.1349815 -0.082188934 -0.0005800502 -0.1325092 -0.24626827
0.20912112 0.2345784 -0.10614166 0.06975429 0.2944178 -0.022081824 -0.0075552827 -0.2523133
-0.04972124 0.15451978 0.28794646 0.3053049 0.17193203 0.104605846 0.16909513 0.12032245
-0.24227796

cnn.2.bias f4 [5]
00000000: f050 26bd 5bb3 973c 76dd dfbc fe83 4bbc
00000010: f5da 293d
-0.04060453 0.01851814 -0.02732728 -0.012421606 0.04146858

network.0.weight f4 [120, 405]
00000000: 2152 823b a8cf a63d a913 99bc 055b a63d
00000010: 1314 823c 9160 2d3e b410 34bb c352 8d3d
00000020: 7147 d5bc a131 ca3c cf73 003e ffe3 c8bc
00000030: bc6a e1bc 5784 c23d e36e 193e 6065 a8bb
00000040: d254 1bbd 3219 263c 12b6 8b3d 76cf 8a3d
00000050: bbd8 82bd 14ed 0abd 9949 6d3d 5038 143d
00000060: 1a37 883a cc9b d83d e2b4 72ba 5deb 323c
00000070: 4e52 583d 34ad 1f3d acf3 643d 3fca 773e
00000080: 5a5b dd3c 0c8d 0c3e d7b8 963c 67fb 283e
00000090: a9d6 cfbd 4ed9 233e c6f0 f03d 82e4 633b
000000a0: b39e a13d 88ea cf3c 3ab4 7bbc bf0c 95bd
000000b0: 7f64 b93b b5a2 463d 2109 6dbc 8475 303e
000000c0: b76d 8d3d 7d0c 993d 0197 cdbd 40c8 6f3c
000000d0: e1e6 573e f1e7 593d 8922 b63d 4a03 5b3d
000000e0: 75cf c73d 6410 da3d 1bb9 c13c c019 b83d
000000f0: 859b adbc 70b4 653d 8209 32bd 6b1c f43c
00000100: b6e1 b03d 4d60 d53d 92fe acbc 0c98 10bd
00000110: c8c5 ad3c 35eb 203c a192 f6bc 25cb c83d
00000120: 03ea eb3c 57ed 59bc bd7b 513c a481 e5bc
00000130: 0f50 933c 23d3 edbb 5a22 b13d d53d 353d
00000140: 3fb8 083e 7030 873d 7115 a83c 0fe4 30be
00000150: a482 ea3d cd82 e8bd 9b72 b8bb a92a 033e
00000160: 37dc f13d f58d 2c3e 3ff3 533e 0427 503d
00000170: 8465 bd3d 2f51 5a3e 3e8e ae3c 2ae7 273e
00000180: 8f03 c63d fbf9 1e3c 3678 be3c d246 2e3d
00000190: 3150 e93c 8e4a 4fbe cdfd 923d b32b f93d
000001a0: 5b04 b83d 5438 ce3d b6fc d83d ec05 bc3d
000001b0: c271 a33d 5279 e53d 8335 873c d1b7 a53d
000001c0: 1ef4 2a3e 6b92 2bbe 0c7d d73c 1c84 9cbc
000001d0: 55a4 f83d 616b 433c f440 9dbc 3af7 57bc
000001e0: 2ac7 583e 63c7 173d abe3 e6bd 6bde 493d
000001f0: 75cc e33c 0b9e 733d 3aea 0dbd 8a44 ea3d
00000200: 1d58 db3d 8989 6d3d 3dc9 0f3d b6f9 aebd
00000210: cb82 8d3b 0dae a03c 28a8 a83d 204f 1abd
00000220: b0ee babd 35b4 083d 6f52 d83d 2ef2 efbd
00000230: b264 133c 392d 233e 4ef6 723d 7817 dd3c
00000240: 75f1 183c 1d5c 84bb 3d47 303e c726 d9bd
00000250: c130 23bd 4523 0f3e e0da 633d 2ed3 9d3d
00000260: 58e3 88bd 8ce0 603d 7b99 e83d f7f1 f7bc
00000270: a39d 303e b349 623d f1a7 d7bc e3b1 093d
00000280: e7c7 1d3e 711f 85bc fa79 3f3d 6082 173e
00000290: 0686 bb3d 93fc 70bd 844a 073c 73bf 073d
000002a0: 9b7c fb3d 4c97 61bd 431b f93c 4c3c 663e
000002b0: 5100 ea3c 7371 c43c 2bc6 12be ac80 9c3d
000002c0: 8298 863d fd59 273d 7715 0c3d 2657 ef3c
000002d0: b1e8 f43d a32b f6bd d28d babd 9b81 393d
000002e0: 5d74 0d3e 242c 6a3e 2df2 dc3d b2a3 07be
000002f0: bc4d 833e ba5b 1a3e c0cb bd3d 635d d0bd
00000300: 79a9 f83c 86b1 083e 47e7 0cbd f4ac 8cbd
00000310: e30c 9d3c 77e7 003e 419e 82bd d399 a0bd
00000320: 8f47 e9bb 31fa 913e 03a7 e23d c293 5dbe
00000330: 26f6 843e 8d4d 0c3e 9ddf cc3d be4b 1f3d
00000340: 1f72 a83d 02b2 2c3e 39c7 123e 08e9 94bb
00000350: 1c83 80bd dc36 0d3e 02a4 e33d ae17 e93d
00000360: 65af 8fbd 4e83 9f3c 44db afbd 2c7e c7bd
00000370: 0b66 ddbd b7a1 363d 77d0 68bd 872f 3f3d
00000380: f0d0 683e 8542 f2bc bdab 51bc 03a1 f93d
00000390: 0627 30bc 9f45 c6bd c557 1d3e 3bb6 ae3c
000003a0: 6259 263e 49e5 2d3d 4d91 99bb 068e b13c
000003b0: 89f3 1d3e 8687 5dbd 2966 223e 5e5f f53d
000003c0: dee1 36bb 25b0 543c 016b 693d a223 54bd
000003d0: 37c2 81bc 12a0 ae3d 2604 a33d 70c9 37bd
000003e0: d3af 1d3d 2b05 863d 42b6 343e 1aee 743d
000003f0: 3aa8 febc c0da 853d f3c7 f3bd 601f 8b3d
0.0039770757 0.08145076 -0.018686133 0.08122829 0.015878713 0.16931368 -0.0027475776 0.06900551
-0.026035042 0.024681868 0.12544177 -0.02452278 -0.027516715 0.09497898 0.14983706 -0.005139038
-0.037922688 0.010137843 0.068218365 0.06777851 -0.06388994 -0.0339175 0.057931516 0.036186516
0.0010392398 0.10576591 -0.0009258521 0.010920373 0.052812867 0.03898354 0.055896446 0.24198245
0.027021099 0.1372568 0.018398685 0.16502152 -0.10148365 0.16000864 0.11764674 0.0034773652
0.078915976 0.025380388 -0.015362794 -0.07277822 0.005657732 0.048495013 -0.0144675085 0.17232329
0.06905692 0.07473085 -0.10038567 0.014635146 0.21084167 0.053199712 0.08893306 0.053469934
0.09756366 0.106476575 0.023647835 0.089892864 -0.021192322 0.05608028 -0.0434661 0.029798707
0.08636801 0.104187585 -0.021117482 -0.035301253 0.021212474 0.009821703 -0.030099215 0.09804372
0.028798109 -0.013301215 0.012785849 -0.028015919 0.01798251 -0.0072578355 0.0864913 0.04424842
0.13351534 0.066010356 0.020518037 -0.17274497 0.11450699 -0.11353073 -0.0056288964 0.12809242
0.11809581 0.16851027 0.2069826 0.05081846 0.09247878 0.21320032 0.02130806 0.16396776
0.096686475 0.009703155 0.02325068 0.04254801 0.028480621 -0.20243284 0.07177315 0.12166538
0.08985206 0.100693375 0.10595076 0.09180817 0.07980682 0.11204781 0.016505009 0.08091701
0.16694686 -0.16755073 0.026304744 -0.019105963 0.12140719 0.011927457 -0.019196011 -0.013181502
0.21169725 0.037055384 -0.11273893 0.04928438 0.027807454 0.059476893 -0.034647204 0.11438854
0.10710166 0.057992492 0.035104025 -0.08543722 0.0043185703 0.019614244 0.08235198 -0.037673116
-0.09127557 0.033374984 0.10562598 -0.11716114 0.008996176 0.1593522 0.059316926 0.02698873
0.009334912 -0.004039301 0.17214675 -0.10603099 -0.039841417 0.13978298 0.055628657 0.07706295
-0.066839874 0.054901645 0.11357399 -0.030266745 0.17247634 0.055246066 -0.026325198 0.03361691
0.15408288 -0.016250344 0.046747185 0.14795828 0.09156422 -0.058834624 0.008257512 0.033141565
0.12279626 -0.05507593 0.030408507 0.22483939 0.028564604 0.023979878 -0.14333408 0.0764173
0.06572057 0.040857304 0.034200158 0.02921636 0.11958445 -0.12020042 -0.09109081 0.045289617
0.1381392 0.22868401 0.10788379 -0.13246039 0.25645244 0.15074053 0.09267378 -0.10174062
0.030354248 0.1334897 -0.03440025 -0.06868926 0.019171184 0.12588297 -0.06377841 -0.0784184
-0.007119126 0.28511193 0.11067011 -0.21638396 0.25969046 0.13701458 0.10003588 0.038890593
0.08224892 0.1686478 0.1433381 -0.004544381 -0.06275007 0.13790458 0.111152664 0.1138147
-0.07015876 0.01947179 -0.085867435 -0.09740862 -0.10810479 0.044587817 -0.056839433 0.046676185
0.22735953 -0.029572735 -0.012797293 0.12188914 -0.010751491 -0.09681248 0.15365513 0.021327129
0.16245034 0.04245499 -0.0046865107 0.021674167 0.15424933 -0.054084323 0.15859284 0.119810805
-0.0027905623 0.012981449 0.056986813 -0.051791795 -0.01583968 0.08526625 0.079597756 -0.04486984
0.038497757 0.065439545 0.17647651 0.059797384 -0.031086076 0.06535864 -0.11903372 0.06793094

network.0.bias f4 [120]
00000000: 752d 8c3a f08c 293d 9348 1cbd d6e4 d7bd
00000010: a1a3 dabd 40bb 863d a2d9 e5bb a658 e2bd
00000020: d1fd 933c f727 7e3c d455 c4bc 673f d5bb
00000030: 2aa9 0dbe 2e85 ad3c 2b29 a8bb 4445 77bd
00000040: 0f33 963d b0c4 33bd 5eef e63d 5d48 d33b
00000050: 04d3 6ebc cfab 1dbe 633f cabd 7b78 efbd
00000060: 6cb6 263d 3c97 943d 41b4 27bd cae0 b9bd
00000070: e693 76bd 4439 a63d 4960 c9bd 6918 fbbd
00000080: e2ac e5bd 5dac 8ebd 98b0 09bc a1e1 85bc
00000090: 82c5 6cbd e9bf d93d 4ffa 6cbd ee79 ac3d
000000a0: 15f0 87bd 142b 8f3c 6e71 d4bd 66ee b23d
000000b0: bf3a 33be c198 06be bc2d 1a3e 85d7 f7bd
000000c0: 80d0 613d a244 f1bd 9f9a bdbd c3bc 8fbd
000000d0: 567e a1bd 771e 5bbc 7107 cf3d cbe3 733d
000000e0: 5b6a c5bd 4376 3cbe 3b22 8cbd 0589 0dbe
000000f0: 9f0d b4bd 7bbb 343e 8ad0 263c 6e28 0bbe
00000100: e80d 0bbd cf4e 123b f636 b23d 0a32 47bd
00000110: efbb 97bd 4d3e a0bd b799 9bbd 19e6 803c
00000120: d8ac cf3c a067 5f3c 713a be3d c583 8bbd
00000130: 745e 4c3d 2f49 b6bd ea4b 4b3e 5528 dcbd
00000140: cadd a33d f0a5 26bd 4837 dd3d 3021 a0bd
00000150: f77a f1bd ada5 1b3e 4cbd bbbd 8ce5 583e
00000160: 07b6 25bd 1c07 53bd 3ad9 3ebc df7d f8bc
00000170: 3756 2b3e 06e5 c03d f72d 3c3c 46be e3bd
00000180: b914 6bbd 0959 9dbd 27d9 bbbd 35e0 b3bd
00000190: 29e4 b6bd 5a6b bbbd 8ef7 05be 2d1c a0bd
000001a0: 45fd 573b 74db 19bc 7f8b c0bd 8d97 1ebe
000001b0: d3f6 4bbd 9c6d 1cbd 0820 20be 6f16 23bd
000001c0: 2353 2a3e fad5 c03d dfc6 ccbd 8c82 f9bd
000001d0: 2f26 07be 39da 1fbe 8c08 83bd ca1b 24bd
0.00106947 0.041394174 -0.03815515 -0.10541694 -0.10675741 0.06578684 -0.0070144692 -0.110520646
0.018065365 0.015512458 -0.023966707 -0.0065078023 -0.13834062 0.02118167 -0.0051318607 -0.06036879
0.073339574 -0.043888748 0.112761244 0.0064478354 -0.014576677 -0.15397571 -0.09875371 -0.11692902
0.040701315 0.07255408 -0.040943388 -0.09076078 -0.06019964 0.08116391 -0.09832818 -0.12260515
-0.112146154 -0.069664694 -0.00840392 -0.01634294 -0.057805546 0.10632307 -0.0578559 0.08421694
-0.06637589 0.017476596 -0.103731975 0.08736877 -0.17502879 -0.13144208 0.15056509 -0.12101654
0.05513048 -0.11780669 -0.09258007 -0.07018425 -0.07885425 -0.013373963 0.10108841 0.059543412
-0.09639426 -0.18404488 -0.068424664 -0.138218 -0.087916605 0.17649643 0.0101815555 -0.13589641
-0.03394881 0.0022324806 0.08701889 -0.048631705 -0.07408892 -0.07824383 -0.07597678 0.01573472
0.025350973 0.013635546 0.092884906 -0.068122424 0.049894765 -0.089006774 0.19853178 -0.1074988
0.08001287 -0.040685594 0.1080156 -0.0781883 -0.11791032 0.15199919 -0.09166965 0.21181315
-0.040456798 -0.051520452 -0.011648471 -0.030333458 0.16732107 0.09418683 0.011485568 -0.11120276
-0.05739281 -0.07682998 -0.09172278 -0.087829985 -0.08930237 -0.09151335 -0.13082716 -0.07817874
0.0032957357 -0.009390701 -0.09401607 -0.154875 -0.049795937 -0.03819047 -0.15637219 -0.039816316
0.16633277 0.09415813 -0.09998869 -0.12183103 -0.1319816 -0.15610589 -0.063981146 -0.040065564

network.2.weight f4 [84, 120]
00000000: d2c0 c93d b23f adbd e6cc 80bd b2ed fdbd
00000010: daef 143e 7d9e 61bc 6635 3f3e c8c3 6abb
00000020: 60d1 683e ec9d 71bc 8dc8 8a3d c3cc ca3d
00000030: 831c 6f3d 4cc6 583d c2c6 e6bd 5529 f5b9
00000040: 25ce 2dbe b3b4 32be bf16 13be 6a25 843c
00000050: 05ef 783d 15df c5bd b2f5 4fbe cc8e a93d
00000060: b965 59be dd0b 673e 657a 253d 9f8f 283d
00000070: 64f9 683d 21df 4c3d d0f9 a2bc b770 eb3d
00000080: 7aaa e43c fb75 c4bd a4c0 43be 4b2b 0b3e
00000090: 5f86 5d3d a498 17be 674a d9bd ca35 56be
000000a0: 9ca8 b6bd e74a 4f3d 6358 c43c 187f 263e
000000b0: fe19 9e3d 8965 913b 0f35 bdbe 4928 d7bd
000000c0: 0ec8 633e cfee 9e3d a8cb 293d c6b4 02bd
000000d0: b8b0 03be 34de 783d ed21 483d ac59 9c3d
000000e0: 005d 983c a00d f83b b90d bd3d 2d62 28bd
000000f0: 14c9 43bd 229e 44be e28a 863d 11d6 9c3d
00000100: d1f5 7e3c 13c4 023e e53e e0bd 9712 ce3d
00000110: e329 55bc 2ce8 28bd 782f f53c d335 683d
00000120: 5661 b73c 7029 273a 992a d33d e74b 3abd
00000130: fb8c 113e 7449 ef3c a42a 9a3d 42df bb3d
00000140: b903 0fbd ce8e 5abb fd55 82bd 1188 17be
00000150: 4523 1abd 38d6 e53c fc69 963d 31f5 d0be
00000160: 55a3 bd3a 4442 963d e645 193d 9253 5abc
00000170: 350c 243e ed46 2ebe 388f 97bc 13aa 8a3d
00000180: 4bd0 773c db42 4b3e 1b56 9bbb f5da e43c
00000190: e8d3 bd3c 6006 913d f00d aa3c a212 b9bd
000001a0: bfcd 9dbb c08b dbbd 6ed6 3d3d cbff d6bd
000001b0: 4de4 78bc 6763 873d ed65 83bc ce92 4abe
000001c0: 6c09 07be 57ed a5bc f2d7 4e3b 3772 b5bd
000001d0: 6d14 5a3d 6881 8f3d 7753 9fbd 4707 aebc
000001e0: ce47 023d da7d 173e 2a6c 03be 9a41 02bd
000001f0: 9c8f 24bd e846 a0bd 1c66 153e 84cd 5f3d
00000200: 5d8d 4dbe 86a3 91bd 35d7 99bd 0aaa 84bd
00000210: 6050 63be 84ea 333d acd6 0fbd cd7a 643e
00000220: e5bc 45bd 3d4c 22bd a106 39be 2cb6 0fbe
00000230: b030 60bd edfe 9c3d 645e 0bbd 34a1 82bd
00000240: 6749 09be 7e4f 14bd a418 94bd b31d ae3d
00000250: 6e25 0c3d 1a8f 32bd 09a8 a43d 7646 943d
00000260: 7394 a1bb d9ea a5bd fb6a edbd b6e7 933e
00000270: 2a65 98bd 73d1 c5bd 757f a73d 3556 81bd
00000280: fd8d 66be 6d33 0b3e ec58 443e db26 d23c
00000290: d9a0 87bd 6f77 53bd b9ce 57be 97d6 e43b
000002a0: 885f 5d3d b35d 97bd 373e 983d 7420 6abe
000002b0: 600a 7c3c 005a 543e 3160 febd 1f67 dcbb
000002c0: 7b01 95bd 081e 70bd 31de 0f3d f42d a0bd
000002d0: 46f3 aa3d 1d3b 35be a67a 00bd a83e 673d
000002e0: ca8b 933d 3ffb 983d 6030 74be 518a 00bd
000002f0: 1c2c 8dbc 2d6d 36bd 7acd 353d db12 283e
00000300: 72a8 5cbd 912e 9d3d adcb 85bc 3138 c9bd
00000310: b938 8f3c acca a9bd 5b06 b03d a92d c53c
00000320: fc05 98bc b28b 613c d09a 12be 7523 7ebd
00000330: 4285 07be b82c f63b 4878 a33a 9c7f 8ebd
00000340: 58ac a0bd 2a41 56bd d5fb 153e 6194 e1bd
00000350: 664f 43be 7b3c 54be 768c 56bd 4d3c e7bd
00000360: 701d 703c b8ba 263d 27be a23b 2498 48bc
00000370: dbc4 473b 500e dbbd 8dc1 37bc 2423 7a3d
00000380: 1685 3d3b 661f 463d d48e eebc bcd6 0dbe
00000390: aaec afbd de2b b93c 6e2f b5bc ac01 e2bc
000003a0: bb0e b3bd 2351 7abd f080 63bd 4116 ff3d
000003b0: f220 93be 0645 f53a 3a76 10bb 93d4 b5bd
000003c0: cda2 f53d 0f29 273d cbcd 5abd e4f4 9abd
000003d0: acb9 cf3d 1f26 3fbd 32a6 993d 7e09 cd3d
000003e0: 3fde 873e 2337 f53d 11ab 33bd 8e27 8fbb
000003f0: c37a 3fbd 9964 a63d fd98 133e 98f0 813d
0.09851231 -0.084594145 -0.06289081 -0.123988524 0.14544621 -0.013770697 0.18672714 -0.003582226
0.2273612 -0.014747124 0.06776533 0.099023364 0.0583768 0.052923486 -0.11268379 -0.00046760836
-0.16973169 -0.17451744 -0.14364146 0.016131122 0.06077482 -0.0966169 -0.20308569 0.082791895
-0.2123021 0.22563119 0.040399928 0.041152593 0.056878462 0.05001748 -0.01989451 0.11496108
0.02791332 -0.095928155 -0.19116455 0.13590734 0.054083224 -0.14804322 -0.10609894 -0.20918956
-0.089188784 0.05060854 0.023967927 0.1625942 0.07719801 0.0044371528 -0.36954543 -0.10505731
0.22244284 0.07760393 0.041453987 -0.03191068 -0.12860382 0.060758784 0.04886048 0.07634291
0.018599033 0.0075699836 0.09231133 -0.041109253 -0.047799185 -0.19200948 0.065694585 0.076580174
0.015561537 0.12770109 -0.10949496 0.100621395 -0.013010475 -0.04123704 0.029929861 0.056691956
0.02238528 0.0006376719 0.10310859 -0.045482542 0.14213936 0.02920983 0.07527664 0.091734424
-0.03491566 -0.0033349278 -0.06364057 -0.14797999 -0.037631292 0.028056249 0.07344434 -0.40812066
0.0014468232 0.07336858 0.037420176 -0.013325589 0.16020282 -0.17019244 -0.01850091 0.0677072
0.0151253445 0.19849722 -0.004740489 0.027936438 0.023172334 0.07081294 0.020758599 -0.09036757
-0.0048157866 -0.107200146 0.046347074 -0.104980074 -0.01519115 0.06610756 -0.016039813 -0.19782564
-0.13187188 -0.020254774 0.003156182 -0.088596754 0.053242136 0.07007104 -0.077795915 -0.021243704
0.03180676 0.14794102 -0.1283423 -0.031800844 -0.04017602 -0.07826024 0.14589733 0.054639354
-0.20073457 -0.07111268 -0.075117506 -0.06477745 -0.2219863 0.043924823 -0.035116836 0.2231247
-0.048275847 -0.039623488 -0.18068935 -0.14034337 -0.054733932 0.07665811 -0.034025565 -0.06378403
-0.13406907 -0.036208622 -0.07231262 0.085017584 0.034215383 -0.043593504 0.08039863 0.07240002
-0.0049310266 -0.08101434 -0.115926705 0.2888772 -0.074411705 -0.0965909 0.081786074 -0.06315271
-0.22515102 0.13593836 0.19174546 0.025653293 -0.06622476 -0.051627573 -0.21074952 0.006983589
0.054046184 -0.073909186 0.074337415 -0.22863942 0.015383333 0.20737457 -0.12420691 -0.00672616
-0.07275673 -0.05862239 0.035124008 -0.07821265 0.08347182 -0.17698331 -0.031366967 0.056456238
0.07204397 0.074697964 -0.23846579 -0.03138191 -0.017232947 -0.044537712 0.04438541 0.16413443
-0.05387158 0.076748975 -0.016332472 -0.09825171 0.017483102 -0.0829061 0.08594962 0.024069624
-0.018557541 0.013766216 -0.14316869 -0.062045533 -0.13234428 0.007512655 0.001247176 -0.06957933
-0.07845372 -0.05230824 0.14646848 -0.11014629 -0.19073257 -0.20726196 -0.052380048 -0.11290798
0.014655456 0.040705413 0.0049665156 -0.012243304 0.0030482325 -0.10696089 -0.01121558 0.06106867
0.0028918437 0.048369788 -0.02912084 -0.13851446 -0.08590062 0.022603925 -0.022117343 -0.027588688
-0.08743044 -0.061112534 -0.055542886 0.124554165 -0.28736073 0.0018712587 -0.0022043125 -0.08878436
0.119939424 0.04081064 -0.053418916 -0.075662404 0.10142836 -0.046667214 0.07502402 0.10011576
0.26536748 0.11973407 -0.043864314 -0.004368729 -0.046747934 0.08124656 0.14413829 0.06344718

network.2.bias f4 [84]
00000000: 5e4b 1f3e 186a aebd 2436 533e 3eb0 fabd
00000010: 4bd9 873d f412 ffbd 4064 ef3d 46e9 083d
00000020: 8516 963d 1e6a 70ba ae8f 5b3e 4f8a 90bd
00000030: d219 c4bb a7ea bbbd 2fb4 0cbc 1130 953d
00000040: 5176 073e 5ddc c0bd 9837 5b3d 09c2 cebd
00000050: 94c9 dfbc 713f 85bd ccbb e33d 62cc 1abd
00000060: 6e0b 313e a28c ba3d 5370 c9bd dc15 07bd
00000070: b337 f5bc 39c4 823e a5c5 4ebd d22e e6bd
00000080: d3ce 4dbd 5c57 b43c ea21 c0bd 977b 7cbd
00000090: 8f3d a53d be64 c2bc a308 d9bd c1f6 1d3d
000000a0: 38b2 f43d e225 19bd 3a07 e33d 5dd0 413e
000000b0: 1b49 f83c 924e dabd 0fa4 223e 91de aebc
000000c0: 8bb7 9cbd 7006 3ebd 6848 7f3d 9982 383e
000000d0: 1f1a 7e3d 580d 043e 4c8b 7abd 4f55 81bd
000000e0: c2fe 4a3d 58de 013e fdba ea3d 6915 c0bd
000000f0: 568f c33d 2ff0 babd 1ed4 0c3e 89b8 f83d
00000100: ef42 f8bd 8d67 873d b609 4f3e d843 3e3e
00000110: f254 2c3e 8890 a83d 386e b43d 52b3 bbbd
00000120: 6ee8 1f3e 2a63 cb3d 54a6 d93d adb4 083e
00000130: 71e3 083e b86b 3f3d 7e81 653e d241 c8bd
00000140: ddef fabd a3e8 e53c 3c46 9cbd a135 e23d
0.15556094 -0.085163295 0.20626122 -0.12240647 0.06633242 -0.12454787 0.11689043 0.033425592
0.07328514 -0.0009171086 0.21441528 -0.0705763 -0.0059845233 -0.09175616 -0.008587881 0.072845586
0.13228728 -0.09417031 0.053519815 -0.10095603 -0.0273178 -0.06506241 0.11119804 -0.03779257
0.17289516 0.09108855 -0.09835877 -0.03297983 -0.029933786 0.2554033 -0.050481457 -0.11239399
-0.05024607 0.022014312 -0.093814686 -0.061641302 0.08068382 -0.023729678 -0.105973504 0.0385654
0.11948055 -0.037389643 0.11085363 0.1892714 0.030308297 -0.10659517 0.15882896 -0.021346362
-0.076521955 -0.046392858 0.06232491 0.18018569 0.06203663 0.12895715 -0.061168 -0.063150994
0.049559362 0.12682474 0.114614464 -0.09379084 0.095488235 -0.09127843 0.13752791 0.12144572
-0.121221416 0.066115476 0.20218548 0.18580568 0.16829279 0.08230692 0.08810085 -0.09165062
0.15616009 0.099310234 0.10627428 0.13350172 0.13368012 0.046733588 0.22412679 -0.09778179
-0.122527815 0.028065031 -0.07630584 0.11045385

network.4.weight f4 [21, 84]
00000000: c013 113e 2ba3 86bc 7a2e 753e d870 f7bc
00000010: 27b9 8dbe 5b29 dbbc 6dcc 3dbb a1ac 313d
00000020: e8f0 d1bd 3ab1 c03c b18b eb3c 8088 5ebe
00000030: beb3 8cbd 74af b13d 01b0 bdbc 99c7 6bbe
00000040: 1d7f 72bc f6fd 72bd b402 c83d 7de0 893c
00000050: 076a 04bd c7a5 0bbe 3308 c73d 3b3c 8dbd
00000060: 07a7 153e 649c 2c3d 0a3d da3b 627e 213e
00000070: f2d4 2a3d 02c5 6fbd d1c6 cdbd 1cb7 95bd
00000080: 35e4 a13d 8767 9ebb c7f7 96bb 91b4 4bbd
00000090: 2456 cdbc 5bd2 883d 62bf 2fbb 0f71 2e3c
000000a0: 2081 a83c 3e5f 78bc 674b 483e 9cb4 bc3d
000000b0: 4a58 8b3c 21f8 84bd 2568 bcbd a567 8ebd
000000c0: dcf3 923d efb3 063d ec9b 43be bf2d ac3d
000000d0: 606b 9dbd bbb5 3d3e 5802 793d d432 543e
000000e0: 5461 e03d 7c6d 793d 011c 1fbb f880 253d
000000f0: 260b 2e3c 97f5 c43d 8a29 80bd a617 333c
00000100: 975c 453c e70b ddbc d4c7 2d3e bddc 1d3d
00000110: efd8 b03d 49e6 303d 635a 013e 482e e5bb
00000120: 4cbd 2d3e a9c9 17bc ab87 90bc eaea 7e3c
00000130: 57e4 9d3c a2ef 81bd 7247 3dbb 75bc 403d
00000140: 54ff 07bd b8b7 37bd 7c6f 89bd 2924 10be
00000150: b4a7 2b3e 0dd5 233e 0157 ca3d 0247 7bbd
00000160: 344b 4fbe 0b25 543d 7232 40bd b800 12bd
00000170: 77e5 92bc c733 6abd a9dd 95bb 5275 573d
00000180: 4596 5e3d f56f 37be 8906 a8bd 142e 51bd
00000190: 5e53 003e e719 3abd 55b8 b93d 92ff cbbd
000001a0: d4fe 083d bbb3 34bc 51c1 da3d 2471 8bbd
000001b0: 0a44 a13c b05d fe3c 5342 143d 3357 e83d
000001c0: 84b2 9abc 9a61 203d adb4 913d 5606 4f3d
000001d0: 3255 8cbd bf67 393d 50d1 a43d 4134 4c3d
000001e0: 824d 053d 0025 ae3d f33e efbc 08ff 15bc
000001f0: 8419 573d ef7c abbd b1f3 7c3e 2cb9 7f3d
00000200: d745 d33d f80f cdbc f2e1 abbd d01e 08bc
00000210: 2621 9dbc d841 a6bd bc44 f83d 0ad3 093e
00000220: 1040 d0bd 9f32 2a3d f55c 97bd 030b 883d
00000230: cf20 31bd bf86 d93c d664 d33c 8210 08be
00000240: f847 f03d 9852 a4bb 9f10 79be 7adb 30bc
00000250: 6205 113d 2336 75bd 95e2 133e 8261 9c3c
00000260: e6a6 543b d631 03be 71cf 5f3d 7c79 b93c
00000270: 578b 253e 14b8 83bd 279f 103d 6f1a 403d
00000280: b856 103e 076f bf3c 6d65 833d 431e da3c
00000290: ec82 203d 3a27 813d 069b acbc 6c04 04be
000002a0: d3d2 f13d bda3 d63d 3544 d43d 87ef b5bb
000002b0: b3d5 42be aa41 953d 1ee1 ca3c 9aa4 99bc
000002c0: 3c15 f7bc 60d0 cabc 79ae 883d f640 283c
000002d0: 7a63 2b3d 86c5 62be adca 42be dd86 f0bb
000002e0: 3b6b be3d 0323 babd a84f ea3d f79a bfbd
000002f0: 3e6f 14bd 42b6 4a3d 9416 c43d d092 46bd
00000300: d194 0d3e ed5a f33b 4537 be3c a7a6 8f3d
00000310: 6418 c23d 63b0 3a3d f32a b33d 90c4 61bd
00000320: 3086 313b 5394 29bd 8f3b fdbd dbd9 e6bc
00000330: 0dc2 c3bd 8a9b e2bb 689d e1bc add3 ab3d
00000340: 0124 143d cdcd 073d 466b 053e 5ab4 1f3e
00000350: 044f e43d 1c13 3b3d b066 64bd e950 0bbe
00000360: 649c a4bd d97e 07bd 91d4 2bbc a9c2 e53d
00000370: cae4 2ebd 9a85 043e 4405 513d 9abb 9bbd
00000380: cd33 a33d aff3 53bb 8a09 dd3c 13a3 053d
00000390: cd0e c53b b907 89bd 1eea 46be 6bb2 1e3b
000003a0: d7b9 78bd 583b 843d 0f32 b93d 52fa 683d
000003b0: 3d49 0abd 7dab 773d 35f5 6e3d b6d2 963b
000003c0: a9ca 0f3d 4eb0 353d 967f e33c 6d01 f13c
000003d0: 8997 903d ca66 dc3d eb31 093d e3eb d7bd
000003e0: c66b 023d 43eb 8ebd d9c2 09bc 28e8 e3bd
000003f0: 6275 0c3e 9f99 53bd 811e 4b3e e797 e43c
0.1416769 -0.016435226 0.2394351 -0.030205175 -0.27680323 -0.026753118 -0.0028960959 0.043377522
-0.10251027 0.023522008 0.028753133 -0.21731758 -0.068702206 0.08676043 -0.023155214 -0.23025359
-0.014800814 -0.059324227 0.097661406 0.016830677 -0.032327678 -0.13637458 0.09718361 -0.06896254
0.14614497 0.042141333 0.0066601085 0.15770867 0.041706987 -0.05853749 -0.10047687 -0.07310316
0.07904855 -0.0048341188 -0.004607174 -0.04973275 -0.02506549 0.06680747 -0.0026816954 0.010647072
0.020569384 -0.015159426 0.19560014 0.09214136 0.017009873 -0.06492639 -0.091995515 -0.069533624
0.07175419 0.03288644 -0.19102448 0.08407163 -0.07686496 0.18526356 0.06079325 0.20722514
0.10956064 0.060895428 -0.0024278166 0.040406197 0.010622775 0.09617155 -0.06257923 0.010930931
0.012046001 -0.026983215 0.1697076 0.03854059 0.08635127 0.043188367 0.12632136 -0.0069940425
0.16966742 -0.009264388 -0.017642817 0.015558938 0.01927392 -0.063445345 -0.0028881696 0.047054727
-0.033202484 -0.044852942 -0.06710717 -0.14076294 0.16763192 0.15999241 0.09879876 -0.061347015
-0.20243531 0.05179314 -0.04692311 -0.035645217 -0.017931683 -0.057178285 -0.004573543 0.05260212
0.054342527 -0.17913802 -0.082043715 -0.051069334 0.12531802 -0.04543486 0.09068362 -0.099608555
0.033446148 -0.011029179 0.106814034 -0.06808689 0.019685764 0.031050533 0.036196064 0.11344757
-0.018883951 0.03915558 0.07114539 0.05054315 -0.06852187 0.045264956 0.08047736 0.04985452
0.03254462 0.08503151 -0.029204821 -0.0091550425 0.052514568 -0.083734386 0.24702336 0.062432453
0.10316055 -0.025032029 -0.08392705 -0.0083081275 -0.019180845 -0.081180274 0.12122485 0.13459411
-0.10168469 0.041552182 -0.07390777 0.06642725 -0.04324418 0.02655351 0.025804918 -0.13287547
0.11732477 -0.0050147288 -0.24322747 -0.010794515 0.035405524 -0.059866082 0.14441903 0.019089464
0.0032448112 -0.1281198 0.05464119 0.022640936 0.16166435 -0.064315945 0.03530803 0.04690021
0.1409558 0.023368372 0.0641583 0.026625758 0.039187357 0.0630631 -0.021070015 -0.12892312
0.1180779 0.10480449 0.10364572 -0.0055522355 -0.19026832 0.07287915 0.024765547 -0.018755246
-0.030161493 -0.024757564 0.06673903 0.010269394 0.041842915 -0.22145662 -0.19022627 -0.0073402957
0.09297796 -0.09088709 0.114409745 -0.09355729 -0.0362389 0.04949022 0.09574619 -0.048479855
0.138263 0.0074266107 0.023219714 0.07014208 0.094773084 0.04557837 0.08748426 -0.055119097
0.0027088039 -0.04140122 -0.123648755 -0.028180053 -0.095584966 -0.0069155144 -0.027540877 0.08389983
0.03616715 0.03315525 0.13029203 0.15596142 0.111478835 0.04567252 -0.055761993 -0.13605084
-0.08037642 -0.033079956 -0.0104876915 0.11218769 -0.04269866 0.1294159 0.051030412 -0.076041415
0.079688646 -0.0032341292 0.026982088 0.032626223 0.0060137273 -0.06690926 -0.19425246 0.0024215232
-0.060724106 0.064566314 0.09042751 0.05687935 -0.03376125 0.06046628 0.058339316 0.0046027554
0.03510538 0.04435759 0.027770799 0.029419625 0.07060153 0.10761793 0.03349487 -0.10543039
0.031841062 -0.06978466 -0.008408272 -0.11128265 0.13716653 -0.051660176 0.19835855 0.027904464

network.4.bias f4 [21]
00000000: 9d35 143e 82bd 1f3e 929f 073e f353 dd3d
00000010: e442 053e e02a 773d 966a 2e3d dd23 af3d
00000020: 59cd b43d e2ca f73d bb99 033e 62f8 e03d
00000030: 108f c43d 0638 1a3e 8021 e13d 9e4c 1f3e
00000040: 0422 143e 1100 753d 5727 bb3d 4691 a53d
00000050: 586d a93d
0.14473577 0.15599635 0.13244465 0.10807028 0.13013798 0.060343623 0.042582117 0.08551762
0.088282295 0.12099244 0.12851612 0.10984875 0.095975995 0.15060434 0.10992718 0.15556571
0.14466101 0.059814516 0.09138363 0.08084349 0.08272809
