model/state_dict/q_net_trained.pt (torch, 248396 bytes, 10 tensors)

cnn.0.weight f4 [5, 5, 3, 3]
00000000: 105b 4ebd 520f 4ebf 8f11 49bf 5069 c3be
00000010: 296e e93e ef00 153d 3d84 30bf 159d 193f
00000020: 47d7 bfbe 6736 03bf a429 25bf 452a 51bf
00000030: 7e2b f3be ac46 b0bf 63af f5bd 8d2e dcbf
00000040: e019 0abf 8f71 eabe 9ada 96bf 65d4 eebd
00000050: b4d3 70bc 291e 73bf f9f5 b5bf 7696 08bb
00000060: 2105 dbbf f5f8 81bf 6f81 19bf 2bc4 5ebf
00000070: fa87 67bf 3fb7 75be fafc 2d3d 9e96 06bf
00000080: 26f7 343d c78f fa3d 7266 4ebf fbc5 8a3f
00000090: 2c3f 3bbf 6eeb 4abf c000 0a3e 733b e7bd
000000a0: 6132 86be a7a6 853c 667a c0bf e951 00bf
000000b0: 5ec8 4a3f 0715 19c0 0525 3fbe 8725 323f
000000c0: 591d 32bd 8276 43bf 3d61 69bf c4fc 183f
000000d0: 6661 34bf ef01 2bbf 88c7 6fbf 936a bebe
000000e0: f436 a4bf 92a3 8e3e 6eac 57bf d994 be3f
000000f0: 1b3c d9bd 6fd3 0e3e c8b8 7cbf 7f53 94bf
00000100: c66b f0bf 057e 06bf fa23 72be 3347 92bf
00000110: 910f a7bf cfcd a43d b3bd 243f 896e 8abf
00000120: aeb9 adbf 4929 acbe 771d 183f bdb8 e73e
00000130: 3000 2f3e baca b2bd 2f6b 043f fb2f 94bf
00000140: 1880 a5bf a034 9cbf 9d66 12c0 7832 6cbe
00000150: d42b 073d efeb db3e c7fc 41bf 34c6 8b3d
00000160: c06a bbbf d396 9fbf c9dc 523f f0c2 7f3d
00000170: 69f2 c1bf ee35 47be c0a9 0dbf 0fbb 94be
00000180: b51c ed3c 41ff 05be 8189 923d 463b 04c0
00000190: 2910 71bf 20d3 c3bf 4347 17bf 09f7 16c0
000001a0: d877 8bbf fec0 43bf 42b0 8ebf 44a7 f4bd
000001b0: b3d1 cfbf 72ca 8cbf 3a98 8cbf 6626 a13f
000001c0: a779 e3bf 255a 71be e0c5 09bf 2106 a4bf
000001d0: a11b 0b3f 250c c0bf 196e 7a3f badb 4a3e
000001e0: 1445 4fbf 896d 2e3f 664d bf3e 7c06 08bf
000001f0: 9f3f aa3e bce3 473f 4dae 6bbf e460 573f
00000200: 5598 0ebf 2d41 76bf 6b7d b23f bb14 173f
00000210: 0abf 26bf ac4d 0e3f abac b2bd de71 9ebf
00000220: 06f1 67bf a92e 8fbd b4a9 11be 2846 0fbf
00000230: 968a a4be 4a8c b8bd 725c 0fbf 5cb2 bbbc
00000240: ab4e 833e d478 153f 9dd8 32be 2c78 85bf
00000250: c667 48be 5d81 fd3e 504b 663e 1e7e 85bf
00000260: d0c4 b6bf 28b2 743d 5d62 3bbf 30bc 85be
00000270: 2726 85bf ace3 74be 24fe 983e c29c 383e
00000280: b13b bcbf e1ca bdbf 671d dbbd e02c 36bf
00000290: aed1 29bf 61eb 7cbf 72c4 0d3f 3797 26bf
000002a0: 8977 73be 3e7b 8fbf b94b f6be f983 1ebf
000002b0: 0179 16c0 a76e b0bd 69b9 61bf d043 18c0
000002c0: c209 85bf 26c1 c7bf ce22 6fbd 885b 11c0
000002d0: 9b00 e0bf 676f efbd a4c3 a93f e0b3 acbf
000002e0: 7fe5 b2bf 262c b93f 44c1 123f 45fc 3cbf
000002f0: 2f4e 04c0 a819 80bf 5222 94bf afcf 8abf
00000300: 688e af3c ba16 babf 2e23 6c3f c33f 24be
00000310: 9808 523e 9c0c a1be 9f5c 7cbf 99e5 b4bf
00000320: 3469 a5bf c11a 1f3d 1e05 dabf 9dc0 b9bd
00000330: 92e0 853e 7512 f43d 04e7 a73f 2e28 c93e
00000340: 9acd 743f d79e 0dbd 7276 87bf 4b13 1dbe
00000350: 8559 afbe 3b4d 13bf 0a2b a13e 59a0 3dbf
00000360: 2b7a 603f 05e4 debf 0e80 1c3f a4cb 30bf
00000370: 33b4 04bf caa0 8d3c 18cf 69bd f006 e1bc
00000380: 036b 5bbf
-0.050379813 -0.80492127 -0.7854242 -0.38166285 0.45591858 0.036377843 -0.6895178 0.60005313
-0.3746893 -0.51254886 -0.64516664 -0.81705123 -0.4749412 -1.3771567 -0.11996343 -1.7201706
-0.5394573 -0.45789763 -1.1785462 -0.11661605 -0.014698911 -0.94967896 -1.421569 -0.0020841635
-1.711094 -1.0154101 -0.59963125 -0.8701808 -0.9044186 -0.23995684 0.042477585 -0.52573574
0.04418101 0.122344546 -0.8062507 1.0841669 -0.7314327 -0.7926549 0.13476849 -0.11290636
-0.2621031 0.016314818 -1.5037353 -0.50124985 0.79211986 -2.3919084 -0.18666466 0.6958851
-0.04348502 -0.76352704 -0.91164 0.5976069 -0.7046112 -0.66799825 -0.93663836 -0.37190685
-1.282927 0.2785917 -0.8424748 1.4889175 -0.10607167 0.13947843 -0.98719454 -1.1587981
-1.878289 -0.5253604 -0.23646536 -1.1427978 -1.3051625 0.080470674 0.6435196 -1.0814983
-1.357229 -0.33625248 0.5941996 0.45258132 0.17089915 -0.08730073 0.5172605 -1.1577142
-1.2929716 -1.220356 -2.287513 -0.23066127 0.033000782 0.4295344 -0.7577633 0.068249136
-1.4641953 -1.2467903 0.8236814 0.062441766 -1.5152103 -0.19454166 -0.5533714 -0.29048964
0.028944353 -0.13085653 0.07155133 -2.0661178 -0.94165283 -1.5298805 -0.5909311 -2.3588278
-1.0895948 -0.7646636 -1.114754 -0.11945966 -1.623587 -1.0999281 -1.0983956 1.2589843
-1.77715 -0.23569544 -0.5381756 -1.281437 0.54339033 -1.5003706 0.97824246 0.19810382
-0.8096478 0.6813589 0.37363738 -0.53134894 0.33251664 0.7808187 -0.92062837 0.8413222
-0.5570119 -0.961932 1.3944525 0.5901601 -0.6513525 0.5558727 -0.0872434 -1.23785
-0.9060215 -0.069913216 -0.14224893 -0.55966425 -0.32136983 -0.09011133 -0.56000435 -0.022912197
0.25645956 0.58387494 -0.17465444 -1.0427299 -0.19570836 0.4951276 0.22489667 -1.0429113
-1.4278812 0.059740216 -0.73196965 -0.26120138 -1.0402268 -0.23914975 0.29881394 0.18028548
-1.4705716 -1.4827539 -0.106989674 -0.71162224 -0.6633557 -0.9879666 0.55377877 -0.65074486
-0.23776068 -1.1209486 -0.48104647 -0.61920124 -2.3511355 -0.08614855 -0.8817354 -2.379139
-1.0393603 -1.5605819 -0.0583828 -2.2712116 -1.7500185 -0.1169117 1.326283 -1.3492393
-1.3976287 1.4466598 0.5732615 -0.7382243 -2.067272 -1.000783 -1.1572974 -1.084463
0.02143021 -1.4538186 0.9224118 -0.16039948 0.20511091 -0.31454933 -0.9857883 -1.4132568
-1.292273 0.038843874 -1.7032812 -0.09069941 0.26147896 0.11917583 1.3117375 0.39288467
0.95626223 -0.03457531 -1.0583022 -0.15339391 -0.34247985 -0.5753972 0.3147815 -0.74072796
0.87686414 -1.7413336 0.61132896 -0.6906073 -0.5183746 0.017288584 -0.057082266 -0.027469128
-0.8571016

cnn.0.bias f4 [5]
00000000: 8f9f 04bf b847 8dbe f6a9 eebe 8b6c c0bd
00000010: 3b28 41bf
-0.5180597 -0.2759378 -0.46614045 -0.09395703 -0.7545201

cnn.2.weight f4 [5, 5, 3, 3]
00000000: 54bc a73e 4451 f7bf ac1b eebd 13ff 5f3d
00000010: a874 1dc0 95df 6a3d 03f7 c1bf b6c8 e0be
00000020: bcd2 903f 85a5 23be 7ac9 c23e d645 8abf
00000030: a8aa 35bd 787d 22be a656 173f d04e 433f
00000040: 6199 8fbe 54f1 3e3f 26c8 42bd 0a67 86bf
00000050: c43c 033f b531 c4be 6cc5 90bf b990 e4bc
00000060: b295 2e3e c858 383e 7ac8 83bf 43e0 bebd
00000070: 6ff1 25bf 89eb a3bf b2fe 93bf c7da 723f
00000080: 7f4d 08bf efb2 893f 70fa d2be c4fc 66be
00000090: 0c64 6dbe ac32 443f f6ce 35bf 4c11 f4bd
000000a0: ce48 7d3e 97a3 afbf f88a 73be bf41 4fbe
000000b0: b16e 63bd 8302 a8bf 8dd0 b23e d279 73bf
000000c0: c8c3 ecbf db06 fc3d 699f 6f3d 68be 2cbf
000000d0: 97e4 c9bf 13a8 e5be 3bbc fe3e dbf9 d1bd
000000e0: 2235 f93e fcfa 853d 8308 8ac0 1874 bdbf
000000f0: ceff 53c0 f23b ecbe c03d 1c3d 41bd ed3d
00000100: 4eed c3be 9c7b c2bf 861b 0b3e 3b99 923e
00000110: cc44 23bf 6b50 ef3d 98a6 d0c0 0c5b 5d3c
00000120: fd3b b9be af61 cfbe dd65 253f 7c4d 20be
00000130: f022 9b3d c678 adc0 bb4a a4bd df6c debd
00000140: cd82 ba3e b246 38c0 2455 8d3e 37a8 033e
00000150: b15e 65c0 c0af 5e3d f05d cd3d 2dd8 64c0
00000160: 6373 ab3d a7ea 273d db8e 65c0 b6e7 a4c0
00000170: f7c2 ccbe db38 cabe ae1e dfbf 9119 51bf
00000180: 4f01 b03e 4087 3ebf 9518 91bf 8466 6dbf
00000190: c257 24c0 6bdc 9ebc 614d e33e 475f 4c3e
000001a0: 4df4 d3bf 05e3 223f 0351 96be 4cc9 1ec0
000001b0: d530 cebe ce33 03c0 7533 99be abe0 40c0
000001c0: c510 5bbf 3d38 6dc0 baf9 32c0 6196 893e
000001d0: 5f66 843c 9615 6abd 82e7 bcbe a3e6 0dbf
000001e0: a9bd 83be 61f7 b43b ec0e 9739 8659 9dbd
000001f0: aba2 9bbf 21af 50c0 a2ea b4bf 70c9 00bd
00000200: f859 bf3e fde6 d9be a702 03bd d58e 09c1
00000210: fc86 773e 5ee9 d3be 2f38 38c0 e8af 13c0
00000220: 83fd b93e 77a2 3cbe 57bf 93be 2709 a7be
00000230: 5664 00be 45a4 cfbf 5a9f 06c0 89f1 c5bf
00000240: 92c5 23be 745c d2bf 812c e9bf ae52 81bd
00000250: 9ff8 4fbe e16c 92bf 3f1d 51be 5c7e 91be
00000260: fa94 49bf eec8 03bf 576a 85c0 9193 6bc0
00000270: 7aa4 c7be f859 dcbf cb22 00c0 e45f 3dc0
00000280: 9b30 4fc0 82ea a6bc d499 b9be 0fdc 5abe
00000290: 2a0e b7be c185 a2c0 5361 8bbf a667 0b3e
000002a0: ea07 143f 3b01 333e e5e2 95c0 655d cc3e
000002b0: c616 ecbe bf2e a43e ee9f 0ebd c977 53bd
000002c0: 080c 80bc 7c1d 08be 7c88 0cc1 0966 c5bd
000002d0: a3de a9bf 2994 6b3e e67b 7ebe 4202 bfbe
000002e0: dc53 efbf 7d8a cbbf 0bca a1bf 0c58 9bbd
000002f0: 86e2 87be b930 05bf e704 a5c0 1407 a53e
00000300: d9ee afbf f05f babd a5e4 5cbe d9d1 50bd
00000310: 0dcc 6a3d 57f1 4b3f b22b f03e bf2f 8a3c
00000320: 2f72 68c0 a836 08bf bb1b 45be b0f7 653e
00000330: 8c2d 77c0 be5e 23bf c134 5bbe cc8d 2c3f
00000340: 2214 d3be 6efb f43e 2ac8 46bf d802 7bbe
00000350: 9c38 79bd c282 63bf 8ed5 84bc b5cd 1dbd
00000360: 68f9 d1bd 75fb 64c0 0ff2 54bd 5a30 81bf
00000370: 0549 8dc0 2c2f 7cc0 cdd2 bdbe 32d5 0ec1
00000380: 30a7 30c1
0.3276087 -1.9321675 -0.11626372 0.054686617 -2.4602451 0.05734213 -1.5153507 -0.4390313
1.1314311 -0.1598111 0.3804434 -1.0802562 -0.044352204 -0.15868175 0.5911659 0.76292133
-0.28046706 0.7458699 -0.047554158 -1.0500195 0.51264596 -0.38319173 -1.1310248 -0.02790104
0.17049292 0.18002617 -1.0295556 -0.09320118 -0.64821523 -1.2806255 -1.1562102 0.9486508
-0.5324325 1.0757731 -0.41206694 -0.2255736 -0.23182696 0.7663982 -0.7101892 -0.119173616
0.24734804 -1.3721799 -0.23783481 -0.20239924 -0.055525485 -1.3125767 0.34924737 -0.9510776
-1.8497248 0.12305995 0.058501635 -0.67478037 -1.5772885 -0.44854793 0.49752983 -0.10252734
0.4867335 0.06542012 -4.313539 -1.4801054 -3.312488 -0.46139485 0.038144827 0.11608363
-0.38266987 -1.5193973 0.13584718 0.2863253 -0.6377685 0.116852604 -6.520336 0.013510477
-0.3617858 -0.40504214 0.64608556 -0.15654558 0.07575023 -5.420993 -0.08022066 -0.10860609
0.36427918 -2.879315 0.2760402 0.12857138 -3.5839045 0.054366827 0.10027683 -3.5756943
0.08371618 0.040995266 -3.5868442 -5.153285 -0.39992496 -0.39496502 -1.7431238 -0.81679636
0.34375998 -0.74425125 -1.1335627 -0.9273455 -2.5678563 -0.019392213 0.44394973 0.1995822
-1.655893 0.63627654 -0.29358682 -2.4810362 -0.4027163 -2.050037 -0.2992207 -3.0137126
-0.85572463 -3.7065575 -2.796492 0.26872543 0.016162096 -0.057149492 -0.36895376 -0.5543005
-0.25730637 0.005522654 0.00028812082 -0.07683091 -1.2159017 -3.260689 -1.4134104 -0.031442106
0.37373328 -0.42559043 -0.03198495 -8.597371 0.24172586 -0.41388983 -2.8784292 -2.3076115
0.36326227 -0.1842135 -0.28856918 -0.3262417 -0.12538275 -1.6222006 -2.103476 -1.5464336
-0.15993336 -1.6434464 -1.8216707 -0.06314598 -0.20309685 -1.1439477 -0.20421313 -0.28416717
-0.78742945 -0.5147847 -4.169231 -3.6808817 -0.38992673 -1.7214956 -2.0021236 -2.9589777
-3.2373416 -0.020375494 -0.36250174 -0.21373008 -0.35752994 -5.0788274 -1.0889076 0.13613757
0.57824576 0.17480938 -4.683947 0.39915004 -0.46111125 0.32066914 -0.03482049 -0.051627908
-0.015630737 -0.13292497 -8.783321 -0.09638602 -1.3271068 0.23005737 -0.24851951 -0.3730641
-1.8697467 -1.5901638 -1.2639784 -0.07585153 -0.2654001 -0.5202747 -5.1568484 0.32231963
-1.3744766 -0.0910033 -0.21571596 -0.050981376 0.057323504 0.7966513 0.46908337 0.01686847
-3.6319692 -0.532084 -0.1924886 0.22457767 -3.862155 -0.6381644 -0.21406843 0.67403865
-0.41226298 0.47848076 -0.77649176 -0.24512804 -0.060845003 -0.88871396 -0.016215112 -0.038526256
-0.102526486 -3.5778477 -0.051988658 -1.0092881 -4.4151635 -3.9403791 -0.3707489 -8.92705
-11.040817

cnn.2.bias f4 [5]
00000000: 8402 b3be bcb1 57be efd8 7fbc f527 dfbb
00000010: 9b9b f7bb
-0.34962857 -0.21063894 -0.015615686 -0.006810183 -0.0075563914

network.0.weight f4 [120, 405]
00000000: 6df5 1cbc 1c67 123d e646 84bd 096a 24bc
00000010: d3bf aabc 2f85 01bc 54f6 7abd bf44 72bc
00000020: 2058 30bd cf16 52bc 3f6d a8bc 5eb3 163c
00000030: b4a5 0ebd d534 483d 1351 e2bc 70ea 5ebd
00000040: 058d 233b 2644 11bb 9917 173d 36a4 27bc
00000050: 62c7 273c 870d 763c be83 3abc 447a 8bbd
00000060: f1ea 9ebd 64f0 51bd e97f ffbc 3582 003d
00000070: ad25 1abc 7090 82bd a1f7 b43c ae59 803b
00000080: 1b24 62bd 5270 393d eb46 93bd 9b77 ac3d
00000090: 5c9a e3bc e433 b4bb ddf5 3b3c bf5e 85bd
000000a0: 4d7b 74bd 62c0 1e3c 8a32 b13b 3f65 c13b
000000b0: 888b 80bd c7c0 213d 0375 4abd 57d6 4f3c
000000c0: ba7f 793c eedc 3a3d 6a3d d43c f285 6fbc
000000d0: 7973 503d 62e4 23bd b095 ee3c d1c4 193c
000000e0: 3b4e e03c d5c9 eebc 5f92 853d 6b5b f63a
000000f0: 3bc3 79bd f4fe b0bc 607c 063d d4f9 713d
00000100: b093 cb3b 4dea 7bbc e036 e4bb 2e9e bf3c
00000110: 4ef9 1fbd bbd3 b3bd 917c e8bd 54a6 343d
00000120: 9618 6d3c f820 32bc c073 bc3c 89db a7bd
00000130: 3503 9cbc 16cf 563c 3f90 6ebd d9b6 bcbd
00000140: b5c7 bc3c cb7c 93bc 9558 a7bc e44d 263d
00000150: 270e 97bd a140 4b3b 20c4 3ebd ffda a7bb
00000160: 71cb cabc a4c3 a1bc 261a 56bd 999b 9e39
00000170: 57a7 b03c 8422 acbd fed7 0f3d 2e87 63bd
00000180: ace4 1d3d 33c9 5abd f5bf b0bd fef0 a2bd
00000190: 3617 a7bc ab5d 053d e55b ddbc bbda a4bb
000001a0: c145 33bd 14ea 55bd bbab 97bd 4679 05be
000001b0: 237d 15bc c610 96bc 50b9 03bd 9fb4 00bd
000001c0: 2023 18bd 82ac bebb a956 d4bc 1ff8 99bc
000001d0: 12df 5ebd b1b8 f23b 31a0 46bd 7d31 0cbc
000001e0: d779 babd 8142 a5bd 8e93 0bbd 90ef 8ebd
000001f0: babb a7bd db26 e73c df87 5dbd f4fd 803c
00000200: 9339 46bd 4675 18bd f06a 16bd 950c 41bd
00000210: 9634 7abd d6ec b03c cc0e 6a3d e0d9 403c
00000220: 7259 cfbb 9894 0ebd 92c9 e9bc 1056 91bd
00000230: 90bd 4bbb 85ef 79bd 7eee 503d bd70 54bd
00000240: 078d 67bd 9880 42bd 767c 213d 6501 79bd
00000250: 987f 403a b2c4 e5bd ef00 62ba 54b6 b63d
00000260: 15ce 79bc af46 49bc 05a1 27bd a280 833c
00000270: 78b7 34bd 5a01 f2bc edf9 f5bd dd11 85ba
00000280: bf46 01bd edf0 36bd 292f 1dbd 4861 2f3c
00000290: 1451 b03b 4e87 2ebd dc8c 0ebd b034 a5bd
000002a0: 1d73 dabc 471c f239 1658 0dbd 7d90 aebd
000002b0: ac30 c43c 5bf2 9abc c8d7 44bd d542 c8bd
000002c0: 0ad3 6ebd 11f2 8cbc df13 afbc 3709 0cbd
000002d0: c4e8 0ebc feb4 2ebd 7f30 20bd fee2 e5bc
000002e0: 4dc0 24bc e7d4 45bd 85e1 5fbd d660 613d
000002f0: 18b6 5abd f45d 0abe 30bf 34bd 6fe2 6bbc
00000300: 09f3 d6bb d2fc 77bd 8ad2 81bd 6f94 9bbd
00000310: d177 03bd 94c1 e6bd e0c1 97bd f85a 69bd
00000320: a25f 53bd b649 303d 614f 8bbc 8c14 9fbb
00000330: 48aa 25bd ab07 e3bc 0099 68bc 7dc7 51bd
00000340: 38b1 a4bd 8dc5 ccbc 5111 64bd a777 2abe
00000350: a9bf 4bbc 4aaf cdbc 7271 2bbd c5d5 243b
00000360: b789 933b dfef 31bd 9333 1fbd 30b9 e4bc
00000370: ebe9 973c 9511 313c b6e1 3dbd fa08 a5bd
00000380: cf9e 6c3a 3e42 84bd 9245 753c be88 023d
00000390: fafa 91ba 208b 2bbb 702b b1bd 7372 46bd
000003a0: 9f98 9cbd 22f6 3cbd a4d6 b5bb eea8 953c
000003b0: 2263 3f3d ceb4 25bc 0af6 cebc 5454 23be
000003c0: a597 e8bc bd66 183c b010 2dbd 830d 99bc
000003d0: 6580 0ebd fb51 c1bc 0f7c 433d 86f5 cdbd
000003e0: 789f 4fbc d405 90bc 1e56 1c3d 682a a1bd
000003f0: c9a1 9f3c d981 873c 664c 343d 7d5b 39bc
-0.009579998 0.035742864 -0.06458835 -0.010035046 -0.020843422 -0.007905289 -0.061270073 -0.014786898
-0.043052793 -0.012822821 -0.020559905 0.009198038 -0.034825996 0.04887851 -0.02762655 -0.054422796
0.002495588 -0.0022165864 0.03688774 -0.010232022 0.010240408 0.015017874 -0.011383949 -0.0681043
-0.07759655 -0.051254645 -0.031188922 0.031374175 -0.009408397 -0.063752055 0.022090735 0.0039169407
-0.055210214 0.045273133 -0.07191261 0.084212504 -0.027783565 -0.00549935 0.011472193 -0.06512212
-0.0596879 0.009689422 0.005407636 0.005901962 -0.062766135 0.039490487 -0.049427997 0.01268538
0.015228206 0.04562085 0.02590819 -0.014619337 0.050891373 -0.040012725 0.029124111 0.009385304
0.027381053 -0.029148975 0.06522059 0.0018795555 -0.060977202 -0.021605946 0.032833457 0.059076145
0.006212674 -0.015375686 -0.0069645494 0.023390856 -0.039056115 -0.08780619 -0.11351884 0.044103935
0.014471194 -0.010872118 0.023004413 -0.0819617 -0.019044498 0.013110897 -0.058243033 -0.09214563
0.023044446 -0.018003842 -0.020427981 0.040601626 -0.07375746 0.0031013864 -0.046573758 -0.005122542
-0.024755212 -0.019746609 -0.05227103 0.00030252038 0.021564169 -0.08405021 0.035118096 -0.05554884
0.038548157 -0.053414535 -0.08630363 -0.07956122 -0.02039681 0.03256003 -0.027021358 -0.0050309575
-0.043767694 -0.052225187 -0.07405802 -0.13034543 -0.009124073 -0.018318545 -0.03215915 -0.031422254
-0.037142873 -0.0058189044 -0.025920229 -0.018795071 -0.054411955 0.007407271 -0.048492614 -0.008556721
-0.0910527 -0.08069325 -0.034076266 -0.06979287 -0.08190103 0.02821677 -0.054084655 0.015746094
-0.04839475 -0.037221216 -0.036723077 -0.04713114 -0.061085306 0.021597307 0.057143018 0.011770695
-0.0063278014 -0.03480968 -0.028538499 -0.07096493 -0.003108833 -0.06101944 0.051008694 -0.051865328
-0.05653098 -0.047485918 0.039425336 -0.060792346 0.00073432317 -0.11219157 -0.0008621355 0.08921495
-0.015246888 -0.012284919 -0.040925045 0.016052548 -0.044120282 -0.02954166 -0.1201056 -0.0010152418
-0.03156161 -0.04466336 -0.038375054 0.010704346 0.005380759 -0.042609505 -0.034802303 -0.0806669
-0.026666218 0.00046178905 -0.034507833 -0.08523653 0.02394899 -0.018914392 -0.048057348 -0.09778372
-0.05830673 -0.01720527 -0.02137178 -0.034188475 -0.008722488 -0.042653076 -0.03910875 -0.02806234
-0.010055614 -0.048298743 -0.05465843 0.05502399 -0.053396314 -0.13512403 -0.044127643 -0.014397248
-0.0065597338 -0.060543843 -0.06338985 -0.07596671 -0.032096688 -0.11267391 -0.074100256 -0.05697152
-0.051604874 0.043039046 -0.017005624 -0.0048547443 -0.040445596 -0.027713617 -0.014196634 -0.051215637
-0.08041614 -0.024996543 -0.055680577 -0.16647206 -0.012435832 -0.025107998 -0.041856237 0.002515183
0.004502501 -0.04344165 -0.038867544 -0.027920336 0.018544158 0.010807415 -0.046357833 -0.08058353
0.000902635 -0.06457947 0.0149702 0.03186869 -0.0011137419 -0.0026175454 -0.08650863 -0.04844899
-0.07646298 -0.046133168 -0.005549269 0.018269029 0.0467254 -0.010113908 -0.025263805 -0.15950137
-0.028392622 0.009301838 -0.042252243 -0.0186832 -0.034790415 -0.023598662 0.047725733 -0.100565955
-0.012672298 -0.017580904 0.038168065 -0.078694165 0.019486325 0.016541408 0.04401817 -0.011313316

network.0.bias f4 [120]
00000000: 8f8b 15be c0c8 e2be 1703 b3be 7fe7 22bf
00000010: 4fe0 42bf f325 b4bf 92ce 5bbf 96a8 4ebf
00000020: 8a80 0abf bdb4 09c0 9bce 30bf b314 47be
00000030: dc97 12be 325b 42bf 0952 0abf 664b 80be
00000040: a3e3 b1bf 5269 c1be f0ec 4ebf f70f ddbe
00000050: a9d2 4dbf 94c6 a4bf 4ccd aabf 1a38 64bf
00000060: 0c91 9abf 0dad 8ebf 7714 0ebe 8707 75bf
00000070: 11ef 8ebe 6afe e1be af97 91bf e40e a7bf
00000080: 8c96 9ebf 9dd8 31bf 7912 3ebe cd58 20be
00000090: b142 39bf a875 34bf 4afd 40bf 8069 8cbf
000000a0: af47 23bf 4022 0abe 501e 1cbf 27e2 22bf
000000b0: 1174 83bf 295a 12bf 7910 5cbf ec05 c2be
000000c0: e499 c9bf ed02 13bf 2b2b 27be 33da 27bf
000000d0: 1142 34bf d098 3fbf dcc6 c9bd 8eb9 13be
000000e0: 9c61 fbbd b4ba 0fbe e9eb e1be 71e3 8fbf
000000f0: 9643 86be ec94 85bf bef7 b3bf f05c 0dbf
00000100: 8ebe 95bf 0bd0 adbe 3e7f aebf 4c04 abbd
00000110: 1b22 f1bd 9cc8 2dbd 4f1c 70bf f7a3 4ebe
00000120: b30f ccbe 509b 9ebf 56b8 b3bf d0e2 9fbe
00000130: 1233 81bf a5be fe39 c0b9 26be 0adc 9cbd
00000140: d348 aabe a9a8 04be c921 41bf b828 5cbf
00000150: 2d1c 39bf 1edd 32bf 8d30 8abe 4fa1 88bf
00000160: dcfd 29be 41e3 85bf b055 babf ec59 8ebf
00000170: f2b4 1abf 73be 4abe 083c 91bf 8321 c1be
00000180: ecb0 053e 66dc 8bbf dbd0 dabf eb5e d0bf
00000190: bbc9 45be 3604 bcbe 5761 bbbe 78ea 56bf
000001a0: 4d70 febd e513 8cbd cb64 7fbf 9468 35bf
000001b0: 6ea2 22bf b7ef 7cbf f38f 12be f77c 85bf
000001c0: 4784 00be ef3b 03be 30e8 41bf 1429 9cbf
000001d0: 3965 2abf 1059 2bbf 850c a8bd d450 55be
-0.14604019 -0.44293785 -0.34963295 -0.63634485 -0.7612352 -1.4074081 -0.85862076 -0.8072599
-0.54102385 -2.1516564 -0.69065255 -0.1944149 -0.14315742 -0.75920403 -0.54031426 -0.25057524
-1.3897594 -0.37775666 -0.8083029 -0.43176243 -0.80399567 -1.2873101 -1.3343902 -0.89148104
-1.2075515 -1.1146561 -0.13874994 -0.9571461 -0.27916768 -0.44139415 -1.1374415 -1.3051419
-1.2389693 -0.6947115 -0.18561734 -0.15658875 -0.7236739 -0.7049203 -0.7538649 -1.0969696
-0.63781255 -0.13489628 -0.60983753 -0.6362633 -1.0269796 -0.57168823 -0.85962635 -0.37895143
-1.5750089 -0.5742634 -0.16325061 -0.6556732 -0.7041331 -0.7484255 -0.098523825 -0.14426252
-0.12274477 -0.14036065 -0.44125298 -1.1241285 -0.2622344 -1.0436072 -1.405998 -0.55219936
-1.1698778 -0.33947787 -1.3632581 -0.08350429 -0.11774083 -0.042427644 -0.93793195 -0.20179735
-0.39855728 -1.2391148 -1.404063 -0.31227732 -1.009371 0.00048588697 -0.16281796 -0.076591566
-0.33258685 -0.12954964 -0.7544218 -0.8599963 -0.7230862 -0.6986865 -0.26990166 -1.0674227
-0.16600746 -1.0459977 -1.45574 -1.1121192 -0.6043235 -0.19799213 -1.1346445 -0.3772088
0.13055772 -1.0926635 -1.7094988 -1.6278967 -0.19315235 -0.36721963 -0.36597702 -0.8395152
-0.124237634 -0.06839732 -0.9976317 -0.708627 -0.635291 -0.98803276 -0.14312725 -1.0428761
-0.1255046 -0.12815832 -0.75744915 -1.2200036 -0.66560704 -0.66932774 -0.08205513 -0.20831615

network.2.weight f4 [84, 120]
00000000: 9be0 73bd e645 13bf 6b1c 24be 703b 713e
00000010: a8ae dabf 02c1 033e 4a0d 973f 87ce 18bf
00000020: 03b9 56be 4175 bcbe 9ce9 8bbf aa25 acc0
00000030: bfda 53bd b25e 14c0 8351 42bf 7a1d 933d
00000040: 58a2 be3e a515 23c0 b707 e5be 6f0a 11c0
00000050: 9d2d b93f 58c1 09c0 841b bdc0 627a 97bf
00000060: ca48 3cc0 2a5f bdbf 3c65 313d 187e d2bf
00000070: bda4 94c0 82f5 e0bf e433 68c0 65ec d1bf
00000080: 8b73 e83e 7edf b2c0 a5df e3bd 1b40 8cbd
00000090: 25a3 673e de01 183f 9b97 1940 4bb6 85bf
000000a0: e608 80bf f2b4 51bd 8382 383f 3bf7 03bf
000000b0: 03fa 64c0 42c5 8b3e 17d2 69c0 a232 a3c0
000000c0: 0121 89bf d9f4 9dbe 2dbc 0d3c 2652 e6c0
000000d0: 9833 3b3f 28dc 263f 403d d4bd a0f5 ca38
000000e0: 7d6d 9d3d fb86 bc3d 1444 d53f 1bae 20c0
000000f0: 31a5 0abe d4e0 a0bf 65d9 113f bcce e5bf
00000100: 93be 3bbd ff11 62c0 50bb 03bf 5f6e 6ac0
00000110: 135c 4abf 581e 92bf 09c1 443f 900c cb3b
00000120: 386a 2bc0 a7bd 363c e1fe 3840 8336 bcbe
00000130: 5363 6d3e 341f c2bf 0f2c 8b3d c77f debf
00000140: f855 bdbf ca06 df3e 6b48 81bd 0450 f33e
00000150: fdb7 e5bf 13fa 4a40 b25c 70c0 964f 98bf
00000160: 9239 3cbf 33f2 87c0 8384 26bf a4c6 393f
00000170: f956 053f c552 d53e b121 58c0 bf0e 693f
00000180: b7d3 f0be 420f b93e 2bfc 7c3f dfd0 03c0
00000190: a55d 6e3c 1fa1 20bf 8af6 fabe 591f 22c0
000001a0: 4322 9bbd 5093 213c 42c3 473f 3828 50c0
000001b0: 4fbe d13b 03af 43c0 9dd7 b0bd 442f 49c0
000001c0: aafa 2bc0 7860 87bd f189 46bf 7e93 b0be
000001d0: 0ef2 10c0 d1a8 c13f 9a1b b43d 16cf 6bbe
000001e0: 5cad b43b 7c38 d0bd c98e a7bf 8c62 f73d
000001f0: 57e2 893f c024 0fc0 d566 d2bf 16ab 913f
00000200: 89a0 52bf a910 83bf 7c65 783e d626 01bf
00000210: 969c 25bc 885b e5bf fea4 5fbf e802 0b3e
00000220: c454 d7bf 8aad 983e 79c8 0fbf 320a cf3b
00000230: a538 a3c0 485f b3bf 83a5 b33e 8381 8a3f
00000240: e16f 0ec0 e367 0540 e809 353d 57ef 1fc0
00000250: 0963 0240 31f8 30bd 9d02 b43f c595 90bf
00000260: e01d 07c0 3919 a73f e3fa 013c 7367 b4bc
00000270: aa14 913e 69a9 86c0 66a2 67bf 2703 8fbe
00000280: 3da9 92be fe26 963d d3dd d4bf 49ff 35c0
00000290: 9f7b b33f 5366 923e 71a2 fbbf 69aa 0ac0
000002a0: 4f57 9dc0 f376 903f 0af8 0dbd 08dd 0cbf
000002b0: 5994 69c0 845f e2bd 7097 b93c e129 4dbc
000002c0: 3912 613a abb5 44bd 37dd 243f 7380 58c0
000002d0: 5a91 77bd a6d0 fc3f 600c 753c 69e9 65be
000002e0: 62cf 8dbf 4eb6 6f3e aee3 d3bf 9f11 9ebe
000002f0: 4f99 40bf 0231 d0be 076a 4d3f 17bb 443d
00000300: d989 20c0 c3c8 d23e b485 323f 4ff3 6fbf
00000310: 63e7 d83e 8e7b e8bf 005b 94bd d8c5 b5bf
00000320: 2d1c 29c0 751f 253e f733 d23f 443d b7bf
00000330: 0a32 6ac0 8c24 4dc0 c73a 02c0 63a4 4c3e
00000340: 5b79 45bd 645c bfbf 7630 bdbf faf7 7ac0
00000350: b818 0ebd ccee 513f a4f5 a8bf 3676 8ebf
00000360: bc84 943e bd27 08be beff 823f 8ddb 6cc0
00000370: 4ad8 ec3c 2bcb 36c0 b44c ffbf 7288 b9be
00000380: f04b 843d 43ec 1ac0 636c a5bf aaf7 aebf
00000390: b3d3 cebf 5266 c03f 0b6f 543d bdc5 aabd
000003a0: 4477 3fc0 79ab 4d3d e928 1cbf d85a 0bbf
000003b0: c1d8 f13f 8f10 edbf fb47 e63c 1728 8b3d
000003c0: 0e52 38bc 9f73 cfbf 02be cebe 1dcc 4fbf
000003d0: e8e5 66bf 06da 54be 565d b2bd 9e4a 31c0
000003e0: d6d8 d6bf 005e b33e b625 76c0 79c9 ae3f
000003f0: ea3a 96bd 78e5 2bc0 d452 edbe 9f30 56bd
-0.059540372 -0.5752853 -0.16026466 0.2355783 -1.7084551 0.12866595 1.180093 -0.59690136
-0.20969014 -0.36808208 -1.0930667 -5.3795977 -0.051722284 -2.3182797 -0.75905627 0.071833566
0.37233233 -2.548196 -0.44732448 -2.2662618 1.4467045 -2.1524258 -5.909609 -1.1834223
-2.9419427 -1.4794667 0.043309435 -1.6444731 -4.6451097 -1.7574923 -3.6281672 -1.6400267
0.45400652 -5.5897818 -0.11126641 -0.06848165 0.22620828 0.5937785 2.3998783 -1.0446256
-1.0002716 -0.051197954 0.72074145 -0.5154912 -3.5777595 0.27298933 -3.6534479 -5.099931
-1.0713197 -0.30850866 0.008650822 -7.197528 0.731256 0.6517968 -0.10363245 9.677862e-05
0.07686899 0.09205433 1.6661401 -2.5106266 -0.13539578 -1.2568612 0.5697234 -1.7953715
-0.045836043 -3.5323484 -0.5145769 -3.6629865 -0.79046744 -1.141551 0.7685705 0.006196566
-2.678358 0.011153615 2.8905566 -0.3676034 0.2318242 -1.5165772 0.06795513 -1.7382745
-1.479186 0.43559867 -0.06312641 0.47521985 -1.7946774 3.1715133 -3.7556577 -1.1899288
-0.73525345 -4.2483153 -0.65045947 0.72568727 0.52085835 0.4166471 -3.3770564 0.91038126
-0.47036526 0.36144453 0.9882228 -2.0596235 0.014548694 -0.6274585 -0.4901622 -2.5331633
-0.07574894 0.009861782 0.78032315 -3.2524548 0.0064008604 -3.0575569 -0.08634875 -3.1435099
-2.6871743 -0.06610197 -0.7755423 -0.34487528 -2.2647738 1.5129644 0.08794327 -0.23028216
0.00551383 -0.101670235 -1.309045 0.12079343 1.0772198 -2.236618 -1.6437632 1.1380336
-0.8227621 -1.0239459 0.24257463 -0.50449884 -0.010108134 -1.7918558 -0.87361133 0.13575327
-1.6822743 0.298199 -0.5616527 0.006318354 -5.1006646 -1.4013453 0.35087213 1.0820774
-2.2255785 2.0844657 0.0441989 -2.4989831 2.0372946 -0.043205444 1.4063298 -1.1295706
-2.1111984 1.3054572 0.007933351 -0.022021985 0.28336078 -4.20818 -0.90482175 -0.27932093
-0.28644744 0.07331656 -1.6630195 -2.8437064 1.4022101 0.28593692 -1.9658948 -2.166651
-4.916908 1.12863 -0.034660377 -0.55024767 -3.6496794 -0.110533744 0.022655219 -0.012522192
0.0008585784 -0.048024815 0.6440005 -3.38284 -0.060441352 1.9751174 0.014956564 -0.2245232
-1.1078913 0.23409387 -1.6553857 -0.3087282 -0.7523393 -0.4066239 0.8023991 0.048029985
-2.5084136 0.41168794 0.69735265 -0.93730634 0.42364034 -1.8162706 -0.072439194 -1.4201002
-2.6423447 0.16125281 1.6422108 -1.4315572 -3.6593041 -3.2053556 -2.0348375 0.19984584
-0.048211437 -1.495007 -1.4780414 -3.9213853 -0.034691542 0.82005 -1.3199964 -1.1129825
0.29007518 -0.13296409 1.0234296 -3.7009003 0.028911728 -2.8561504 -1.9945283 -0.36236912
0.064597964 -2.4206703 -1.2923702 -1.3669331 -1.6158355 1.5031226 0.05186371 -0.08338497
-2.9916544 0.050212357 -0.60999924 -0.5443549 1.8894273 -1.8520678 0.028110495 0.06794756
-0.011250032 -1.620716 -0.4037934 -0.8117083 -0.9019456 -0.20786294 -0.08709209 -2.7701793
-1.6784923 0.35032654 -3.8460517 1.3655235 -0.07335456 -2.6858807 -0.46352255 -0.052292462

network.2.bias f4 [84]
00000000: a358 f33e ac2c 293f 4149 cbbf 45b7 aebe
00000010: d025 11c0 0e26 d73e 1b8d 9abe 49c4 b7bf
00000020: 387f 4fbe bcd1 57bf 08b7 d7be 5600 2fbf
00000030: 1224 8bbf 00b1 97be 913e a5be f688 27bf
00000040: 327b 66bf eda1 ddbe 2f28 c63d 095c 9fbf
00000050: f2a3 4c3f 7d14 6abf 51ba e7bd 427b 08bf
00000060: abe6 813e bd82 9fbe 8a6a 82bf 3468 4cbf
00000070: 23c4 93bf 7669 293e 2993 783d 6985 dabf
00000080: d1f4 d3bf 90f6 d7bf 7748 1ebe d326 0ac0
00000090: cc52 bebf d558 ddbf 6feb 9a3e c465 1c3f
000000a0: 7e05 44bf 10b9 f3bd 6788 86bf 9da3 8dbf
000000b0: 9001 1cc0 98e7 8fbe 4b05 51bf f7fb d9be
000000c0: 3962 83be aaf3 f2be cd20 fbbe 651f aabd
000000d0: 7f2a 36bf 8bc5 42bf 74ed 8bbf 128d d7bf
000000e0: 9227 803f 5dd9 6cbf 7abf 14c0 d9e0 0dbf
000000f0: 958d 4abf d5f4 8cbf bf4c 0f3e c480 c8bf
00000100: da6b 263e 47a7 843f f2e1 fcbe c0b2 643e
00000110: 8dae 34bf 5d26 acbf 84ca 153d 780b 8bbf
00000120: 7c4a 04bf 3186 76bf cc84 d13e a7c6 f73c
00000130: 2c05 d63e be26 de3e 5775 5fbd 1f2f 99bf
00000140: e3a9 b2be 5fc0 9740 a628 573c f432 b1bd
0.47528562 0.6608379 -1.588173 -0.341242 -2.267933 0.4202122 -0.3018578 -1.4356776
-0.20263374 -0.84304404 -0.4213183 -0.6835989 -1.0870383 -0.29627228 -0.32274297 -0.6544336
-0.9003173 -0.43287602 0.09675633 -1.2449962 0.7993766 -0.9143751 -0.11314834 -0.53313076
0.25371298 -0.31154433 -1.0188763 -0.798465 -1.1544231 0.16544136 0.060687218 -1.7071964
-1.6559087 -1.687212 -0.1545733 -2.1586196 -1.4869018 -1.7292734 0.30257747 0.6109278
-0.7657088 -0.11900532 -1.0510377 -1.1065556 -2.4375954 -0.2810638 -0.816487 -0.42575046
-0.25660875 -0.47451526 -0.49048463 -0.08306769 -0.71158594 -0.76082677 -1.093184 -1.6839926
1.0012076 -0.9251917 -2.3241868 -0.55421215 -0.7912229 -1.1012217 0.1399412 -1.5664296
0.1625208 1.0363549 -0.49391133 0.22333813 -0.70578843 -1.3449208 0.036570087 -1.0862875
-0.51676154 -0.9629851 0.40921628 0.030246092 0.4180082 0.43388933 -0.054555263 -1.1967505
-0.34895238 4.742233 0.01313225 -0.08652297

network.4.weight f4 [21, 84]
00000000: b211 853f 61fa 5cbf 7dad 2f3f fe5a 493f
00000010: 9240 bcbf b0b3 1bc0 7dd6 34bf a747 e2bf
00000020: 650d 053f 3439 86bf ec11 c0bf 3c54 0a40
00000030: 24a5 c23d 8839 23bf e536 4dbd 6589 233e
00000040: c236 d73f 5c3b 0440 e22e 2e3f 4c16 6a3f
00000050: 6944 94bf 39d7 9f3f 10ce 0e3f f01d 60bf
00000060: 6bfe d1be 50fe 6a3e f59d cc3e a026 07c0
00000070: 73d5 01bf b0d9 303e 2dec 093d 271a dfbf
00000080: 438b ee3e 891a d73e d186 e4bf dd1a 583f
00000090: ea0a 003f ebe7 1240 4be5 8fbf 1e74 a1be
000000a0: d03b b7bf e5fb a3bf 836e 7d3f cbae a33e
000000b0: 2346 67bf 9653 7a3f 10a8 c73f 0be0 473f
000000c0: 67a3 10be 7f26 c43e 1147 513f 5be0 6dc0
000000d0: 6e18 b93f 4d0d 5bbf cb13 5dbf 9e24 83bf
000000e0: 6abf 6dbf 88ee d43e 6b9b 763f 2599 9a3d
000000f0: 8bcb 3d3e 5828 41bf a504 613f cc10 333f
00000100: 9e25 8d3f c0a1 cabf 5957 a43f 315e 03bf
00000110: e6ec 02c0 53f8 3d40 11e1 753f 56fa c13d
00000120: 7307 1c3f 9791 ebbe 1cb4 313e 1f17 24bf
00000130: 5a69 c33f ba8e 9e3e 6151 76bf d7b7 b5be
00000140: 4db4 8fbd 88df b7bf 2c2c 963f 7fa2 25c0
00000150: 7f2e ffbf 9328 a0bd 423c dc3f a80e 1a3e
00000160: 4304 9ebf cf86 b1bf 71dc 6c3f aa85 82bf
00000170: 89bc ebbd 775b e9bf ca51 abc0 3c1f 113d
00000180: b2b0 0abe cc5e 17c0 55bd 0540 2e29 5c40
00000190: a28f bebf fc7f 2840 567b 26bf 9e56 6fbf
000001a0: 3d0a 29bf f562 d3bf efa7 db3e ecbe e93e
000001b0: 2717 60bf 7502 653f dff3 1440 130c e93e
000001c0: 2e9b 953f de2d 803f 8e66 023f a21b f13f
000001d0: 30d3 0e3f 53f5 d33f 25fb d63f dd3d fc3e
000001e0: 7531 29bf 5540 c43e edb7 a9be a962 22c0
000001f0: 957c 463e ad1f 29bf 5fbc 4d3f 2977 a33f
00000200: 24bf 053f a307 69bd 8e0d 043f 1704 3dbe
00000210: 9087 c7bf d856 2fbf 51fd 9abf 827b 38bf
00000220: 1b35 013f 9964 3ebf 6f63 74bf e841 fabe
00000230: a39c b6bf 1d4f a83f 7a58 57be e89e 0c3f
00000240: ca9d 34c0 2427 843e d1d6 acbf 3886 6d3f
00000250: 486d 3ec0 5eeb 80bf f1fd cc3e eb04 15c0
00000260: dbbe 9dbe fd55 0cbf b9ee c23e 6d71 e7bf
00000270: d834 aa3f 85fe 973f 026c cf3d 9e1f 2b3f
00000280: d21f 41be 0cdf 053f 419c 8e3e f48c a2bf
00000290: ece5 4cbd 5c9d c0bf 2c80 603f 35bf 59bf
000002a0: 634d 0f3f f64d 223d 8e6d 323f 24a6 8cbd
000002b0: 093b a2bf d354 c6be 3af0 16be daf1 8f3f
000002c0: 45ae cebf 362d aa3f cdaf c0bf 7ea2 633f
000002d0: 3a03 9b3f 5f33 753d 4326 90bf fa9b 1d40
000002e0: bdcf bfbf 1277 b13f 9a59 13bf 94bd 31be
000002f0: 7029 d2bf 81bd fb3f 7b52 0f3f c184 773f
00000300: ad89 c4bf 4949 473f 8bb9 74bf 28dd db3d
00000310: ab5f 1bc0 6316 c9bf a140 8f3f a24c 03bf
00000320: c928 cfbf 1507 993f 749c 10be f2fe d9bf
00000330: 8c7e 553e 530a 453e ba8e 5b3f 2c86 d2be
00000340: 7c58 a5bd b7a8 8dc0 6bbe 36c0 3a24 7c3e
00000350: 178a 04c0 6f79 c93f 8c72 77bf 3ae7 83bf
00000360: a827 83bf d8a0 df3f 6228 cd3f 6c66 8a3e
00000370: 0b36 183f e9da a2bf dcca 0d40 140a a9be
00000380: 2d34 88bf 4214 1abf b872 a93e 0830 15c0
00000390: cfb5 94bf c936 503f ee61 2abd c35c 69bf
000003a0: 8a50 663f 8c22 2dbf b5b5 483f 4145 793e
000003b0: af4c afbe 1cb7 f03e 9052 59c0 0c74 873f
000003c0: 3e84 3d3f 2c29 2440 e8ad c43e 21f4 c3bf
000003d0: 31ce 3abf adce 17bf a7f2 083f 57fa 813f
000003e0: 0ebd 993d 6527 babf 9252 0b40 f1b6 693f
000003f0: 79f4 ebbf 2272 1cbf 7a47 393f 7731 20be
1.0396025 -0.8631955 0.686241 0.7865447 -1.4707205 -2.4328423 -0.70639783 -1.7678117
0.51973563 -1.0486207 -1.5005469 2.1613913 0.09504154 -0.6375966 -0.05010118 0.1597038
1.6813586 2.066123 0.6804029 0.9144027 -1.1583377 1.2487556 0.55783176 -0.8754568
-0.41014418 0.22948575 0.39964262 -2.1117325 -0.5071632 0.17270541 0.0336725 -1.7429856
0.46590623 0.42012432 -1.7853643 0.8441599 0.50016654 2.2954051 -1.124185 -0.31533903
-1.4315128 -1.2811247 0.9899675 0.31969294 -0.90341395 0.9778379 1.5598164 0.7807624
-0.14124833 0.3831062 0.81749064 -3.7168186 1.446058 -0.8556717 -0.86358327 -1.024555
-0.928702 0.41588235 0.963309 0.07548741 0.18534677 -0.75452185 0.8789771 0.69947505
1.1027105 -1.5830612 1.2839156 -0.513156 -2.0457091 2.9682815 0.9604655 0.09471576
0.60948867 -0.46009514 0.17353863 -0.6409778 1.5266526 0.30968267 -0.96217924 -0.3549182
-0.070168115 -1.4365091 1.173223 -2.588043 -1.9936064 -0.07820239 1.7205889 0.15044653
-1.234505 -1.3869265 0.92523867 -1.0197041 -0.115105696 -1.8231038 -5.353734 0.035430178
-0.13543966 -2.365161 2.089681 3.4400134 -1.4887583 2.6328115 -0.65031946 -0.9349154
-0.6603125 -1.6514574 0.4290156 0.45653474 -0.8753533 0.89456874 2.3273847 0.45517024
1.1687982 1.0013998 0.50937736 1.8836558 0.55790997 1.6559242 1.6795393 0.49265948
-0.6609109 0.3833033 -0.33148137 -2.5372717 0.19383462 -0.6606396 0.80365556 1.277074
0.5224478 -0.05689205 0.5158318 -0.18458591 -1.5588245 -0.6849189 -1.2108556 -0.7206346
0.5047166 -0.7437225 -0.95464224 -0.48878407 -1.4266552 1.3149143 -0.21029845 0.5492997
-2.8221307 0.25811112 -1.3503057 0.92782927 -2.97542 -1.0071828 0.40037492 -2.3284252
-0.30809674 -0.5481871 0.38072756 -1.808149 1.3297377 1.1874548 0.10128023 0.6684512
-0.18859795 0.5229347 0.27853587 -1.2699265 -0.050023958 -1.5048022 0.87695575 -0.85057384
0.5597746 0.03962513 0.6969842 -0.06867626 -1.2674266 -0.3873659 -0.14740077 1.1245682
-1.6146933 1.3295047 -1.505365 0.8891982 1.211036 0.059863444 -1.1261677 2.462645
-1.4985272 1.3864462 -0.57558596 -0.17357475 -1.6418896 1.9667207 0.5598523 0.9668694
-1.5354515 0.778462 -0.95595616 0.107355416 -2.427714 -1.5709957 1.1191598 -0.5128881
-1.6184322 1.1955286 -0.14122182 -1.7030928 0.20849055 0.1924222 0.8576466 -0.4111799
-0.08073518 -4.426845 -2.8553722 0.24623194 -2.0709283 1.5740184 -0.9665916 -1.030494
-1.0246477 1.7470961 1.6027949 0.27031267 0.59457463 -1.2723056 2.2155066 -0.33015501
-1.0640923 -0.6018716 0.33095336 -2.3310566 -1.1617984 0.81333596 -0.0415973 -0.9115717
0.8996664 -0.6763084 0.7840226 0.24342825 -0.34238192 0.470147 -3.3956642 1.058229
0.7402991 2.565013 0.3841393 -1.5308877 -0.72970873 -0.5929974 0.5349526 1.0154523
0.075067624 -1.4543272 2.1769147 0.9129477 -1.8433982 -0.6111165 0.7237469 -0.1564387

network.4.bias f4 [21]
00000000: 7d42 4a41 51cd 5741 3972 5141 a875 5d41
00000010: 02d6 5641 a79b 5041 c54f 5441 0685 4e41
00000020: 9a08 5641 06fd 5541 ef0b 5641 faa2 5741
00000030: 7156 4e41 9052 4641 668e 5541 c5b6 4a41
00000040: 517f 5341 c560 5541 9119 4841 4186 4e41
00000050: 31ab 4f41
12.6412325 13.487626 13.090386 13.841225 13.427248 13.038001 13.269475 12.907476
13.3771 13.374273 13.377913 13.477289 12.896104 12.395157 13.347265 12.669621
13.218583 13.336125 12.506242 12.907777 12.979295
