model/state_dict/self_play.pt (torch, 248340 bytes, 10 tensors)

cnn.0.weight f4 [5, 5, 3, 3]
0	0x3bc18f79	0.005906996
1	0x3da92c45	0.08260397
2	0x3d0000b9	0.03125069
3	0x3d1b8eef	0.03797811
4	0xbda7fd5a	-0.0820262
5	0x3d16e67f	0.036840912
6	0xbd0bd0d8	-0.034134716
7	0x3d70ceb6	0.058790885
8	0xbdb6c646	-0.089245364
9	0x3dee84c4	0.11646417
10	0xbcf0ff6a	-0.029418666
11	0x3d7ee69c	0.062231645
12	0xbc0a243b	-0.00843149
13	0xbd308e17	-0.043104257
14	0x3e0b2f1c	0.1359219
15	0xbe03d56d	-0.12874384
16	0xbe341a30	-0.17588115
17	0xbe123ac3	-0.14280228
18	0xbe852f61	-0.2601271
19	0xbd0d3f2a	-0.034484066
20	0xbe201c44	-0.15635782
21	0xbddb4995	-0.10707394
22	0xbe182fdc	-0.14862007
23	0xbea2faaf	-0.3183188
24	0xbc97ce86	-0.018531095
25	0x3e7be596	0.24599299
26	0x3d80aecc	0.0628334
27	0xbda5ad9e	-0.080897555
28	0xbd17db20	-0.03707421
29	0xbd808d8c	-0.06276998
30	0x3e88be6c	0.2670778
31	0x3e4ce726	0.20010051
32	0x3edb8dbb	0.4288157
33	0x3ea7d966	0.3278305
34	0xbdcfceea	-0.101468876
35	0x3e0faa39	0.14029779
36	0x3e4238f5	0.1896704
37	0x3e62b2cc	0.22138518
38	0x3e91e35f	0.28493783
39	0xbeaceedb	-0.33775982
40	0xbdca646e	-0.09882437
41	0xbea0f47a	-0.3143652
42	0xbe936e11	-0.28794912
43	0x3e400d82	0.18755153
44	0xbde46ab9	-0.11153168
45	0x3caa93a6	0.020822357
46	0xbd9a7baf	-0.07543122
47	0xbcdb9df1	-0.02680871
48	0xbc9c8d6b	-0.019110402
49	0xbda740d2	-0.0816666
50	0xbd4e1781	-0.050315384
51	0xbd7ccd74	-0.061719373
52	0x3cc49ba8	0.024000004
53	0x3d6be2c1	0.057589296
54	0xbbb87d1a	-0.0056301476
55	0x3c96e1d2	0.018418226
56	0x3ca98fda	0.020698477
57	0x3b365be5	0.002782577
58	0xbdf77caa	-0.12084325
59	0xbda714bc	-0.08158252
60	0xbc1fea6d	-0.009760481
61	0xbd4fa64c	-0.050695702
62	0xbd8cc46f	-0.06873404
63	0xbdda743e	-0.10666703
64	0x3b7490e0	0.0037317798
65	0xb97e06f7	-0.00024225922
66	0x3d75a9ef	0.059976514
67	0x3e248ecd	0.16070099
68	0x3e157adc	0.14597648
69	0x3d247a34	0.040155604
70	0xbdbe8f52	-0.0930468
71	0x3dd03561	0.10166431
72	0xbe1bba09	-0.15207686
73	0xbe432cde	-0.19060084
74	0x3da4e006	0.080505416
75	0xbd40fca0	-0.047115922
76	0xbe63e2a6	-0.22254428
77	0xbd6490a2	-0.055801995
78	0xbe46cd1f	-0.19414185
79	0x3f2cc0d4	0.6748173
80	0xbe3390b7	-0.17535673
81	0x3d95c25f	0.07312464
82	0xbb672c2d	-0.0035274134
83	0xbe868224	-0.26271164
84	0xbc046f55	-0.008083184
85	0x3df00dc8	0.117213786
86	0x3c9d1014	0.019172706
87	0x3e5cef72	0.21575716
88	0xbea2bfe2	-0.3178702
89	0x3e06f8fe	0.1318092
90	0xbb2429ef	-0.0025049408
91	0xbe07a4c6	-0.1324645
92	0x3cb2521d	0.02176767
93	0x3d7955eb	0.060872953
94	0xbd9327fc	-0.07185361
95	0xbd248f24	-0.040175572
96	0xbe1a3793	-0.15060262
97	0x3d90e844	0.07075551
98	0xbd220439	-0.03955481
99	0xbcdc008c	-0.02685573
100	0x3d84f4de	0.06492017
101	0x3dca8627	0.09888869
102	0xbe222f3a	-0.15838328
103	0xbd45a1ce	-0.048250012
104	0xbd150592	-0.036382265
105	0xbe179b3a	-0.14805308
106	0xbe49c01c	-0.1970219
107	0xbe0c2a8d	-0.13688107
108	0x3df185e2	0.11793114
109	0xbbdcfc00	-0.006743908
110	0xbdafc6df	-0.085828535
111	0x3e482be7	0.19547997
112	0x3db1a96e	0.08674894
113	0x3d6fbbb6	0.058528624
114	0x3e29616b	0.16541068
115	0x3e8bc51a	0.27298814
116	0x3e03dfd2	0.1287835
117	0xbe12afb4	-0.14324838
118	0x3dcce30b	0.100042425
119	0xbdf1d4e7	-0.11808186
120	0xbe398fc4	-0.18121248
121	0x3ed994cc	0.42496336
122	0xbe253c06	-0.16136178
123	0x3ee51fcb	0.4475082
124	0x3e6bdeef	0.23034261
125	0x3ef4dd8d	0.4782528
126	0x3dc175a6	0.09446268
127	0xbdc6f16b	-0.097140156
128	0x3dcb58ef	0.09929072
129	0x3cc5648a	0.024095792
130	0xbeb431d2	-0.3519426
131	0x3cea35c7	0.028590096
132	0xbe8f318d	-0.27967492
133	0xbdb07cca	-0.086175516
134	0xbeaba196	-0.33521718
135	0xbda9437d	-0.082648255
136	0x3d508e00	0.05091667
137	0x3d46d420	0.048542142
138	0xbd30f63b	-0.043203574
139	0xbbd64084	-0.0065384526
140	0xbd2c4ac6	-0.042063497
141	0x3d6aef76	0.057357274
142	0xbd88301e	-0.066498026
143	0x3d0638e6	0.032769106
144	0xbe168993	-0.14700918
145	0xbe23d2fe	-0.15998456
146	0xbdc12f11	-0.09432805
147	0xbdf6e2b4	-0.12054959
148	0xbe354720	-0.17702913
149	0xbe275357	-0.16340385
150	0xbd77b390	-0.06047398
151	0xbe3144dc	-0.17311424
152	0xbd087d7f	-0.033322807
153	0x3de7227c	0.11285874
154	0x3e002d9b	0.12517397
155	0xbd7c1d97	-0.061551657
156	0xbd0fda0e	-0.035120063
157	0x3d9d2ab9	0.07674164
158	0xbd07a732	-0.033118434
159	0x3c863536	0.016382795
160	0x3d505cc0	0.050869703
161	0xbd62c931	-0.055367652
162	0x3d3feea0	0.04685843
163	0xbc96a53b	-0.018389335
164	0x3eaa3dcc	0.33250272
165	0xbd86b2e8	-0.065770924
166	0x3eeac506	0.45853442
167	0x3e8f460e	0.27983135
168	0x3ecf6161	0.40503982
169	0x3dede6a7	0.11616259
170	0x3ed2feed	0.41210118
171	0x3c9e75c3	0.019343263
172	0xbd84d87d	-0.06486604
173	0xbec6c063	-0.38818654
174	0x3da95590	0.08268273
175	0xbef2701f	-0.47351167
176	0xbe8d0329	-0.27541474
177	0xbf13d1fa	-0.57742274
178	0xbdf00c14	-0.11721054
179	0xbf302669	-0.6880861
180	0xbdb63ae3	-0.088979505
181	0x3bc4d255	0.006006519
182	0x3d9b5984	0.07585433
183	0x3af26b86	0.0018495179
184	0x3e1d3314	0.15351516
185	0x3b96755c	0.004591627
186	0x3ddafcf5	0.10692779
187	0xbdea37ae	-0.11436401
188	0x3c6fb54d	0.014630628
189	0x3aa80711	0.0012819489
190	0x3d855c77	0.06511777
191	0x3db74384	0.089484245
192	0xbd164ad6	-0.036692463
193	0xba3d1e7c	-0.00072143204
194	0x3df6aec4	0.12045053
195	0x3d949ce0	0.07256484
196	0x3d19f60a	0.037588157
197	0xbd8be56d	-0.06830869
198	0x3dc2e790	0.09516823
199	0xbc8beb79	-0.017080056
200	0x3b62bda3	0.0034597896
201	0x3e6c47c5	0.23074253
202	0x3e3128ea	0.17300764
203	0x3cb404ad	0.021974886
204	0x3dbaf05d	0.09127877
205	0x3d8eed37	0.06978839
206	0x3e5ca471	0.21547104
207	0xbe656744	-0.22402674
208	0xbdaba37b	-0.08380791
209	0xbe29dc3a	-0.16587916
210	0xbe85f1fd	-0.26161185
211	0xbe639f25	-0.22228678
212	0x3e51f70c	0.20504397
213	0x3e873b7c	0.2641257
214	0xbe98b836	-0.29828042
215	0xbe99c587	-0.30033514
216	0x3d460772	0.048346944
217	0x3c33890a	0.010957966
218	0x3d218ca2	0.03944076
219	0xbe427e0c	-0.18993396
220	0xbf12a7b4	-0.57287145
221	0xbf09a49a	-0.5376679
222	0xbead39b6	-0.33833092
223	0xbed73c50	-0.42038202
224	0xbe336041	-0.17517187

cnn.0.bias f4 [5]
0	0x3d622e86	0.05522015
1	0xbd31a204	-0.0433674
2	0xbb44e205	-0.0030041945
3	0xbd9f5eb1	-0.07781733
4	0x3e32a3b2	0.17445257

cnn.2.weight f4 [5, 5, 3, 3]
0	0xbde38b64	-0.11110571
1	0xbd178fd5	-0.037002403
2	0xbe2070ea	-0.15668073
3	0xbcd4061a	-0.025881816
4	0xbd622a51	-0.055216137
5	0xbdf7e692	-0.12104525
6	0xbc06f63e	-0.00823742
7	0xbcb3b4dd	-0.021936828
8	0xbe27701f	-0.16351365
9	0xbd7c6ea0	-0.061628938
10	0x3db3efd0	0.08785975
11	0xbe46df54	-0.1942113
12	0xb9bd92e7	-0.0003615834
13	0xbe0d066b	-0.1377198
14	0x3e1bc55d	0.15212007
15	0xbe58beba	-0.21166506
16	0x3d37d2b9	0.044878695
17	0x3d42ac55	0.04752763
18	0xbdc40b5c	-0.09572479
19	0xbd3c910c	-0.046036765
20	0x3c976201	0.01847935
21	0x3b41b32d	0.002955626
22	0x3deb0b02	0.11476709
23	0xbdbaaf86	-0.0911551
24	0x3ddc2486	0.10749154
25	0xbe7c66f0	-0.24648643
26	0xbe469699	-0.19393386
27	0xbd123529	-0.03569523
28	0xbcc70b19	-0.024297284
29	0x3e267fb3	0.16259651
30	0x3e5abe0f	0.21361564
31	0xbce21a54	-0.027600445
32	0xbe635563	-0.22200541
33	0x3e07aa4b	0.13248555
34	0xbe6a9496	-0.22908244
35	0xbd610e10	-0.05494505
36	0x3d50fd92	0.051023073
37	0xbd2ef851	-0.04271728
38	0x3e104bfa	0.14091483
39	0x3d830960	0.063982725
40	0x3d5a5643	0.05330492
41	0xbcc4c1ed	-0.024018252
42	0x3cb93241	0.02260697
43	0xbd1dc87c	-0.038521275
44	0x3e022884	0.12710768
45	0xbd4e705f	-0.050400134
46	0xbe88d8c4	-0.2672788
47	0xbc6fd35c	-0.014637794
48	0x3e14699b	0.1449341
49	0x3e0864af	0.13319658
50	0x3d8fd355	0.0702273
51	0xbe6f4927	-0.23367749
52	0xbe9063fc	-0.28201282
53	0xbf14e45f	-0.58160967
54	0xbe0899e9	-0.13339962
55	0x3dc8f31b	0.09811994
56	0x3dd45822	0.103683725
57	0xbdceb189	-0.10092456
58	0xbe06e3ed	-0.13172884
59	0xbdbe2162	-0.09283711
60	0xbd8007bc	-0.06251475
61	0xbe4525fe	-0.19252774
62	0x3cfa967c	0.030589335
63	0x3d65e190	0.056123316
64	0x3e120894	0.14261085
65	0x3e2f4725	0.17116983
66	0xbe3890e8	-0.18024027
67	0x3d8e2ba2	0.06941916
68	0x3d191a4f	0.037378605
69	0xbe0cbcf2	-0.13743952
70	0xbd22bd2a	-0.039731182
71	0xbe457b97	-0.19285427
72	0x3e1b5f0b	0.15172975
73	0x3d169e34	0.036771968
74	0x3ec86d05	0.39145675
75	0x3e2a1524	0.16609627
76	0x3e32cfa2	0.17462018
77	0x3eb4661d	0.35234156
78	0x3e13f067	0.14447175
79	0x3e2cf1cb	0.16889112
80	0x3ed9b74a	0.4252265
81	0xbe596003	-0.21228032
82	0xbec91d09	-0.39279965
83	0xbdffcf6a	-0.12490733
84	0x3d3252a4	0.043535843
85	0xbe400fca	-0.18756023
86	0x3ce18c52	0.02753273
87	0xbe31af71	-0.17352082
88	0xbe05682c	-0.1302802
89	0xbe891f14	-0.26781523
90	0xbde2c0ef	-0.110719554
91	0xbbd9063c	-0.0066230576
92	0xbd1ba1df	-0.03799617
93	0x3dc64594	0.0968124
94	0xbe058ee3	-0.13042788
95	0x3db61046	0.08889823
96	0xbeb3ff49	-0.35155705
97	0x3e0cc6f6	0.13747773
98	0x3e553b06	0.20823297
99	0x3e1f92b3	0.15583305
100	0xbc6800d6	-0.014160356
101	0xbe1235f1	-0.1427839
102	0x3b75b77f	0.0037493405
103	0x3d11e1b7	0.03561565
104	0xbcfa04b9	-0.03051983
105	0x3f0bbb9a	0.5458313
106	0xbdf152c6	-0.11783366
107	0xbdee4fdd	-0.116363265
108	0xbd7ed2b3	-0.062212657
109	0x3abd5112	0.0014443716
110	0xbd810875	-0.06300441
111	0x3e436e0c	0.19084948
112	0xbd9661b5	-0.07342855
113	0x3d4e3e59	0.050352428
114	0x3eaac714	0.3335501
115	0x3e95db38	0.29268813
116	0x3d6cb253	0.05778725
117	0xbe0b6482	-0.1361256
118	0x3e8d14e0	0.2755499
119	0x3e534ba2	0.2063432
120	0x3e9b14b7	0.30289242
121	0x3e06cc68	0.13163912
122	0x3e557f1c	0.2084927
123	0x3da87264	0.08224943
124	0x3e7a6d65	0.24455793
125	0xbde696aa	-0.11259206
126	0x3c62a905	0.013834243
127	0x3e12e91f	0.14346741
128	0xbd3a9ec5	-0.04556157
129	0xbe2569a7	-0.16153584
130	0xbdf56bc4	-0.11983445
131	0xbdd9ed3a	-0.106409505
132	0xbe884f99	-0.26623228
133	0x3e98fded	0.2988123
134	0x3e108ea2	0.1411691
135	0x3d8684e9	0.06568319
136	0xbc9d3da4	-0.019194432
137	0x3e23fdfe	0.16014859
138	0x3d5f7c0f	0.05456167
139	0x3d9800ca	0.074220255
140	0x3e18593d	0.14877792
141	0xbe82143f	-0.25406072
142	0xbe49e4f9	-0.19716252
143	0xbdc55471	-0.096352465
144	0xbe451513	-0.1924632
145	0x3db51b5f	0.08843111
146	0x3e2b4b1d	0.16727872
147	0xbc8e1acf	-0.017346768
148	0xbe364f59	-0.17803706
149	0x3dc6f021	0.0971377
150	0x3e0baea2	0.13640836
151	0xbdaf286d	-0.085526325
152	0xbd9dae84	-0.07699302
153	0x3eaa425e	0.3325376
154	0xbdd8ff28	-0.10595542
155	0x3d2bb05c	0.041916236
156	0xbcb0f0fa	-0.021599282
157	0x3d2ae15b	0.041718822
158	0xbdaa1afc	-0.08305928
159	0x3d7a41d1	0.061097924
160	0x3e09be3e	0.13451478
161	0xbe073fa6	-0.13207874
162	0x3f2f15b4	0.6839249
163	0xbeab300a	-0.33435088
164	0x3e772de1	0.24138595
165	0x3d057d27	0.032590058
166	0xbd7ca43a	-0.061680056
167	0x3ebd58df	0.36981866
168	0x3e9e2f7f	0.30895612
169	0x3eab4b34	0.33455813
170	0x3d182bef	0.037151273
171	0xbf060916	-0.52357614
172	0xbea05a3f	-0.31318852
173	0x3e3ee854	0.18643314
174	0x3e25afff	0.16180418
175	0xbe4cb764	-0.19991833
176	0xbdde1cbf	-0.10845327
177	0xbdbed9a2	-0.09318854
178	0x3e052662	0.13002923
179	0x3d997071	0.074921496
180	0xbd9aab6a	-0.07552226
181	0x3e0e8be4	0.13920552
182	0x3e08d5f1	0.13362862
183	0x3d3598e2	0.044335254
184	0x3e3bf7e2	0.18356279
185	0xbe779b8d	-0.24180432
186	0xbed01d9e	-0.40647596
187	0xbdf0d249	-0.11758859
188	0xbe0ef849	-0.13961901
189	0x3e4b911b	0.19879572
190	0xbd49b8ff	-0.04924869
191	0xbc101741	-0.008794607
192	0xbdf7866c	-0.12086186
193	0xbccfee51	-0.025382193
194	0x3e4d7404	0.20063788
195	0x3e0da520	0.13832521
196	0x3d03a102	0.03213597
197	0x3d1462c2	0.036226995
198	0xbd113045	-0.035446424
199	0x3e875ba8	0.26437116
200	0x3da39d0c	0.07988939
201	0x3d6fd459	0.05855212
202	0x3e2af320	0.16694307
203	0x3e48424b	0.19556539
204	0xbe3d7820	-0.18502855
205	0xbe7b9b9c	-0.24571079
206	0x3dee3aaf	0.11632287
207	0x3e147351	0.14497115
208	0x3ecb96d2	0.39763504
209	0x3d90031c	0.07031843
210	0x3e652cf7	0.22380434
211	0x3ec34b27	0.38143274
212	0x3eb736b3	0.3578392
213	0xbdb9ab40	-0.090658665
214	0x3eadc26d	0.33937398
215	0x3e526242	0.20545295
216	0x3d3704a9	0.04468218
217	0x3db9966a	0.09061892
218	0x3d8440cc	0.064576715
219	0x3d27b026	0.040939473
220	0xbe0419f2	-0.12900522
221	0xbeb4a445	-0.35281578
222	0x3d5cd61a	0.05391512
223	0xbd2ded95	-0.042462904
224	0xbd8a698e	-0.06758414

cnn.2.bias f4 [5]
0	0xbd04feb1	-0.032469455
1	0x3c27eebe	0.010249792
2	0xbe0580ee	-0.13037464
3	0x3dc42ff1	0.095794566
4	0xbd861a28	-0.06547958

network.0.weight f4 [120, 405]
0	0xbc9d0a1f	-0.019169865
1	0xbccdbd06	-0.025114547
2	0xbd0cbd45	-0.03436019
3	0xbc8fbde7	-0.017546607
4	0xbd77930f	-0.06044298
5	0x3b18f4ab	0.0023339193
6	0xbd7ded98	-0.061994165
7	0xbccf73a8	-0.025323704
8	0xbcecb86b	-0.028896531
9	0xbc7ce75e	-0.015436022
10	0xbd22d6e5	-0.03975572
11	0xbd70ea3d	-0.058817137
12	0xbc915873	-0.017742371
13	0x3c1635a7	0.009168065
14	0x3bf1a01d	0.0073738233
15	0xbcd86c01	-0.026418688
16	0x3cae8e63	0.02130813
17	0xbd57f436	-0.052723132
18	0xbd36bd5f	-0.044614192
19	0xbcc2aa10	-0.023762733
20	0xbcf89e70	-0.030348986
21	0x3bf2defc	0.0074118357
22	0xbd40187c	-0.04689835
23	0xbd5b793a	-0.053582408
24	0xbd6db291	-0.058031622
25	0xbc061a97	-0.00818505
26	0x3ce418cf	0.02784386
27	0xbc8e09e9	-0.01733871
28	0x3a540a4d	0.0008088693
29	0xbc2e93af	-0.010655328
30	0xbca28b92	-0.019841943
31	0xbc98f846	-0.018673074
32	0x3cf0b4da	0.029383112
33	0xbcb04b71	-0.021520348
34	0xbc7a6a6e	-0.015284164
35	0xbd80b55c	-0.062845916
36	0x3bcc45fc	0.0062339287
37	0xbcdefab7	-0.02721916
38	0xbdb7f9ba	-0.089831784
39	0xbc1017c7	-0.008794731
40	0xbd35c3c9	-0.04437617
41	0xbcd72499	-0.026262568
42	0xbb2e069d	-0.0026554235
43	0xbd672764	-0.05643405
44	0x3c8fe053	0.01756302
45	0x3c979a07	0.018506063
46	0xbc44f175	-0.0120204585
47	0xbd7cc988	-0.061715633
48	0x3cd93f4f	0.026519446
49	0xbd8f24cc	-0.0698944
50	0xbd147c51	-0.03625137
51	0xbb8e289f	-0.0043383385
52	0x3c94d49c	0.018167786
53	0x3c167525	0.009183203
54	0xbd762405	-0.060092945
55	0xbd4294be	-0.047505133
56	0x3bd5fc74	0.006530339
57	0xbdaaa0aa	-0.083314255
58	0x3c75a523	0.014992985
59	0xbd323491	-0.043507162
60	0xbd20c563	-0.039250743
61	0x3c709ab0	0.014685318
62	0x3c3c53d9	0.0114946
63	0x3c72ed71	0.014827118
64	0x3ca9b7bb	0.020717492
65	0xbd589156	-0.05287298
66	0x3ce0afb9	0.027427541
67	0x3c02eb03	0.0079906015
68	0xbda54e77	-0.080716066
69	0xbd730cd3	-0.059338402
70	0xbcd079b4	-0.025448658
71	0x3c24ae9d	0.010051397
72	0xbd3fa13c	-0.046784624
73	0xbd5e9abc	-0.054346785
74	0x3c8e0acc	0.017339133
75	0xbd20887c	-0.03919266
76	0xbd500993	-0.05079038
77	0xbcb64ccd	-0.022253418
78	0x3c635ab1	0.013876603
79	0x390714e1	0.00012882381
80	0xbd274104	-0.040833488
81	0xbd496aaf	-0.049174007
82	0x3c9447e1	0.01810068
83	0xba2f4a63	-0.00066868047
84	0xbc54246b	-0.012948136
85	0xbbc970a2	-0.00614746
86	0xbd192709	-0.037390742
87	0x3cba00b5	0.022705415
88	0x3d008a7d	0.031382073
89	0xbd34ee14	-0.04417236
90	0xbc9ca5b5	-0.019121984
91	0xbcedaf47	-0.029014243
92	0x3c9de737	0.01927529
93	0xbc09d2cd	-0.008412075
94	0xbd679eb2	-0.056547828
95	0xbc0b6b88	-0.008509524
96	0xbd6d7cdb	-0.0579804
97	0xbd1d8f80	-0.03846693
98	0xbb6f6e0e	-0.0036534104
99	0x3bfceaea	0.0077184336
100	0xbce066cd	-0.02739277
101	0xbd72756b	-0.05919401
102	0xbcbf1590	-0.023325711
103	0x3c3197c6	0.010839408
104	0xbcac5966	-0.021038722
105	0x3bbdd0f6	0.0057927324
106	0xbd326df8	-0.043561906
107	0xbd0e9601	-0.034811024
108	0xbd19f965	-0.037591357
109	0xb98d00f9	-0.0002689434
110	0xbb976c23	-0.004621045
111	0xbc8b8bad	-0.017034376
112	0x3a32ed56	0.0006825527
113	0xbd17c22a	-0.037050404
114	0x3bd2ef16	0.0064371927
115	0x3cb86843	0.022510653
116	0xbd173187	-0.036912467
117	0xbd01bdce	-0.031675152
118	0xbc2bc741	-0.010484518
119	0xbca74806	-0.020420086
120	0x3ca6fc6d	0.020384038
121	0x3cd45056	0.025917213
122	0xbc08f44d	-0.008359027
123	0xbd51e161	-0.05124033
124	0x3cdc5d32	0.026899908
125	0x3c548810	0.012971893
126	0x3c3d965d	0.011571494
127	0xbd6d4761	-0.0579294
128	0xbd076fe2	-0.033065684
129	0xbc28abe5	-0.010294889
130	0xbcfd8388	-0.030946508
131	0xbd14b08d	-0.036301184
132	0x3ce09869	0.027416425
133	0xba441efb	-0.0007481423
134	0xba76495e	-0.0009395088
135	0x3c02f814	0.007993717
136	0xbd23c165	-0.039979357
137	0xbbb33a62	-0.0054696063
138	0xbd55db55	-0.052211124
139	0xbc834b4d	-0.016027117
140	0x3ced18af	0.028942434
141	0xbd288097	-0.041138258
142	0x3ba12b9a	0.004918528
143	0x3cec1026	0.028816294
144	0xba64087d	-0.00086987746
145	0xbd3854b8	-0.04500267
146	0x3c483ab7	0.01222103
147	0x3cb6e1ec	0.022324525
148	0x3c51d3ad	0.012806815
149	0x3c21608e	0.009849681
150	0x3caa32b1	0.020776125
151	0xbc8170bb	-0.015800824
152	0xbd799ae8	-0.060938746
153	0xbcf0f73f	-0.029414771
154	0xbd211333	-0.03932495
155	0x3d03235f	0.032016154
156	0x3c97e5fc	0.018542282
157	0xbb57ccc2	-0.0032928442
158	0x3c08ccd3	0.008349615
159	0xbc9c35de	-0.019068655
160	0xbd15e91f	-0.036599275
161	0xbcd270a0	-0.02568847
162	0xbd290f71	-0.04127449
163	0xb84f1a92	-4.937739e-05
164	0xbc5b5343	-0.01338655
165	0xbc94c1c8	-0.018158808
166	0x3d09d877	0.033653703
167	0xbbe86d6a	-0.0070931213
168	0xbd3c4f61	-0.04597414
169	0x3cbab4fa	0.022791374
170	0x3bbec76f	0.005822114
171	0x3ce0512a	0.027382452
172	0xbd86d69b	-0.065839015
173	0xbd05dc89	-0.03268102
174	0xbc3f0045	-0.011657779
175	0xbd48b796	-0.049003206
176	0x3c166d9c	0.009181406
177	0x3c05aec1	0.00815934
178	0x3d0bfdf0	0.03417772
179	0xbcc09873	-0.023510193
180	0x3cba6650	0.022753865
181	0xbd14ce50	-0.036329567
182	0xbd77f425	-0.06053557
183	0xbcba1fac	-0.02272018
184	0x3d1e0543	0.038579237
185	0xbd767c67	-0.060177233
186	0xbd0d913b	-0.03456233
187	0x3cf70153	0.030151999
188	0xbc80bab7	-0.015714033
189	0xbc9199a4	-0.017773457
190	0xbc68ef3e	-0.014217196
191	0xbd9e7b8e	-0.0773841
192	0xbd51cc40	-0.05122018
193	0xbd58f573	-0.052968454
194	0xbd4a964c	-0.04945974
195	0x3cd45da7	0.025923563
196	0xbccc772b	-0.024959167
197	0xbd54b170	-0.05192703
198	0xbd0f1694	-0.03493364
199	0xbc75181d	-0.014959362
200	0xbb9ea811	-0.0048418124
201	0xbc2cec4e	-0.010554386
202	0xbc67e249	-0.014153072
203	0xbcd58604	-0.02606488
204	0x3ccf5c2a	0.025312502
205	0xbd555c5e	-0.05209004
206	0xbcd782f0	-0.026307553
207	0xbd1efd26	-0.03881564
208	0xbd4c0a85	-0.04981472
209	0xbd6704c7	-0.05640104
210	0xbc126851	-0.008936004
211	0xbd16e275	-0.03683706
212	0xbc8faa89	-0.017537372
213	0x3c1b0bb5	0.00946324
214	0xbd30b753	-0.04314358
215	0x3c5bc1f1	0.013412938
216	0x3cd9e081	0.02659631
217	0xbc71364b	-0.014722417
218	0x3d5209bc	0.051278815
219	0x3ba7c196	0.005119513
220	0xbc91ea15	-0.017811814
221	0x3c84a0e4	0.01619
222	0xbd38a62e	-0.045080356
223	0xbccb87ec	-0.024845086
224	0xbadf8e49	-0.0017055954
225	0x3cfd53f7	0.030923827
226	0xbc9dc950	-0.019261032
227	0x3c97de9f	0.018538771
228	0xbcf28a43	-0.029606944
229	0xbd6380d0	-0.055542767
230	0xbc482e42	-0.01221806
231	0xbc951139	-0.018196689
232	0xbcdbc906	-0.026829254
233	0xbccb6a0b	-0.024830839
234	0x3abbef81	0.0014338345
235	0x3c95adc9	0.018271344
236	0x3c097ee5	0.00839207
237	0xbc804f97	-0.015662951
238	0xbcb84046	-0.022491585
239	0xbc9109c3	-0.01770485
240	0xbcdf7e26	-0.027281832
241	0xbc649963	-0.013952586
242	0xbc4fafda	-0.012676204
243	0xbc88974f	-0.016673712
244	0x3bae9496	0.0053277714
245	0xbcdc3ff8	-0.026885971
246	0xbaedd6b6	-0.0018145654
247	0xbcef902d	-0.029243553
248	0xbc9915e7	-0.018687202
249	0xbd1f5383	-0.038898002
250	0xbd66f418	-0.05638513
251	0xbd3b13de	-0.045673244
252	0xbd8d321e	-0.06894325
253	0x3c9f89d6	0.019474905
254	0x3cf39837	0.029735668
255	0xbcac00f4	-0.020996548

network.0.bias f4 [120]
0	0xbd0072aa	-0.031359352
1	0xbd72840a	-0.059207954
2	0xbd6b5cbe	-0.057461493
3	0xbd0c183c	-0.0342028
4	0xbdd2c071	-0.102906115
5	0xbc0ff221	-0.008785755
6	0xbda1fb0f	-0.07909214
7	0x3da9124d	0.08255444
8	0xbcd68986	-0.026188623
9	0x3c56e43b	0.013115938
10	0x3d3b91cb	0.045793336
11	0xbdc4f4d5	-0.096170105
12	0xbdaff7d3	-0.085921906
13	0x3dd888c3	0.1057296
14	0x3d0ea04c	0.03482084
15	0x3dd9f26f	0.10641944
16	0x3d07215d	0.032990802
17	0xbe068b14	-0.13138992
18	0xbd3ab2ea	-0.045580782
19	0xbdbe415f	-0.09289812
20	0x3dbb20b5	0.09137098
21	0x3d726626	0.059179448
22	0x3bbfdda3	0.0058552786
23	0xbe261c60	-0.16221762
24	0xbd6b8cce	-0.05750733
25	0xbcb2670a	-0.021777648
26	0xbddb8809	-0.10719306
27	0x3dd8c267	0.10583954
28	0x3adf8d3e	0.0017055643
29	0xbcd3c0f1	-0.025848838
30	0x3dd441da	0.10364123
31	0xbd7eefcf	-0.062240418
32	0xbd5613fe	-0.05226516
33	0xbe216370	-0.15760589
34	0xbd4bff06	-0.049803756
35	0x3a39a0fb	0.0007081178
36	0x3ce92843	0.028461581
37	0xbc606e35	-0.01369815
38	0xbe322253	-0.17395906
39	0xbca2e517	-0.01988463
40	0x3d806682	0.06269552
41	0xbe2a3a11	-0.16623713
42	0xbdc229e4	-0.09480646
43	0xbd42abf8	-0.047527283
44	0xbded0034	-0.11572304
45	0xbd5701a3	-0.052491795
46	0xbdf84c85	-0.1212397
47	0xbe17a83f	-0.14810275
48	0xbba3d6b7	-0.0049999612
49	0xbdb56dbb	-0.0885882
50	0xbc9edcd8	-0.019392416
51	0x3baeded7	0.005336623
52	0xbd20c1b5	-0.039247233
53	0xbe26e93b	-0.16299908
54	0x3d67b7cc	0.056571767
55	0x3c8b2ea6	0.016990017
56	0x3c93304e	0.01796737
57	0x3c889c04	0.016675957
58	0xbcae9940	-0.02131331
59	0xbe1c2b22	-0.15250829
60	0x3c7fe6b6	0.015618971
61	0xbd74fdca	-0.059812345
62	0xbdac7f2d	-0.08422694
63	0x3d65a5ea	0.05606643
64	0x3af5dd77	0.0018758018
65	0x3c81c8f1	0.015842887
66	0xbddb4abb	-0.10707613
67	0xbcc4c93f	-0.024021743
68	0xbd6b8a61	-0.057505015
69	0x3e4ed34f	0.20197795
70	0xbe4b66e5	-0.1986347
71	0x3d07e8f7	0.033181157
72	0x3e41e31a	0.18934289
73	0xbdabdbf5	-0.08391563
74	0x3c18641b	0.009301211
75	0xbe020d6b	-0.12700431
76	0xbd06ae90	-0.03288132
77	0xbb7c708a	-0.0038519227
78	0xbd67b18d	-0.05656581
79	0x3d027295	0.031847555
80	0x3cb36793	0.021899974
81	0xbc9a9385	-0.01886917
82	0xbd94e7ab	-0.0727075
83	0xbe2603ce	-0.16212389
84	0x3da48105	0.08032421
85	0x3dacff40	0.084471226
86	0x3da63dc4	0.081172496
87	0x3e01198d	0.12607403
88	0xbdbf9146	-0.093538806
89	0xbc5f0c8f	-0.013613834
90	0xbd4e4903	-0.0503626
91	0xbd947f65	-0.07250861
92	0xbd5b4489	-0.053532157
93	0xbe42fc16	-0.19041476
94	0xbb9e3648	-0.004828248
95	0xbe0a39e7	-0.1349865
96	0x3d75c4fa	0.060002305
97	0xbb8ddbb0	-0.0043291673
98	0xbb8681f1	-0.0041048457
99	0x3af3fa5c	0.0018614042
100	0x3c854c03	0.016271597
101	0xbe154f44	-0.14581019
102	0xbe3e1d55	-0.18565877
103	0xbda447eb	-0.0802153
104	0xbdd984b9	-0.10621018
105	0xbdbd5192	-0.09244074
106	0xbddd292a	-0.10798867
107	0x3e2437eb	0.16036956
108	0x3d394724	0.04523386
109	0xbdee430d	-0.11633883
110	0xbd85549d	-0.06510279
111	0xbdf54bfe	-0.11977385
112	0xbde4f5ba	-0.11179681
113	0x3d958042	0.07299854
114	0xbe1d8ca6	-0.15385684
115	0x3d062328	0.03274837
116	0x3e084202	0.1330643
117	0xbd93699b	-0.07197877
118	0x3ca05432	0.019571397
119	0xbc633b42	-0.013869109

network.2.weight f4 [84, 120]
0	0x3db0e110	0.08636677
1	0xbca69e0e	-0.020339038
2	0x3dc88962	0.09791829
3	0xbd432130	-0.047639072
4	0x3d2f7807	0.042839076
5	0xbd9c4082	-0.076294914
6	0xbd0645fc	-0.032781586
7	0xbd00078c	-0.031257197
8	0xbdf95e37	-0.12176173
9	0xbc38b743	-0.011274162
10	0xbda6edf7	-0.08150857
11	0x3d775522	0.060383923
12	0x3d5c9c76	0.05386015
13	0x3cff70fa	0.031181801
14	0x3dc3901c	0.09548971
15	0xbcbb8ba1	-0.022893729
16	0xbda98eae	-0.08279167
17	0xbbc8da8d	-0.006129569
18	0x3d6f3c9a	0.058407404
19	0xbd01fa09	-0.031732593
20	0xbd16fa1e	-0.036859624
21	0xbdbc72bb	-0.092015706
22	0x3c16b066	0.00919733
23	0x3db49f86	0.08819489
24	0x3cf7b76e	0.030238833
25	0x3c5caaf8	0.0134684965
26	0x3d86d58a	0.06583698
27	0x3bec8d22	0.007218973
28	0xbdcf20d2	-0.10113682
29	0xbc995f6c	-0.018722259
30	0x3c302577	0.01075112
31	0xbca89904	-0.020580776
32	0x3b9c5128	0.0047704168
33	0xbcdfd61a	-0.027323771
34	0xbc0e206f	-0.008674725
35	0xbd3dc7c5	-0.046333093
36	0x3d6bb5a7	0.057546284
37	0xbdd1220f	-0.10211574
38	0x3d15a319	0.036532495
39	0x3c4cc42f	0.012497946
40	0xbe0b4461	-0.13600303
41	0xbdc2af16	-0.09506051
42	0xbdb6f84d	-0.08934078
43	0xbd7b1046	-0.061294816
44	0xbbe889f5	-0.007096524
45	0xbca29928	-0.019848421
46	0x3d59f91b	0.05321608
47	0xbd650882	-0.055916317
48	0xbd90c8d5	-0.07069556
49	0xbd2abf11	-0.04168612
50	0xbcd8982e	-0.026439752
51	0xbbd332c5	-0.006445261
52	0x3d324424	0.043522015
53	0x3c973751	0.018458994
54	0x3d0a460d	0.033758212
55	0x3cc29311	0.023751767
56	0x3db2007d	0.086914994
57	0x3c902d97	0.017599864
58	0xbd88a8b4	-0.066728026
59	0xbc18b821	-0.0093212435
60	0x3d6a30bb	0.05717538
61	0xbbadb396	-0.0053009493
62	0xbd646651	-0.05576164
63	0x3bb16e04	0.005414726
64	0x3b211bdb	0.0024583254
65	0xbdcc526a	-0.09976657
66	0x3c968a85	0.018376598
67	0x3d48e925	0.04905047
68	0x3d279f6c	0.04092352
69	0xbd175b06	-0.03695204
70	0xbddbcd44	-0.10732511
71	0xbda50f63	-0.080595754
72	0x3cd1e59a	0.025622178
73	0xbcf9334d	-0.03041997
74	0xbd15cc7d	-0.03657197
75	0xbd5ae49f	-0.053440686
76	0x3c24ec48	0.010066099
77	0xbcc68bc0	-0.02423656
78	0xbd6575d1	-0.05602056
79	0xbd23861d	-0.039922822
80	0x3d4c3c5d	0.049862254
81	0xbca76399	-0.020433234
82	0x3d971bd7	0.07378357
83	0xbb201cd8	-0.0024431255
84	0x3af35455	0.0018564562
85	0x3d98be43	0.074581645
86	0x3b049b5b	0.00202342
87	0x3d72f49f	0.05931532
88	0xbd93fc8c	-0.07225904
89	0xbdbef213	-0.09323516
90	0x3c3f4ffb	0.011676784
91	0x3d5019c4	0.050805822
92	0x3d4ae4cd	0.049534608
93	0x3d37ec76	0.04490324
94	0x3dbac2e2	0.09119202
95	0xbcecc40d	-0.028902078
96	0x3bd377d5	0.006453494
97	0x3d6fcff8	0.058547944
98	0xbdfd1bf4	-0.12358847
99	0xbcb24e2e	-0.021765795
100	0xbcd90b1e	-0.026494559
101	0x3cc8cda2	0.024512116
102	0x3d903160	0.070406675
103	0xbdb6fb10	-0.08934605
104	0xbd2fa0e7	-0.042878058
105	0xbdb8ed74	-0.090296656
106	0xbb189e83	-0.002328784
107	0x3cef8465	0.029237935
108	0xbd1489b6	-0.036264144
109	0xbc2838e1	-0.010267467
110	0xbb22122a	-0.0024730065
111	0x3d4302ed	0.047610212
112	0x3ca3f35d	0.020013506
113	0xbd85bade	-0.06529783
114	0xbd12664b	-0.035742085
115	0xbc83ee5d	-0.016104871
116	0xbda4751e	-0.08030151
117	0x3d23a3e3	0.039951216
118	0xbdbe0057	-0.092774086
119	0x3c307f0a	0.010772476
120	0x3da4605d	0.08026192
121	0xbd81e0e0	-0.063417196
122	0x3bd96036	0.0066337837
123	0x3d325828	0.043541104
124	0x3d967970	0.07347381
125	0xbdc39e70	-0.09551704
126	0x3d57b2b2	0.05266065
127	0x3d152ac5	0.03641774
128	0xbca8683f	-0.02055752
129	0xbe0336d2	-0.12813881
130	0x399dce69	0.0003009916
131	0x3cf025f3	0.02931497
132	0x3db8131f	0.08988022
133	0x3d972ea3	0.07381942
134	0x3d69e115	0.05709942
135	0x3d6b01f8	0.057374924
136	0xbd271885	-0.040794868
137	0xbd3b4680	-0.04572153
138	0x3d570280	0.05249262
139	0xbc269563	-0.0101674525
140	0x3c241318	0.010014318
141	0xbdc87173	-0.09787264
142	0xbdc18980	-0.09450054
143	0x3d944b1a	0.07240887
144	0xbb718c99	-0.0036857484
145	0xbdb1f13b	-0.08688589
146	0xbd78d4f1	-0.06074995
147	0xbca92a27	-0.020649983
148	0xbdf1590b	-0.11784562
149	0xbd57cb2a	-0.052683987
150	0xbdbf7b23	-0.09349658
151	0xbbb1a93d	-0.005421786
152	0x3d50e866	0.051002882
153	0x3d54863a	0.05188582
154	0xbd2df86a	-0.042473234
155	0xbced7f3e	-0.028991338
156	0xbd99988a	-0.07499798
157	0xbdc43dcc	-0.09582099
158	0xbd902c4d	-0.070397
159	0x3db6b9c2	0.08922149
160	0xbde4ddde	-0.1117513
161	0x3db6d25c	0.089268416
162	0xbdb5554e	-0.08854161
163	0x3d021b8f	0.031764563
164	0xbcee2ed9	-0.029075073
165	0x3d9f1064	0.07766798
166	0xbd7ee718	-0.062232107
167	0xbc276e6f	-0.0102192005
168	0xbdc3cbbb	-0.09560343
169	0x3d80095b	0.062517844
170	0xbd4aa5c9	-0.04947451
171	0xbde7659c	-0.11298677
172	0x3be18870	0.0068827197
173	0x3d3a75a2	0.04552234
174	0xbb034170	-0.0020028017
175	0x3d82dc66	0.06389694
176	0xbdad650f	-0.08466541
177	0x3c12e4fa	0.008965725
178	0xbcd9dcf3	-0.026594615
179	0xbd12c85b	-0.035835605
180	0x3d6600dd	0.056153167
181	0x3d805efb	0.06268116
182	0x3cb64ff7	0.022254927
183	0xbdadf6c7	-0.08494335
184	0xbd4c6743	-0.049903166
185	0x3c3913fc	0.011296269
186	0xbda30004	-0.07958987
187	0x3ca28831	0.019840332
188	0xbd4ff90b	-0.050774615
189	0xbe0d0f9c	-0.13775486
190	0x3d18ab09	0.037272487
191	0xbd6f0214	-0.05835159
192	0xbcca2c1b	-0.024679234
193	0xbd3226bf	-0.043493982
194	0xbd935972	-0.07194795
195	0xbdc29242	-0.09500553
196	0x3daace04	0.083400756
197	0xbc8abd27	-0.016935898
198	0x3c2d85da	0.010590995
199	0x3bf84ccf	0.0075775157
200	0x3d2ba825	0.041908402
201	0xbd3bdea0	-0.04586661
202	0x3cce67c1	0.025195958
203	0x3cf468bf	0.029835103
204	0x3cbfb95e	0.02340382
205	0x3cca5bff	0.02470207
206	0x3cbe1dbe	0.023207542
207	0xbd1602de	-0.036623828
208	0x3d908ca7	0.07058077
209	0x3d9389bd	0.07204006
210	0x3d71c0ee	0.059021883
211	0xbd9d8b90	-0.07692635
212	0xbd4d26a8	-0.050085694
213	0x3d0712af	0.032976802
214	0xbcd16c2e	-0.02556428
215	0x3d1a0181	0.03759909
216	0xbd52621f	-0.051363107
217	0xbdcb49ae	-0.09926163
218	0x3d81ec66	0.063439175
219	0x3c9bb5da	0.019007612
220	0x3cfd5ef6	0.03092907
221	0x3da69176	0.08133213
222	0xbd9c2cb1	-0.07625712
223	0x3bac30e5	0.005254852
224	0xbd7ef6b7	-0.062247004
225	0x3d5e0af1	0.054209653
226	0xbd8ff961	-0.07029987
227	0x3d83043a	0.063972905
228	0x3c5701f1	0.013123021
229	0x3cf13c0a	0.029447574
230	0xbccc7757	-0.02495925
231	0xbd9b27ab	-0.075759254
232	0x3d21057d	0.039311875
233	0xbc8a9c35	-0.016920188
234	0xbc5ce2b1	-0.013481782
235	0xbd6511d7	-0.055925217
236	0xbd41f8e5	-0.047356505
237	0x3d2d8b14	0.042368963
238	0xbde6ad9d	-0.11263583
239	0xbd74320e	-0.05961805
240	0x3d1d83d8	0.038455814
241	0xbcb6a848	-0.02229704
242	0xbbe077fd	-0.006850241
243	0xbd1f5e98	-0.03890857
244	0xbe033380	-0.12812614
245	0x3e4e60be	0.20154092
246	0x3d6735be	0.056447737
247	0xbd136b86	-0.035991214
248	0x3d0f60be	0.03500437
249	0x3dba9a61	0.09111477
250	0xbdf73d9d	-0.12072299
251	0x3d8a404c	0.06750545
252	0xbd4d86bd	-0.050177325
253	0xbe12dfc8	-0.14343178
254	0xbdbcb55e	-0.092142805
255	0xbeab1ee7	-0.33422014

network.2.bias f4 [84]
0	0xbdef85cc	-0.116954416
1	0xbdae1877	-0.0850076
2	0x3e075d27	0.13219129
3	0x3e15249a	0.14564744
4	0x3e0d5bde	0.13804576
5	0x3e0a86b9	0.13527955
6	0xbdcff13d	-0.101534344
7	0x3e8dd057	0.27698013
8	0x3d8ce294	0.06879154
9	0xbd5977c0	-0.053092718
10	0x3e63e79e	0.22256324
11	0x3e182039	0.14856042
12	0x3dbad29a	0.091222
13	0x3d450254	0.048097923
14	0x3e1d5b99	0.15366973
15	0x3e3e78e3	0.18600802
16	0x3e37ea9c	0.1796059
17	0xbdf8f20f	-0.12155544
18	0xbdcf5e34	-0.1012539
19	0x3e07879e	0.13235328
20	0x3e5caf08	0.21551144
21	0xbd8d2a4e	-0.068928346
22	0x3d2bb463	0.041920077
23	0x3dd09f97	0.10186689
24	0xbd946b7d	-0.07247064
25	0xbdc63435	-0.096779265
26	0xbd52df71	-0.05148262
27	0x3e2deff5	0.16986068
28	0xbdf70815	-0.120620884
29	0xbc93072e	-0.01794776
30	0xbdc492a7	-0.09598284
31	0x3cf081d5	0.029358784
32	0xbc0437c6	-0.008069938
33	0x3e16fd99	0.14745177
34	0x3dfddd22	0.12395693
35	0xbdcabd7f	-0.09899425
36	0x3e44932c	0.19196767
37	0x3e5f24f1	0.21791436
38	0x3d326d58	0.04356131
39	0xbd804e77	-0.06264966
40	0x3e283c58	0.1642927
41	0xbda81f8c	-0.08209142
42	0x3ccd88b5	0.025089601
43	0xbe115425	-0.14192255
44	0x3deacaec	0.114644855
45	0xbd82a427	-0.06378966
46	0xbdd2a521	-0.10285402
47	0x3ddf92f6	0.109167024
48	0x3d871499	0.065957256
49	0x3d363d95	0.044492323
50	0xbdebf5a2	-0.1152146
51	0x3d89e6d0	0.06733477
52	0x3e4ecec3	0.20196061
53	0x3da48af1	0.080343135
54	0x3e111c9c	0.1417107
55	0xbddcfc0c	-0.107902616
56	0xbd9042a4	-0.07043961
57	0x3dcf31dd	0.101169325
58	0x3dbd7975	0.09251682
59	0x3cf3282d	0.029682243
60	0xbe06d1b3	-0.13165931
61	0xbdaf35e2	-0.08555199
62	0x3cdcf75f	0.026973424
63	0x3da97711	0.08274663
64	0xbdf9f1ad	-0.12204299
65	0xbd36cb91	-0.04462773
66	0xbe0227e4	-0.1271053
67	0x3e2f0d75	0.17094977
68	0x3df3f7ac	0.11912474
69	0x3e1dc742	0.15408042
70	0xbd238225	-0.039919037
71	0x3e1f74c6	0.1557189
72	0x3d611c75	0.05495878
73	0xbca8e4ae	-0.020616855
74	0x3d9358e3	0.07194688
75	0xbe3569bc	-0.17716116
76	0x3d90e920	0.07075715
77	0x3de323ec	0.11090836
78	0xbd3c88c9	-0.046028886
79	0xbd8c68ca	-0.068559244
80	0xbe0c1c86	-0.13682756
81	0x3d9a7674	0.075421244
82	0xbe1d131d	-0.15339322
83	0x3e1356f7	0.14388643

network.4.weight f4 [21, 84]
0	0x3d89d315	0.06729714
1	0xbd07e787	-0.033179786
2	0x3e22e17f	0.15906332
3	0xbda845f3	-0.08216467
4	0x3db84e0b	0.089992605
5	0x3e5f7c6d	0.21824808
6	0xbc34e42b	-0.011040728
7	0xbe5cc544	-0.21559626
8	0x3d51af46	0.051192544
9	0xbd87597f	-0.06608867
10	0x3e18e7d3	0.14932184
11	0x3d62329a	0.05522404
12	0x3d94bd74	0.07262698
13	0x3ccc989c	0.024975114
14	0xbdbdae1f	-0.092617266
15	0x3dd7e2fa	0.10541339
16	0x3e50ed8a	0.20403114
17	0x3dc27d94	0.094966084
18	0x3c3193a6	0.010838425
19	0xbccbf5ee	-0.024897542
20	0x3d150f5e	0.03639161
21	0x3d572be4	0.05253209
22	0x3d848a96	0.06471746
23	0x3cad0ef6	0.021125298
24	0xbcc5f694	-0.02416543
25	0xbc7fd17e	-0.015613912
26	0xbdd91149	-0.10599
27	0x3d099f11	0.033598963
28	0x3d5513e2	0.052020915
29	0xbd8a32d0	-0.06747973
30	0xbddb988f	-0.107224576
31	0xbce6c4c3	-0.028169995
32	0xbd9c88fe	-0.07643317
33	0xbccbe358	-0.02488868
34	0xbe0a5725	-0.13509806
35	0xbe179f95	-0.1480697
36	0x3e5fa4df	0.21840237
37	0x3da2bb8a	0.079459265
38	0xbca27fd4	-0.019836344
39	0x3c3459ac	0.011007708
40	0x3ce43580	0.027857542
41	0xbcb486a6	-0.022036862
42	0x3c005bfd	0.007834432
43	0xbd2c03c0	-0.041995764
44	0x3e18b388	0.14912236
45	0xbccf434a	-0.02530064
46	0x3d87ec8f	0.06636917
47	0x3d49ece8	0.049298197
48	0x3d830a88	0.06398493
49	0x3dad5faa	0.08465512
50	0x3d8c59d8	0.06853074
51	0x3d30f6d0	0.04320413
52	0x3e92a28a	0.28639632
53	0x3d39af56	0.04533323
54	0xbe289687	-0.16463672
55	0xbca4c452	-0.020113144
56	0xbd074bc5	-0.033031244
57	0x3e3a4d08	0.18193448
58	0xbc8a62b6	-0.016892772
59	0xbac4e2a8	-0.0015021162
60	0x3c276764	0.010217521
61	0x3d32c8dc	0.043648586
62	0x3d11538c	0.035480067
63	0xbdd6a340	-0.10480356
64	0xbaca6fb2	-0.0015444665
65	0xbd5fe82d	-0.05466478
66	0x3d6c2a35	0.05765744
67	0x3eb635af	0.35587832
68	0xbd1f1340	-0.038836718
69	0xbdbf8434	-0.093513876
70	0xbafc610e	-0.0019254999
71	0xbba6b4a4	-0.005087452
72	0x3c6a8bbe	0.014315544
73	0xbd92510e	-0.07144366
74	0x3d550db5	0.052015025
75	0xbcb0ef22	-0.021598402
76	0x3d4101bb	0.04712079
77	0x3c18708b	0.009304176
78	0x3d2cdee4	0.042204753
79	0xbdbaa979	-0.091143556
80	0x3dc23977	0.09483617
81	0x3caedbf5	0.021345118
82	0x3d0297e4	0.031883135
83	0x3db89dd2	0.09014477
84	0xbca68042	-0.02032483
85	0x3d9ff95f	0.07811236
86	0x3d78be62	0.06072844
87	0xbe57f82c	-0.21090764
88	0x3d80cdb5	0.062892355
89	0x3e704ea3	0.23467498
90	0x3d13adce	0.036054425
91	0xbe9c3117	-0.30506203
92	0x3dd1d00e	0.102447614
93	0x3cf17f2d	0.029479587
94	0x3e2945a9	0.1653048
95	0x3e030327	0.12794171
96	0x3d61d270	0.05513233
97	0xbb56dbdb	-0.0032784853
98	0x3e424be6	0.18974265
99	0x3e0fffba	0.14062396
100	0x3e87d764	0.26531518
101	0x3c646808	0.013940819
102	0x3ca9076c	0.020633422
103	0xbd92dc31	-0.071709044
104	0x3de9e996	0.11421506
105	0x3da55c11	0.08074201
106	0xbd2d9115	-0.04237469
107	0x3ddbbe88	0.107297
108	0x38fd447e	0.00012076738
109	0x3dd36ee0	0.10323882
110	0xbd865a9b	-0.0656025
111	0x3e025ffb	0.12731926
112	0x3d94ec13	0.0727159
113	0xbde3e945	-0.11128477
114	0xbd9e999a	-0.07744141
115	0x3d7fbce7	0.06243601
116	0x3d72ce18	0.059278578
117	0x3ccc6ba1	0.024953665
118	0x3c08403f	0.008316099
119	0xbd003ea5	-0.031309742
120	0x3dcbc459	0.0994956
121	0x3da54f29	0.08071739
122	0xbd6e2c26	-0.058147572
123	0xbcc0137b	-0.023446789
124	0x3d00f39f	0.031482335
125	0xbd2249cc	-0.03962116
126	0xbb5bf22e	-0.0033561098
127	0x3e081ff1	0.13293435
128	0x3ddb301b	0.10702535
129	0x3c4c6489	0.012475141
130	0xbd3b92c4	-0.045794263
131	0x3e129049	0.14312853
132	0x3e33d9ab	0.17563502
133	0x3d4f465f	0.05060422
134	0xbe190307	-0.14942561
135	0x3e00695f	0.12540196
136	0x3e2122fa	0.15735999
137	0x3d96726d	0.07346044
138	0x3b23e868	0.002501035
139	0x3d48ff23	0.049071442
140	0xbcfafa46	-0.030636918
141	0x3dd81598	0.10550994
142	0xbc0121dd	-0.007881609
143	0xbdc93203	-0.09823992
144	0x3c2cd0e1	0.0105478475
145	0xba3d5232	-0.0007222026
146	0x3bd29aad	0.00642713
147	0x3d1989e8	0.037485033
148	0xbca9a519	-0.020708608
149	0xbd413b19	-0.0471755
150	0x3d6235f1	0.055227224
151	0x3c8e4451	0.01736656
152	0xbdc89e3f	-0.09795808
153	0xbe238293	-0.15967779
154	0xbdbde902	-0.09272958
155	0x3d134040	0.035949945
156	0xbd37ee41	-0.04490495
157	0xbdb91f68	-0.090391934
158	0x3dd3a769	0.10334665
159	0xbe01e6f0	-0.12685752
160	0xbcae2942	-0.021259908
161	0x3dfd99ef	0.12382876
162	0xbd8c9bf1	-0.06865681
163	0x3e08585a	0.13314953
164	0x3da284c5	0.0793548
165	0xbc82a3e8	-0.015947297
166	0x3dd93c8b	0.10607251
167	0x3e1a5c0b	0.15074174
168	0xbc315d97	-0.010825536
169	0xb9e49ec8	-0.0004360585
170	0x3deaf461	0.11472393
171	0x3ce66b3d	0.028127307
172	0x3c7cca47	0.015429086
173	0x3e13ab35	0.14420779
174	0xbdd41829	-0.10356171
175	0xbe69e0b1	-0.22839619
176	0xbd251ea4	-0.040312424
177	0xbccb244c	-0.024797581
178	0x3e0f6d8c	0.14006633
179	0x3da45052	0.080231324
180	0x3d50f499	0.051014517
181	0xbc8ca832	-0.017170046
182	0x3b24119d	0.0025034912
183	0x3d8e2edb	0.06942531
184	0x3e490216	0.19629702
185	0x3d29adea	0.041425623
186	0x3c8e1773	0.017345166
187	0xbcc0c379	-0.023530709
188	0x3d4a6298	0.049410433
189	0x3d111ee1	0.03542984
190	0x3d1171fd	0.0355091
191	0xbcb942ac	-0.0226148
192	0x3bbbee61	0.005735204
193	0xbdb454c2	-0.08805229
194	0xbd6cebc4	-0.05784203
195	0x3dca0069	0.098633595
196	0xbd303573	-0.043019723
197	0xbd430858	-0.04761538
198	0xbbf027d6	-0.0073289676
199	0x3e0d2321	0.13782932
200	0x3c311990	0.010809317
201	0xbc2fea6b	-0.010737042
202	0xbc3a16b3	-0.011357951
203	0xbdb7efb9	-0.0898127
204	0x3e144917	0.14481007
205	0xbcb746d6	-0.022372644
206	0x3ded4834	0.11586037
207	0xbcadf60d	-0.02123549
208	0x3e072945	0.13199337
209	0x3dc932fb	0.09824177
210	0x3ddaa47f	0.106759064
211	0xbdb24341	-0.08704234
212	0x3d459376	0.048236333
213	0x3c5dd2dd	0.013539043
214	0x3cc6c1f4	0.024262406
215	0x3d930250	0.071781754
216	0x3dac1797	0.08402937
217	0xbde0163d	-0.109417416
218	0xbd40d091	-0.047073904
219	0x3d82e853	0.063919686
220	0x3e5a52af	0.21320604
221	0xbb956c07	-0.004559997
222	0xbbfc9391	-0.007708021
223	0x3c9490b0	0.018135399
224	0xbb86d5de	-0.0041148504
225	0x3cc0c337	0.023530586
226	0x3d800ed2	0.06252827
227	0x3baae381	0.005215109
228	0xbd08c389	-0.0333896
229	0x3dd1ec12	0.10250105
230	0x3d8ab63b	0.06773039
231	0xbd48aa80	-0.048990726
232	0x3c6d3750	0.01447852
233	0x3e0c7caa	0.1371943
234	0xbd9937e7	-0.07481366
235	0x3ddfc4ad	0.10926185
236	0xbd885374	-0.066565424
237	0x3d2cdd4f	0.042203244
238	0xbda4c32b	-0.08045038
239	0x3d098a35	0.03357907
240	0xbd2a7c5d	-0.04162251
241	0xbd744d7c	-0.059644207
242	0x3d61189a	0.054955103
243	0xbc738bf4	-0.01486491
244	0xbbfa24fc	-0.0076338034
245	0x3aacd16e	0.0013184974
246	0x3da3f53c	0.08005759
247	0x3ba6d8b4	0.005091751
248	0xbc78dc1d	-0.015189198
249	0x3d34ddac	0.044156715
250	0xbd0423bb	-0.032260638
251	0x3e283a73	0.16428547
252	0x3cd7900d	0.026313806
253	0xbc88c0c7	-0.016693486
254	0x3e7c8e88	0.24663746
255	0x3e011619	0.12606086

network.4.bias f4 [21]
0	0x3e249ac2	0.1607466
1	0x3e150856	0.14553961
2	0x3e242802	0.16030887
3	0x3e084b1c	0.13309902
4	0x3e3c22d3	0.1837266
5	0x3e2daafa	0.16959754
6	0x3dcac900	0.09901619
7	0x3e0c1ef3	0.13683681
8	0x3e6b9889	0.23007406
9	0x3e4fdc37	0.20298849
10	0x3e404ef5	0.1878012
11	0x3e2b7572	0.1674402
12	0x3e42b589	0.19014563
13	0x3e0ccca9	0.13749947
14	0x3dbe1a99	0.09282417
15	0x3d8353f8	0.064125
16	0x3e1575fc	0.14595789
17	0x3dc2e1c7	0.0951572
18	0x3df6aa50	0.12044203
19	0x3e140eb5	0.14458735
20	0x3e1be97d	0.15225787
